name: "Sony"
layer {
  name: "Placeholder: Placeholder.input.uid1"
  type: "Placeholder"
  
  top: "Placeholder.input.uid1:0"
    scale_param {
    "InputShapes": ""
    "OutputShape": "3x320x320"
    "Quantize[mn,mx]": [0, 1.0]
    "QuantizeBits": 8
    
    "RuntimeMemory": "304.00KB"
    "ScheduleId": "180"

  }

}
layer {
  name: "Cast: Cast_to_/model/mul_2/Mul_1"
  type: "Cast"
  
  top: "Cast_to_/model/mul_2/Mul_1:0"
    scale_param {
    "InputShapes": "1x2100"
    "OutputShape": "1x2100"
    "Quantize[mn,mx]": [-128.0, 128.0]
    "QuantizeBits": 16
    "ConstInputs": "/model/mul_2/WeightsPOTQuantizer:0"
    "RuntimeMemory": "4.13KB"
    "ScheduleId": "555"

  }
  blobs {
    shape {
      dim: 1
      dim: 2100
    }
  }
}
layer {
  name: "Cast: Cast_to_/model/sub/Sub_0"
  type: "Cast"
  
  top: "Cast_to_/model/sub/Sub_0:0"
    scale_param {
    "InputShapes": "2x2100"
    "OutputShape": "2x2100"
    "Quantize[mn,mx]": [-64.0, 64.0]
    "QuantizeBits": 16
    "ConstInputs": "/model/sub/WeightsPOTQuantizer:0"
    "RuntimeMemory": "8.25KB"
    "ScheduleId": "549"

  }
  blobs {
    shape {
      dim: 2
      dim: 2100
    }
  }
}
layer {
  name: "Cast: Cast_to_/model/add_14/Add_0"
  type: "Cast"
  
  top: "Cast_to_/model/add_14/Add_0:0"
    scale_param {
    "InputShapes": "2x2100"
    "OutputShape": "2x2100"
    "Quantize[mn,mx]": [-64.0, 64.0]
    "QuantizeBits": 16
    "ConstInputs": "/model/add_14/WeightsPOTQuantizer:0"
    "RuntimeMemory": "8.25KB"
    "ScheduleId": "552"

  }
  blobs {
    shape {
      dim: 2
      dim: 2100
    }
  }
}
layer {
  name: "Pad: /model/model_0_conv/layer/Conv_pad_to1d_0"
  type: "Pad"
  bottom: "Placeholder.input.uid1:0"
  top: "/model/model_0_conv/layer/Conv_pad_to1d_0:0"
    scale_param {
    "InputShapes": "3x320x320"
    "OutputShape": "3x322x320"
    "Quantize[mn,mx]": [0, 1.0]
    "QuantizeBits": 8
    "HasScratch": "true"
    
    "RuntimeMemory": "301.88KB"
    "ScheduleId": "181"

  }

}
layer {
  name: "Transform: transform-109-/model/model_0_conv/layer/Conv_pad_to1d_0"
  type: "Transform"
  bottom: "/model/model_0_conv/layer/Conv_pad_to1d_0:0"
  top: "transform-109-/model/model_0_conv/layer/Conv_pad_to1d_0:0"
    scale_param {
    "InputShapes": "3x322x320"
    "OutputShape": "3x322x320"
    "Quantize[mn,mx]": [0, 1.0]
    "QuantizeBits": 8
    
    "RuntimeMemory": "330.00KB"
    "ScheduleId": "182"

  }

}
layer {
  name: "Pad: /model/model_0_conv/layer/Conv_pad_to1d_1"
  type: "Pad"
  bottom: "transform-109-/model/model_0_conv/layer/Conv_pad_to1d_0:0"
  top: "/model/model_0_conv/layer/Conv_pad_to1d_1:0"
    scale_param {
    "InputShapes": "3x322x320"
    "OutputShape": "3x322x322"
    "Quantize[mn,mx]": [0, 1.0]
    "QuantizeBits": 8
    "HasScratch": "true"
    
    "RuntimeMemory": "332.06KB"
    "ScheduleId": "183"

  }

}
layer {
  name: "StrideSlice: /model/model_0_conv/layer/Conv_pf(1;1)_dim_2"
  type: "StrideSlice"
  bottom: "/model/model_0_conv/layer/Conv_pad_to1d_1:0"
  top: "/model/model_0_conv/layer/Conv_pf(1;1)_dim_2:0"
    scale_param {
    "InputShapes": "3x322x322"
    "OutputShape": "3x322x161"
    "Quantize[mn,mx]": [0, 1.0]
    "QuantizeBits": 8
    
    "RuntimeMemory": "166.03KB"
    "ScheduleId": "196"

  }

}
layer {
  name: "StrideSlice: /model/model_0_conv/layer/Conv_pf(1;0)_dim_2"
  type: "StrideSlice"
  bottom: "/model/model_0_conv/layer/Conv_pad_to1d_1:0"
  top: "/model/model_0_conv/layer/Conv_pf(1;0)_dim_2:0"
    scale_param {
    "InputShapes": "3x322x322"
    "OutputShape": "3x322x161"
    "Quantize[mn,mx]": [0, 1.0]
    "QuantizeBits": 8
    
    "RuntimeMemory": "166.03KB"
    "ScheduleId": "192"

  }

}
layer {
  name: "StrideSlice: /model/model_0_conv/layer/Conv_pf(0;1)_dim_2"
  type: "StrideSlice"
  bottom: "/model/model_0_conv/layer/Conv_pad_to1d_1:0"
  top: "/model/model_0_conv/layer/Conv_pf(0;1)_dim_2:0"
    scale_param {
    "InputShapes": "3x322x322"
    "OutputShape": "3x322x161"
    "Quantize[mn,mx]": [0, 1.0]
    "QuantizeBits": 8
    
    "RuntimeMemory": "166.03KB"
    "ScheduleId": "188"

  }

}
layer {
  name: "StrideSlice: /model/model_0_conv/layer/Conv_pf(0;0)_dim_2"
  type: "StrideSlice"
  bottom: "/model/model_0_conv/layer/Conv_pad_to1d_1:0"
  top: "/model/model_0_conv/layer/Conv_pf(0;0)_dim_2:0"
    scale_param {
    "InputShapes": "3x322x322"
    "OutputShape": "3x322x161"
    "Quantize[mn,mx]": [0, 1.0]
    "QuantizeBits": 8
    
    "RuntimeMemory": "166.03KB"
    "ScheduleId": "184"

  }

}
layer {
  name: "Transform: transform-105-/model/model_0_conv/layer/Conv_pf(1;1)_dim_2"
  type: "Transform"
  bottom: "/model/model_0_conv/layer/Conv_pf(1;1)_dim_2:0"
  top: "transform-105-/model/model_0_conv/layer/Conv_pf(1;1)_dim_2:0"
    scale_param {
    "InputShapes": "3x322x161"
    "OutputShape": "3x322x161"
    "Quantize[mn,mx]": [0, 1.0]
    "QuantizeBits": 8
    
    "RuntimeMemory": "181.13KB"
    "ScheduleId": "197"

  }

}
layer {
  name: "Transform: transform-106-/model/model_0_conv/layer/Conv_pf(1;0)_dim_2"
  type: "Transform"
  bottom: "/model/model_0_conv/layer/Conv_pf(1;0)_dim_2:0"
  top: "transform-106-/model/model_0_conv/layer/Conv_pf(1;0)_dim_2:0"
    scale_param {
    "InputShapes": "3x322x161"
    "OutputShape": "3x322x161"
    "Quantize[mn,mx]": [0, 1.0]
    "QuantizeBits": 8
    
    "RuntimeMemory": "181.13KB"
    "ScheduleId": "193"

  }

}
layer {
  name: "Transform: transform-107-/model/model_0_conv/layer/Conv_pf(0;1)_dim_2"
  type: "Transform"
  bottom: "/model/model_0_conv/layer/Conv_pf(0;1)_dim_2:0"
  top: "transform-107-/model/model_0_conv/layer/Conv_pf(0;1)_dim_2:0"
    scale_param {
    "InputShapes": "3x322x161"
    "OutputShape": "3x322x161"
    "Quantize[mn,mx]": [0, 1.0]
    "QuantizeBits": 8
    
    "RuntimeMemory": "181.13KB"
    "ScheduleId": "189"

  }

}
layer {
  name: "Transform: transform-108-/model/model_0_conv/layer/Conv_pf(0;0)_dim_2"
  type: "Transform"
  bottom: "/model/model_0_conv/layer/Conv_pf(0;0)_dim_2:0"
  top: "transform-108-/model/model_0_conv/layer/Conv_pf(0;0)_dim_2:0"
    scale_param {
    "InputShapes": "3x322x161"
    "OutputShape": "3x322x161"
    "Quantize[mn,mx]": [0, 1.0]
    "QuantizeBits": 8
    
    "RuntimeMemory": "181.13KB"
    "ScheduleId": "185"

  }

}
layer {
  name: "StrideSlice: /model/model_0_conv/layer/Conv_pf(1;1)"
  type: "StrideSlice"
  bottom: "transform-105-/model/model_0_conv/layer/Conv_pf(1;1)_dim_2:0"
  top: "/model/model_0_conv/layer/Conv_pf(1;1):0"
    scale_param {
    "InputShapes": "3x322x161"
    "OutputShape": "3x161x161"
    "Quantize[mn,mx]": [0, 1.0]
    "QuantizeBits": 8
    
    "RuntimeMemory": "90.56KB"
    "ScheduleId": "198"

  }

}
layer {
  name: "StrideSlice: /model/model_0_conv/layer/Conv_pf(1;0)"
  type: "StrideSlice"
  bottom: "transform-106-/model/model_0_conv/layer/Conv_pf(1;0)_dim_2:0"
  top: "/model/model_0_conv/layer/Conv_pf(1;0):0"
    scale_param {
    "InputShapes": "3x322x161"
    "OutputShape": "3x161x161"
    "Quantize[mn,mx]": [0, 1.0]
    "QuantizeBits": 8
    
    "RuntimeMemory": "90.56KB"
    "ScheduleId": "194"

  }

}
layer {
  name: "StrideSlice: /model/model_0_conv/layer/Conv_pf(0;1)"
  type: "StrideSlice"
  bottom: "transform-107-/model/model_0_conv/layer/Conv_pf(0;1)_dim_2:0"
  top: "/model/model_0_conv/layer/Conv_pf(0;1):0"
    scale_param {
    "InputShapes": "3x322x161"
    "OutputShape": "3x161x161"
    "Quantize[mn,mx]": [0, 1.0]
    "QuantizeBits": 8
    
    "RuntimeMemory": "90.56KB"
    "ScheduleId": "190"

  }

}
layer {
  name: "StrideSlice: /model/model_0_conv/layer/Conv_pf(0;0)"
  type: "StrideSlice"
  bottom: "transform-108-/model/model_0_conv/layer/Conv_pf(0;0)_dim_2:0"
  top: "/model/model_0_conv/layer/Conv_pf(0;0):0"
    scale_param {
    "InputShapes": "3x322x161"
    "OutputShape": "3x161x161"
    "Quantize[mn,mx]": [0, 1.0]
    "QuantizeBits": 8
    
    "RuntimeMemory": "90.56KB"
    "ScheduleId": "186"

  }

}
layer {
  name: "Transform: transform-104-/model/model_0_conv/layer/Conv_pf(1;1)"
  type: "Transform"
  bottom: "/model/model_0_conv/layer/Conv_pf(1;1):0"
  top: "transform-104-/model/model_0_conv/layer/Conv_pf(1;1):0"
    scale_param {
    "InputShapes": "3x161x161"
    "OutputShape": "3x161x161"
    "Quantize[mn,mx]": [0, 1.0]
    "QuantizeBits": 8
    
    "RuntimeMemory": "90.56KB"
    "ScheduleId": "199"

  }

}
layer {
  name: "Transform: transform-103-/model/model_0_conv/layer/Conv_pf(1;0)"
  type: "Transform"
  bottom: "/model/model_0_conv/layer/Conv_pf(1;0):0"
  top: "transform-103-/model/model_0_conv/layer/Conv_pf(1;0):0"
    scale_param {
    "InputShapes": "3x161x161"
    "OutputShape": "3x161x161"
    "Quantize[mn,mx]": [0, 1.0]
    "QuantizeBits": 8
    
    "RuntimeMemory": "90.56KB"
    "ScheduleId": "195"

  }

}
layer {
  name: "Transform: transform-102-/model/model_0_conv/layer/Conv_pf(0;1)"
  type: "Transform"
  bottom: "/model/model_0_conv/layer/Conv_pf(0;1):0"
  top: "transform-102-/model/model_0_conv/layer/Conv_pf(0;1):0"
    scale_param {
    "InputShapes": "3x161x161"
    "OutputShape": "3x161x161"
    "Quantize[mn,mx]": [0, 1.0]
    "QuantizeBits": 8
    
    "RuntimeMemory": "90.56KB"
    "ScheduleId": "191"

  }

}
layer {
  name: "Transform: transform-101-/model/model_0_conv/layer/Conv_pf(0;0)"
  type: "Transform"
  bottom: "/model/model_0_conv/layer/Conv_pf(0;0):0"
  top: "transform-101-/model/model_0_conv/layer/Conv_pf(0;0):0"
    scale_param {
    "InputShapes": "3x161x161"
    "OutputShape": "3x161x161"
    "Quantize[mn,mx]": [0, 1.0]
    "QuantizeBits": 8
    
    "RuntimeMemory": "90.56KB"
    "ScheduleId": "187"

  }

}
layer {
  name: "Concat: /model/model_0_conv/layer/Conv_concat"
  type: "Concat"
  bottom: "transform-101-/model/model_0_conv/layer/Conv_pf(0;0):0"
  bottom: "transform-102-/model/model_0_conv/layer/Conv_pf(0;1):0"
  bottom: "transform-103-/model/model_0_conv/layer/Conv_pf(1;0):0"
  bottom: "transform-104-/model/model_0_conv/layer/Conv_pf(1;1):0"
  top: "/model/model_0_conv/layer/Conv_concat:0"
    scale_param {
    "InputShapes": "3x161x161, 3x161x161, 3x161x161, 3x161x161"
    "OutputShape": "12x161x161"
    "Quantize[mn,mx]": [0, 1.0]
    "QuantizeBits": 8
    
    "RuntimeMemory": "362.25KB"
    "ScheduleId": "200"

  }

}
layer {
  name: "Transform: transform-100-/model/model_0_conv/layer/Conv_concat"
  type: "Transform"
  bottom: "/model/model_0_conv/layer/Conv_concat:0"
  top: "transform-100-/model/model_0_conv/layer/Conv_concat:0"
    scale_param {
    "InputShapes": "12x161x161"
    "OutputShape": "12x161x161"
    "Quantize[mn,mx]": [0, 1.0]
    "QuantizeBits": 8
    
    "RuntimeMemory": "362.25KB"
    "ScheduleId": "201"

  }

}
layer {
  name: "Conv2D: /model/model_0_conv/layer/Conv"
  type: "Convolution"
  bottom: "transform-100-/model/model_0_conv/layer/Conv_concat:0"
  top: "/model/model_0_act/Mul_smr:0"
    scale_param {
    "InputShapes": "12x161x161, 16x12x2x2, 16"
    "OutputShape": "16x160x160"
    "Quantize[mn,mx]": [-32.0, 32.0]
    "QuantizeBits": 16
    "ConstInputs": "/model/model_0_conv/WeightsSymmetricQuantizer_pf:0"
    "ConstInputs": "Variable.model.model_0_conv.layer.bias.uid2:0"
    "RuntimeMemory": "400.00KB"
    "ScheduleId": "202"

  }
  blobs {
    shape {
      dim: 16
      dim: 12
      dim: 2
      dim: 2
    }
  }
  blobs {
    shape {
      dim: 16
    }
  }
}
layer {
  name: "Swish: /model/model_0_act/Mul_smr"
  type: "Swish"
  bottom: "/model/model_0_act/Mul_smr:0"
  top: "/model/model_0_act/Mul_smr:0"
    scale_param {
    "InputShapes": "16x160x160"
    "OutputShape": "16x160x160"
    "Quantize[mn,mx]": [0, 32.0]
    "QuantizeBits": 8
    "ConstInputs": "/model/model_0_conv/WeightsSymmetricQuantizer_pf:0"
    "ConstInputs": "Variable.model.model_0_conv.layer.bias.uid2:0"
    "RuntimeMemory": "400.00KB"
    
  }

}
layer {
  name: "Pad: /model/Pad_to1d_0"
  type: "Pad"
  bottom: "/model/model_0_act/Mul_smr:0"
  top: "/model/Pad_to1d_0:0"
    scale_param {
    "InputShapes": "16x160x160"
    "OutputShape": "16x162x160"
    "Quantize[mn,mx]": [0, 32.0]
    "QuantizeBits": 8
    "HasScratch": "true"
    
    "RuntimeMemory": "405.00KB"
    "ScheduleId": "203"

  }

}
layer {
  name: "Transform: transform-99-/model/Pad_to1d_0"
  type: "Transform"
  bottom: "/model/Pad_to1d_0:0"
  top: "transform-99-/model/Pad_to1d_0:0"
    scale_param {
    "InputShapes": "16x162x160"
    "OutputShape": "16x162x160"
    "Quantize[mn,mx]": [0, 32.0]
    "QuantizeBits": 8
    
    "RuntimeMemory": "480.00KB"
    "ScheduleId": "204"

  }

}
layer {
  name: "Pad: /model/Pad_to1d_1"
  type: "Pad"
  bottom: "transform-99-/model/Pad_to1d_0:0"
  top: "/model/Pad_to1d_1:0"
    scale_param {
    "InputShapes": "16x162x160"
    "OutputShape": "16x162x162"
    "Quantize[mn,mx]": [0, 32.0]
    "QuantizeBits": 8
    "HasScratch": "true"
    
    "RuntimeMemory": "486.00KB"
    "ScheduleId": "205"

  }

}
layer {
  name: "StrideSlice: /model/model_1_conv/layer/Conv_pf(1;1)_dim_2"
  type: "StrideSlice"
  bottom: "/model/Pad_to1d_1:0"
  top: "/model/model_1_conv/layer/Conv_pf(1;1)_dim_2:0"
    scale_param {
    "InputShapes": "16x162x162"
    "OutputShape": "16x162x81"
    "Quantize[mn,mx]": [0, 32.0]
    "QuantizeBits": 8
    
    "RuntimeMemory": "243.00KB"
    "ScheduleId": "218"

  }

}
layer {
  name: "StrideSlice: /model/model_1_conv/layer/Conv_pf(1;0)_dim_2"
  type: "StrideSlice"
  bottom: "/model/Pad_to1d_1:0"
  top: "/model/model_1_conv/layer/Conv_pf(1;0)_dim_2:0"
    scale_param {
    "InputShapes": "16x162x162"
    "OutputShape": "16x162x81"
    "Quantize[mn,mx]": [0, 32.0]
    "QuantizeBits": 8
    
    "RuntimeMemory": "243.00KB"
    "ScheduleId": "214"

  }

}
layer {
  name: "StrideSlice: /model/model_1_conv/layer/Conv_pf(0;1)_dim_2"
  type: "StrideSlice"
  bottom: "/model/Pad_to1d_1:0"
  top: "/model/model_1_conv/layer/Conv_pf(0;1)_dim_2:0"
    scale_param {
    "InputShapes": "16x162x162"
    "OutputShape": "16x162x81"
    "Quantize[mn,mx]": [0, 32.0]
    "QuantizeBits": 8
    
    "RuntimeMemory": "243.00KB"
    "ScheduleId": "210"

  }

}
layer {
  name: "StrideSlice: /model/model_1_conv/layer/Conv_pf(0;0)_dim_2"
  type: "StrideSlice"
  bottom: "/model/Pad_to1d_1:0"
  top: "/model/model_1_conv/layer/Conv_pf(0;0)_dim_2:0"
    scale_param {
    "InputShapes": "16x162x162"
    "OutputShape": "16x162x81"
    "Quantize[mn,mx]": [0, 32.0]
    "QuantizeBits": 8
    
    "RuntimeMemory": "243.00KB"
    "ScheduleId": "206"

  }

}
layer {
  name: "Transform: transform-95-/model/model_1_conv/layer/Conv_pf(1;1)_dim_2"
  type: "Transform"
  bottom: "/model/model_1_conv/layer/Conv_pf(1;1)_dim_2:0"
  top: "transform-95-/model/model_1_conv/layer/Conv_pf(1;1)_dim_2:0"
    scale_param {
    "InputShapes": "16x162x81"
    "OutputShape": "16x162x81"
    "Quantize[mn,mx]": [0, 32.0]
    "QuantizeBits": 8
    
    "RuntimeMemory": "243.00KB"
    "ScheduleId": "219"

  }

}
layer {
  name: "Transform: transform-96-/model/model_1_conv/layer/Conv_pf(1;0)_dim_2"
  type: "Transform"
  bottom: "/model/model_1_conv/layer/Conv_pf(1;0)_dim_2:0"
  top: "transform-96-/model/model_1_conv/layer/Conv_pf(1;0)_dim_2:0"
    scale_param {
    "InputShapes": "16x162x81"
    "OutputShape": "16x162x81"
    "Quantize[mn,mx]": [0, 32.0]
    "QuantizeBits": 8
    
    "RuntimeMemory": "243.00KB"
    "ScheduleId": "215"

  }

}
layer {
  name: "Transform: transform-97-/model/model_1_conv/layer/Conv_pf(0;1)_dim_2"
  type: "Transform"
  bottom: "/model/model_1_conv/layer/Conv_pf(0;1)_dim_2:0"
  top: "transform-97-/model/model_1_conv/layer/Conv_pf(0;1)_dim_2:0"
    scale_param {
    "InputShapes": "16x162x81"
    "OutputShape": "16x162x81"
    "Quantize[mn,mx]": [0, 32.0]
    "QuantizeBits": 8
    
    "RuntimeMemory": "243.00KB"
    "ScheduleId": "211"

  }

}
layer {
  name: "Transform: transform-98-/model/model_1_conv/layer/Conv_pf(0;0)_dim_2"
  type: "Transform"
  bottom: "/model/model_1_conv/layer/Conv_pf(0;0)_dim_2:0"
  top: "transform-98-/model/model_1_conv/layer/Conv_pf(0;0)_dim_2:0"
    scale_param {
    "InputShapes": "16x162x81"
    "OutputShape": "16x162x81"
    "Quantize[mn,mx]": [0, 32.0]
    "QuantizeBits": 8
    
    "RuntimeMemory": "243.00KB"
    "ScheduleId": "207"

  }

}
layer {
  name: "StrideSlice: /model/model_1_conv/layer/Conv_pf(1;1)"
  type: "StrideSlice"
  bottom: "transform-95-/model/model_1_conv/layer/Conv_pf(1;1)_dim_2:0"
  top: "/model/model_1_conv/layer/Conv_pf(1;1):0"
    scale_param {
    "InputShapes": "16x162x81"
    "OutputShape": "16x81x81"
    "Quantize[mn,mx]": [0, 32.0]
    "QuantizeBits": 8
    
    "RuntimeMemory": "121.50KB"
    "ScheduleId": "220"

  }

}
layer {
  name: "StrideSlice: /model/model_1_conv/layer/Conv_pf(1;0)"
  type: "StrideSlice"
  bottom: "transform-96-/model/model_1_conv/layer/Conv_pf(1;0)_dim_2:0"
  top: "/model/model_1_conv/layer/Conv_pf(1;0):0"
    scale_param {
    "InputShapes": "16x162x81"
    "OutputShape": "16x81x81"
    "Quantize[mn,mx]": [0, 32.0]
    "QuantizeBits": 8
    
    "RuntimeMemory": "121.50KB"
    "ScheduleId": "216"

  }

}
layer {
  name: "StrideSlice: /model/model_1_conv/layer/Conv_pf(0;1)"
  type: "StrideSlice"
  bottom: "transform-97-/model/model_1_conv/layer/Conv_pf(0;1)_dim_2:0"
  top: "/model/model_1_conv/layer/Conv_pf(0;1):0"
    scale_param {
    "InputShapes": "16x162x81"
    "OutputShape": "16x81x81"
    "Quantize[mn,mx]": [0, 32.0]
    "QuantizeBits": 8
    
    "RuntimeMemory": "121.50KB"
    "ScheduleId": "212"

  }

}
layer {
  name: "StrideSlice: /model/model_1_conv/layer/Conv_pf(0;0)"
  type: "StrideSlice"
  bottom: "transform-98-/model/model_1_conv/layer/Conv_pf(0;0)_dim_2:0"
  top: "/model/model_1_conv/layer/Conv_pf(0;0):0"
    scale_param {
    "InputShapes": "16x162x81"
    "OutputShape": "16x81x81"
    "Quantize[mn,mx]": [0, 32.0]
    "QuantizeBits": 8
    
    "RuntimeMemory": "121.50KB"
    "ScheduleId": "208"

  }

}
layer {
  name: "Transform: transform-94-/model/model_1_conv/layer/Conv_pf(1;1)"
  type: "Transform"
  bottom: "/model/model_1_conv/layer/Conv_pf(1;1):0"
  top: "transform-94-/model/model_1_conv/layer/Conv_pf(1;1):0"
    scale_param {
    "InputShapes": "16x81x81"
    "OutputShape": "16x81x81"
    "Quantize[mn,mx]": [0, 32.0]
    "QuantizeBits": 8
    
    "RuntimeMemory": "121.50KB"
    "ScheduleId": "221"

  }

}
layer {
  name: "Transform: transform-93-/model/model_1_conv/layer/Conv_pf(1;0)"
  type: "Transform"
  bottom: "/model/model_1_conv/layer/Conv_pf(1;0):0"
  top: "transform-93-/model/model_1_conv/layer/Conv_pf(1;0):0"
    scale_param {
    "InputShapes": "16x81x81"
    "OutputShape": "16x81x81"
    "Quantize[mn,mx]": [0, 32.0]
    "QuantizeBits": 8
    
    "RuntimeMemory": "121.50KB"
    "ScheduleId": "217"

  }

}
layer {
  name: "Transform: transform-92-/model/model_1_conv/layer/Conv_pf(0;1)"
  type: "Transform"
  bottom: "/model/model_1_conv/layer/Conv_pf(0;1):0"
  top: "transform-92-/model/model_1_conv/layer/Conv_pf(0;1):0"
    scale_param {
    "InputShapes": "16x81x81"
    "OutputShape": "16x81x81"
    "Quantize[mn,mx]": [0, 32.0]
    "QuantizeBits": 8
    
    "RuntimeMemory": "121.50KB"
    "ScheduleId": "213"

  }

}
layer {
  name: "Transform: transform-91-/model/model_1_conv/layer/Conv_pf(0;0)"
  type: "Transform"
  bottom: "/model/model_1_conv/layer/Conv_pf(0;0):0"
  top: "transform-91-/model/model_1_conv/layer/Conv_pf(0;0):0"
    scale_param {
    "InputShapes": "16x81x81"
    "OutputShape": "16x81x81"
    "Quantize[mn,mx]": [0, 32.0]
    "QuantizeBits": 8
    
    "RuntimeMemory": "121.50KB"
    "ScheduleId": "209"

  }

}
layer {
  name: "Concat: /model/model_1_conv/layer/Conv_concat"
  type: "Concat"
  bottom: "transform-91-/model/model_1_conv/layer/Conv_pf(0;0):0"
  bottom: "transform-92-/model/model_1_conv/layer/Conv_pf(0;1):0"
  bottom: "transform-93-/model/model_1_conv/layer/Conv_pf(1;0):0"
  bottom: "transform-94-/model/model_1_conv/layer/Conv_pf(1;1):0"
  top: "/model/model_1_conv/layer/Conv_concat:0"
    scale_param {
    "InputShapes": "16x81x81, 16x81x81, 16x81x81, 16x81x81"
    "OutputShape": "64x81x81"
    "Quantize[mn,mx]": [0, 32.0]
    "QuantizeBits": 8
    
    "RuntimeMemory": "486.00KB"
    "ScheduleId": "222"

  }

}
layer {
  name: "Transform: transform-90-/model/model_1_conv/layer/Conv_concat"
  type: "Transform"
  bottom: "/model/model_1_conv/layer/Conv_concat:0"
  top: "transform-90-/model/model_1_conv/layer/Conv_concat:0"
    scale_param {
    "InputShapes": "64x81x81"
    "OutputShape": "64x81x81"
    "Quantize[mn,mx]": [0, 32.0]
    "QuantizeBits": 8
    
    "RuntimeMemory": "410.06KB"
    "ScheduleId": "223"

  }

}
layer {
  name: "Conv2D: /model/model_1_conv/layer/Conv"
  type: "Convolution"
  bottom: "transform-90-/model/model_1_conv/layer/Conv_concat:0"
  top: "/model/model_0_act_1/Mul_smr:0"
    scale_param {
    "InputShapes": "64x81x81, 32x64x2x2, 32"
    "OutputShape": "32x80x80"
    "Quantize[mn,mx]": [-32.0, 32.0]
    "QuantizeBits": 16
    "ConstInputs": "/model/model_1_conv/WeightsSymmetricQuantizer_pf:0"
    "ConstInputs": "Variable.model.model_1_conv.layer.bias.uid3:0"
    "RuntimeMemory": "200.00KB"
    "ScheduleId": "224"

  }
  blobs {
    shape {
      dim: 32
      dim: 64
      dim: 2
      dim: 2
    }
  }
  blobs {
    shape {
      dim: 32
    }
  }
}
layer {
  name: "Swish: /model/model_0_act_1/Mul_smr"
  type: "Swish"
  bottom: "/model/model_0_act_1/Mul_smr:0"
  top: "/model/model_0_act_1/Mul_smr:0"
    scale_param {
    "InputShapes": "32x80x80"
    "OutputShape": "32x80x80"
    "Quantize[mn,mx]": [0, 32.0]
    "QuantizeBits": 8
    "ConstInputs": "/model/model_1_conv/WeightsSymmetricQuantizer_pf:0"
    "ConstInputs": "Variable.model.model_1_conv.layer.bias.uid3:0"
    "RuntimeMemory": "200.00KB"
    
  }

}
layer {
  name: "Conv2D: /model/model_2_cv1_conv/layer/Conv"
  type: "Convolution"
  bottom: "/model/model_0_act_1/Mul_smr:0"
  top: "/model/model_0_act_2/Mul_smr:0"
    scale_param {
    "InputShapes": "32x80x80, 32x32x1x1, 32"
    "OutputShape": "32x80x80"
    "Quantize[mn,mx]": [-32.0, 32.0]
    "QuantizeBits": 16
    "ConstInputs": "/model/model_2_cv1_conv/WeightsSymmetricQuantizer:0"
    "ConstInputs": "Variable.model.model_2_cv1_conv.layer.bias.uid4:0"
    "RuntimeMemory": "200.00KB"
    "ScheduleId": "225"

  }
  blobs {
    shape {
      dim: 32
      dim: 32
      dim: 1
      dim: 1
    }
  }
  blobs {
    shape {
      dim: 32
    }
  }
}
layer {
  name: "Swish: /model/model_0_act_2/Mul_smr"
  type: "Swish"
  bottom: "/model/model_0_act_2/Mul_smr:0"
  top: "/model/model_0_act_2/Mul_smr:0"
    scale_param {
    "InputShapes": "32x80x80"
    "OutputShape": "32x80x80"
    "Quantize[mn,mx]": [-32.0, 32.0]
    "QuantizeBits": 8
    "ConstInputs": "/model/model_2_cv1_conv/WeightsSymmetricQuantizer:0"
    "ConstInputs": "Variable.model.model_2_cv1_conv.layer.bias.uid4:0"
    "RuntimeMemory": "200.00KB"
    
  }

}
layer {
  name: "Transform: transform-88-(F)/model/model_2_cv1_conv/layer/Conv"
  type: "Transform"
  bottom: "/model/model_0_act_2/Mul_smr:0"
  top: "transform-88-(F)/model/model_2_cv1_conv/layer/Conv:0"
    scale_param {
    "InputShapes": "32x80x80"
    "OutputShape": "32x80x80"
    "Quantize[mn,mx]": [-32.0, 32.0]
    "QuantizeBits": 8
    
    "RuntimeMemory": "240.00KB"
    "ScheduleId": "226"

  }

}
layer {
  name: "Transform: transform-89-(F)/model/model_2_cv1_conv/layer/Conv"
  type: "Transform"
  bottom: "/model/model_0_act_2/Mul_smr:0"
  top: "transform-89-(F)/model/model_2_cv1_conv/layer/Conv:0"
    scale_param {
    "InputShapes": "32x80x80"
    "OutputShape": "32x80x80"
    "Quantize[mn,mx]": [-32.0, 32.0]
    "QuantizeBits": 8
    
    "RuntimeMemory": "240.00KB"
    "ScheduleId": "228"

  }

}
layer {
  name: "StrideSlice: /model/Splitsts0"
  type: "StrideSlice"
  bottom: "transform-88-(F)/model/model_2_cv1_conv/layer/Conv:0"
  top: "/model/Splitsts0:0"
    scale_param {
    "InputShapes": "32x80x80"
    "OutputShape": "16x80x80"
    "Quantize[mn,mx]": [-32.0, 32.0]
    "QuantizeBits": 8
    
    "RuntimeMemory": "120.00KB"
    "ScheduleId": "227"

  }

}
layer {
  name: "StrideSlice: /model/Splitsts1"
  type: "StrideSlice"
  bottom: "transform-89-(F)/model/model_2_cv1_conv/layer/Conv:0"
  top: "/model/Splitsts1:0"
    scale_param {
    "InputShapes": "32x80x80"
    "OutputShape": "16x80x80"
    "Quantize[mn,mx]": [-32.0, 32.0]
    "QuantizeBits": 8
    
    "RuntimeMemory": "120.00KB"
    "ScheduleId": "229"

  }

}
layer {
  name: "Transform: transform-87-/model/Splitsts1"
  type: "Transform"
  bottom: "/model/Splitsts1:0"
  top: "transform-87-/model/Splitsts1:0"
    scale_param {
    "InputShapes": "16x80x80"
    "OutputShape": "16x80x80"
    "Quantize[mn,mx]": [-32.0, 32.0]
    "QuantizeBits": 8
    
    "RuntimeMemory": "120.00KB"
    "ScheduleId": "230"

  }

}
layer {
  name: "Transform: transform-87-0-/model/Splitsts1"
  type: "Transform"
  bottom: "transform-87-/model/Splitsts1:0"
  top: "transform-87-0-/model/Splitsts1:0"
    scale_param {
    "InputShapes": "16x80x80"
    "OutputShape": "16x80x80"
    "Quantize[mn,mx]": [-32.0, 32.0]
    "QuantizeBits": 8
    
    "RuntimeMemory": "123.00KB"
    "ScheduleId": "231"

  }

}
layer {
  name: "Transform: transform-87-1-/model/Splitsts1"
  type: "Transform"
  bottom: "transform-87-0-/model/Splitsts1:0"
  top: "transform-87-1-/model/Splitsts1:0"
    scale_param {
    "InputShapes": "16x80x80"
    "OutputShape": "16x80x80"
    "Quantize[mn,mx]": [-32.0, 32.0]
    "QuantizeBits": 8
    
    "RuntimeMemory": "120.00KB"
    "ScheduleId": "232"

  }

}
layer {
  name: "Transform: transform-87-2-/model/Splitsts1"
  type: "Transform"
  bottom: "transform-87-1-/model/Splitsts1:0"
  top: "transform-87-2-/model/Splitsts1:0"
    scale_param {
    "InputShapes": "16x80x80"
    "OutputShape": "16x80x80"
    "Quantize[mn,mx]": [-32.0, 32.0]
    "QuantizeBits": 8
    
    "RuntimeMemory": "123.00KB"
    "ScheduleId": "233"

  }

}
layer {
  name: "Transform: transform-87-3-/model/Splitsts1"
  type: "Transform"
  bottom: "transform-87-2-/model/Splitsts1:0"
  top: "transform-87-3-/model/Splitsts1:0"
    scale_param {
    "InputShapes": "16x80x80"
    "OutputShape": "16x80x80"
    "Quantize[mn,mx]": [-32.0, 32.0]
    "QuantizeBits": 8
    
    "RuntimeMemory": "123.00KB"
    "ScheduleId": "234"

  }

}
layer {
  name: "Conv2D: /model/model_2_m_0_cv1_conv/layer/Conv"
  type: "Convolution"
  bottom: "transform-87-3-/model/Splitsts1:0"
  top: "/model/model_0_act_3/Mul_smr:0"
    scale_param {
    "InputShapes": "16x80x80, 8x16x3x3, 8"
    "OutputShape": "8x80x80"
    "Quantize[mn,mx]": [-8.0, 8.0]
    "QuantizeBits": 16
    "ConstInputs": "/model/model_2_m_0_cv1_conv/WeightsSymmetricQuantizer:0"
    "ConstInputs": "Variable.model.model_2_m_0_cv1_conv.layer.bias.uid5:0"
    "RuntimeMemory": "60.00KB"
    "ScheduleId": "235"

  }
  blobs {
    shape {
      dim: 8
      dim: 16
      dim: 3
      dim: 3
    }
  }
  blobs {
    shape {
      dim: 8
    }
  }
}
layer {
  name: "Swish: /model/model_0_act_3/Mul_smr"
  type: "Swish"
  bottom: "/model/model_0_act_3/Mul_smr:0"
  top: "/model/model_0_act_3/Mul_smr:0"
    scale_param {
    "InputShapes": "8x80x80"
    "OutputShape": "8x80x80"
    "Quantize[mn,mx]": [-4.0, 4.0]
    "QuantizeBits": 8
    "ConstInputs": "/model/model_2_m_0_cv1_conv/WeightsSymmetricQuantizer:0"
    "ConstInputs": "Variable.model.model_2_m_0_cv1_conv.layer.bias.uid5:0"
    "RuntimeMemory": "60.00KB"
    
  }

}
layer {
  name: "Transform: transform-86-(F)/model/model_2_m_0_cv1_conv/layer/Conv"
  type: "Transform"
  bottom: "/model/model_0_act_3/Mul_smr:0"
  top: "transform-86-(F)/model/model_2_m_0_cv1_conv/layer/Conv:0"
    scale_param {
    "InputShapes": "8x80x80"
    "OutputShape": "8x80x80"
    "Quantize[mn,mx]": [-4.0, 4.0]
    "QuantizeBits": 8
    
    "RuntimeMemory": "61.50KB"
    "ScheduleId": "236"

  }

}
layer {
  name: "Transform: transform-86-0-(F)/model/model_2_m_0_cv1_conv/layer/Conv"
  type: "Transform"
  bottom: "transform-86-(F)/model/model_2_m_0_cv1_conv/layer/Conv:0"
  top: "transform-86-0-(F)/model/model_2_m_0_cv1_conv/layer/Conv:0"
    scale_param {
    "InputShapes": "8x80x80"
    "OutputShape": "8x80x80"
    "Quantize[mn,mx]": [-4.0, 4.0]
    "QuantizeBits": 8
    
    "RuntimeMemory": "60.00KB"
    "ScheduleId": "237"

  }

}
layer {
  name: "Transform: transform-86-1-(F)/model/model_2_m_0_cv1_conv/layer/Conv"
  type: "Transform"
  bottom: "transform-86-0-(F)/model/model_2_m_0_cv1_conv/layer/Conv:0"
  top: "transform-86-1-(F)/model/model_2_m_0_cv1_conv/layer/Conv:0"
    scale_param {
    "InputShapes": "8x80x80"
    "OutputShape": "8x80x80"
    "Quantize[mn,mx]": [-4.0, 4.0]
    "QuantizeBits": 8
    
    "RuntimeMemory": "61.50KB"
    "ScheduleId": "238"

  }

}
layer {
  name: "Transform: transform-86-2-(F)/model/model_2_m_0_cv1_conv/layer/Conv"
  type: "Transform"
  bottom: "transform-86-1-(F)/model/model_2_m_0_cv1_conv/layer/Conv:0"
  top: "transform-86-2-(F)/model/model_2_m_0_cv1_conv/layer/Conv:0"
    scale_param {
    "InputShapes": "8x80x80"
    "OutputShape": "8x80x80"
    "Quantize[mn,mx]": [-4.0, 4.0]
    "QuantizeBits": 8
    
    "RuntimeMemory": "61.50KB"
    "ScheduleId": "239"

  }

}
layer {
  name: "Conv2D: /model/model_2_m_0_cv2_conv/layer/Conv"
  type: "Convolution"
  bottom: "transform-86-2-(F)/model/model_2_m_0_cv1_conv/layer/Conv:0"
  top: "/model/model_0_act_4/Mul_smr:0"
    scale_param {
    "InputShapes": "8x80x80, 16x8x3x3, 16"
    "OutputShape": "16x80x80"
    "Quantize[mn,mx]": [-32.0, 32.0]
    "QuantizeBits": 16
    "ConstInputs": "/model/model_2_m_0_cv2_conv/WeightsSymmetricQuantizer:0"
    "ConstInputs": "Variable.model.model_2_m_0_cv2_conv.layer.bias.uid6:0"
    "RuntimeMemory": "120.00KB"
    "ScheduleId": "240"

  }
  blobs {
    shape {
      dim: 16
      dim: 8
      dim: 3
      dim: 3
    }
  }
  blobs {
    shape {
      dim: 16
    }
  }
}
layer {
  name: "Swish: /model/model_0_act_4/Mul_smr"
  type: "Swish"
  bottom: "/model/model_0_act_4/Mul_smr:0"
  top: "/model/model_0_act_4/Mul_smr:0"
    scale_param {
    "InputShapes": "16x80x80"
    "OutputShape": "16x80x80"
    "Quantize[mn,mx]": [-32.0, 32.0]
    "QuantizeBits": 8
    "ConstInputs": "/model/model_2_m_0_cv2_conv/WeightsSymmetricQuantizer:0"
    "ConstInputs": "Variable.model.model_2_m_0_cv2_conv.layer.bias.uid6:0"
    "RuntimeMemory": "120.00KB"
    
  }

}
layer {
  name: "Transform: transform-85-(F)/model/model_2_m_0_cv2_conv/layer/Conv"
  type: "Transform"
  bottom: "/model/model_0_act_4/Mul_smr:0"
  top: "transform-85-(F)/model/model_2_m_0_cv2_conv/layer/Conv:0"
    scale_param {
    "InputShapes": "16x80x80"
    "OutputShape": "16x80x80"
    "Quantize[mn,mx]": [-32.0, 32.0]
    "QuantizeBits": 8
    
    "RuntimeMemory": "120.00KB"
    "ScheduleId": "241"

  }

}
layer {
  name: "Add: /model/Add_2"
  type: "Add"
  bottom: "/model/Splitsts1:0"
  bottom: "transform-85-(F)/model/model_2_m_0_cv2_conv/layer/Conv:0"
  top: "/model/Add_2:0"
    scale_param {
    "InputShapes": "16x80x80, 16x80x80"
    "OutputShape": "16x80x80"
    "Quantize[mn,mx]": [-32.0, 32.0]
    "QuantizeBits": 8
    
    "RuntimeMemory": "120.00KB"
    "ScheduleId": "242"

  }

}
layer {
  name: "Concat: /model/Concat_1"
  type: "Concat"
  bottom: "/model/Add_2:0"
  bottom: "/model/Splitsts0:0"
  bottom: "/model/Splitsts1:0"
  top: "/model/Concat_1:0"
    scale_param {
    "InputShapes": "16x80x80, 16x80x80, 16x80x80"
    "OutputShape": "48x80x80"
    "Quantize[mn,mx]": [-32.0, 32.0]
    "QuantizeBits": 8
    
    "RuntimeMemory": "360.00KB"
    "ScheduleId": "243"

  }

}
layer {
  name: "Transform: transform-84-/model/Concat_1"
  type: "Transform"
  bottom: "/model/Concat_1:0"
  top: "transform-84-/model/Concat_1:0"
    scale_param {
    "InputShapes": "48x80x80"
    "OutputShape": "48x80x80"
    "Quantize[mn,mx]": [-32.0, 32.0]
    "QuantizeBits": 8
    
    "RuntimeMemory": "400.00KB"
    "ScheduleId": "244"

  }

}
layer {
  name: "Conv2D: /model/model_2_cv2_conv/layer/Conv"
  type: "Convolution"
  bottom: "transform-84-/model/Concat_1:0"
  top: "/model/model_0_act_5/Mul_smr:0"
    scale_param {
    "InputShapes": "48x80x80, 64x48x1x1, 64"
    "OutputShape": "64x80x80"
    "Quantize[mn,mx]": [-16.0, 16.0]
    "QuantizeBits": 16
    "ConstInputs": "/model/model_2_cv2_conv/WeightsSymmetricQuantizer:0"
    "ConstInputs": "Variable.model.model_2_cv2_conv.layer.bias.uid7:0"
    "RuntimeMemory": "400.00KB"
    "ScheduleId": "245"

  }
  blobs {
    shape {
      dim: 64
      dim: 48
      dim: 1
      dim: 1
    }
  }
  blobs {
    shape {
      dim: 64
    }
  }
}
layer {
  name: "Swish: /model/model_0_act_5/Mul_smr"
  type: "Swish"
  bottom: "/model/model_0_act_5/Mul_smr:0"
  top: "/model/model_0_act_5/Mul_smr:0"
    scale_param {
    "InputShapes": "64x80x80"
    "OutputShape": "64x80x80"
    "Quantize[mn,mx]": [0, 16.0]
    "QuantizeBits": 8
    "ConstInputs": "/model/model_2_cv2_conv/WeightsSymmetricQuantizer:0"
    "ConstInputs": "Variable.model.model_2_cv2_conv.layer.bias.uid7:0"
    "RuntimeMemory": "400.00KB"
    
  }

}
layer {
  name: "Pad: /model/Pad_1_to1d_0"
  type: "Pad"
  bottom: "/model/model_0_act_5/Mul_smr:0"
  top: "/model/Pad_1_to1d_0:0"
    scale_param {
    "InputShapes": "64x80x80"
    "OutputShape": "64x82x80"
    "Quantize[mn,mx]": [0, 16.0]
    "QuantizeBits": 8
    "HasScratch": "true"
    
    "RuntimeMemory": "410.00KB"
    "ScheduleId": "246"

  }

}
layer {
  name: "Pad: /model/Pad_1_to1d_1"
  type: "Pad"
  bottom: "/model/Pad_1_to1d_0:0"
  top: "/model/Pad_1_to1d_1:0"
    scale_param {
    "InputShapes": "64x82x80"
    "OutputShape": "64x82x82"
    "Quantize[mn,mx]": [0, 16.0]
    "QuantizeBits": 8
    "HasScratch": "true"
    
    "RuntimeMemory": "420.25KB"
    "ScheduleId": "247"

  }

}
layer {
  name: "Conv2D: /model/model_3_conv/layer/Conv"
  type: "Convolution"
  bottom: "/model/Pad_1_to1d_1:0"
  top: "/model/model_0_act_6/Mul_smr:0"
    scale_param {
    "InputShapes": "64x82x82, 64x64x3x3, 64"
    "OutputShape": "64x40x40"
    "Quantize[mn,mx]": [-8.0, 8.0]
    "QuantizeBits": 16
    "ConstInputs": "/model/model_3_conv/WeightsSymmetricQuantizer:0"
    "ConstInputs": "Variable.model.model_3_conv.layer.bias.uid8:0"
    "RuntimeMemory": "100.00KB"
    "ScheduleId": "248"

  }
  blobs {
    shape {
      dim: 64
      dim: 64
      dim: 3
      dim: 3
    }
  }
  blobs {
    shape {
      dim: 64
    }
  }
}
layer {
  name: "Swish: /model/model_0_act_6/Mul_smr"
  type: "Swish"
  bottom: "/model/model_0_act_6/Mul_smr:0"
  top: "/model/model_0_act_6/Mul_smr:0"
    scale_param {
    "InputShapes": "64x40x40"
    "OutputShape": "64x40x40"
    "Quantize[mn,mx]": [0, 8.0]
    "QuantizeBits": 8
    "ConstInputs": "/model/model_3_conv/WeightsSymmetricQuantizer:0"
    "ConstInputs": "Variable.model.model_3_conv.layer.bias.uid8:0"
    "RuntimeMemory": "100.00KB"
    
  }

}
layer {
  name: "Conv2D: /model/model_4_cv1_conv/layer/Conv"
  type: "Convolution"
  bottom: "/model/model_0_act_6/Mul_smr:0"
  top: "/model/model_0_act_7/Mul_smr:0"
    scale_param {
    "InputShapes": "64x40x40, 64x64x1x1, 64"
    "OutputShape": "64x40x40"
    "Quantize[mn,mx]": [-8.0, 8.0]
    "QuantizeBits": 16
    "ConstInputs": "/model/model_4_cv1_conv/WeightsSymmetricQuantizer:0"
    "ConstInputs": "Variable.model.model_4_cv1_conv.layer.bias.uid9:0"
    "RuntimeMemory": "100.00KB"
    "ScheduleId": "249"

  }
  blobs {
    shape {
      dim: 64
      dim: 64
      dim: 1
      dim: 1
    }
  }
  blobs {
    shape {
      dim: 64
    }
  }
}
layer {
  name: "Swish: /model/model_0_act_7/Mul_smr"
  type: "Swish"
  bottom: "/model/model_0_act_7/Mul_smr:0"
  top: "/model/model_0_act_7/Mul_smr:0"
    scale_param {
    "InputShapes": "64x40x40"
    "OutputShape": "64x40x40"
    "Quantize[mn,mx]": [-4.0, 4.0]
    "QuantizeBits": 8
    "ConstInputs": "/model/model_4_cv1_conv/WeightsSymmetricQuantizer:0"
    "ConstInputs": "Variable.model.model_4_cv1_conv.layer.bias.uid9:0"
    "RuntimeMemory": "100.00KB"
    
  }

}
layer {
  name: "Transform: transform-82-(F)/model/model_4_cv1_conv/layer/Conv"
  type: "Transform"
  bottom: "/model/model_0_act_7/Mul_smr:0"
  top: "transform-82-(F)/model/model_4_cv1_conv/layer/Conv:0"
    scale_param {
    "InputShapes": "64x40x40"
    "OutputShape": "64x40x40"
    "Quantize[mn,mx]": [-4.0, 4.0]
    "QuantizeBits": 8
    
    "RuntimeMemory": "160.00KB"
    "ScheduleId": "250"

  }

}
layer {
  name: "Transform: transform-83-(F)/model/model_4_cv1_conv/layer/Conv"
  type: "Transform"
  bottom: "/model/model_0_act_7/Mul_smr:0"
  top: "transform-83-(F)/model/model_4_cv1_conv/layer/Conv:0"
    scale_param {
    "InputShapes": "64x40x40"
    "OutputShape": "64x40x40"
    "Quantize[mn,mx]": [-4.0, 4.0]
    "QuantizeBits": 8
    
    "RuntimeMemory": "160.00KB"
    "ScheduleId": "253"

  }

}
layer {
  name: "StrideSlice: /model/Split_1sts0"
  type: "StrideSlice"
  bottom: "transform-82-(F)/model/model_4_cv1_conv/layer/Conv:0"
  top: "/model/Split_1sts0:0"
    scale_param {
    "InputShapes": "64x40x40"
    "OutputShape": "32x40x40"
    "Quantize[mn,mx]": [-4.0, 4.0]
    "QuantizeBits": 8
    
    "RuntimeMemory": "80.00KB"
    "ScheduleId": "251"

  }

}
layer {
  name: "StrideSlice: /model/Split_1sts1"
  type: "StrideSlice"
  bottom: "transform-83-(F)/model/model_4_cv1_conv/layer/Conv:0"
  top: "/model/Split_1sts1:0"
    scale_param {
    "InputShapes": "64x40x40"
    "OutputShape": "32x40x40"
    "Quantize[mn,mx]": [-4.0, 4.0]
    "QuantizeBits": 8
    
    "RuntimeMemory": "80.00KB"
    "ScheduleId": "254"

  }

}
layer {
  name: "Transform: transform-77-/model/Split_1sts0"
  type: "Transform"
  bottom: "/model/Split_1sts0:0"
  top: "transform-77-/model/Split_1sts0:0"
    scale_param {
    "InputShapes": "32x40x40"
    "OutputShape": "32x40x40"
    "Quantize[mn,mx]": [-4.0, 4.0]
    "QuantizeBits": 8
    
    "RuntimeMemory": "50.00KB"
    "ScheduleId": "252"

  }

}
layer {
  name: "Transform: transform-78-/model/Split_1sts1"
  type: "Transform"
  bottom: "/model/Split_1sts1:0"
  top: "transform-78-/model/Split_1sts1:0"
    scale_param {
    "InputShapes": "32x40x40"
    "OutputShape": "32x40x40"
    "Quantize[mn,mx]": [-4.0, 4.0]
    "QuantizeBits": 8
    
    "RuntimeMemory": "50.00KB"
    "ScheduleId": "255"

  }

}
layer {
  name: "Transform: transform-79-/model/Split_1sts1"
  type: "Transform"
  bottom: "/model/Split_1sts1:0"
  top: "transform-79-/model/Split_1sts1:0"
    scale_param {
    "InputShapes": "32x40x40"
    "OutputShape": "32x40x40"
    "Quantize[mn,mx]": [-4.0, 4.0]
    "QuantizeBits": 8
    
    "RuntimeMemory": "50.00KB"
    "ScheduleId": "256"

  }

}
layer {
  name: "Transform: transform-81-/model/Split_1sts1"
  type: "Transform"
  bottom: "/model/Split_1sts1:0"
  top: "transform-81-/model/Split_1sts1:0"
    scale_param {
    "InputShapes": "32x40x40"
    "OutputShape": "32x40x40"
    "Quantize[mn,mx]": [-4.0, 4.0]
    "QuantizeBits": 8
    
    "RuntimeMemory": "50.00KB"
    "ScheduleId": "257"

  }

}
layer {
  name: "Conv2D: /model/model_4_m_0_cv1_conv/layer/Conv"
  type: "Convolution"
  bottom: "transform-81-/model/Split_1sts1:0"
  top: "/model/model_0_act_8/Mul_smr:0"
    scale_param {
    "InputShapes": "32x40x40, 16x32x3x3, 16"
    "OutputShape": "16x40x40"
    "Quantize[mn,mx]": [-8.0, 8.0]
    "QuantizeBits": 16
    "ConstInputs": "/model/model_4_m_0_cv1_conv/WeightsSymmetricQuantizer:0"
    "ConstInputs": "Variable.model.model_4_m_0_cv1_conv.layer.bias.uid10:0"
    "RuntimeMemory": "40.00KB"
    "ScheduleId": "258"

  }
  blobs {
    shape {
      dim: 16
      dim: 32
      dim: 3
      dim: 3
    }
  }
  blobs {
    shape {
      dim: 16
    }
  }
}
layer {
  name: "Swish: /model/model_0_act_8/Mul_smr"
  type: "Swish"
  bottom: "/model/model_0_act_8/Mul_smr:0"
  top: "/model/model_0_act_8/Mul_smr:0"
    scale_param {
    "InputShapes": "16x40x40"
    "OutputShape": "16x40x40"
    "Quantize[mn,mx]": [-4.0, 4.0]
    "QuantizeBits": 8
    "ConstInputs": "/model/model_4_m_0_cv1_conv/WeightsSymmetricQuantizer:0"
    "ConstInputs": "Variable.model.model_4_m_0_cv1_conv.layer.bias.uid10:0"
    "RuntimeMemory": "40.00KB"
    
  }

}
layer {
  name: "Transform: transform-80-(F)/model/model_4_m_0_cv1_conv/layer/Conv"
  type: "Transform"
  bottom: "/model/model_0_act_8/Mul_smr:0"
  top: "transform-80-(F)/model/model_4_m_0_cv1_conv/layer/Conv:0"
    scale_param {
    "InputShapes": "16x40x40"
    "OutputShape": "16x40x40"
    "Quantize[mn,mx]": [-4.0, 4.0]
    "QuantizeBits": 8
    
    "RuntimeMemory": "42.00KB"
    "ScheduleId": "259"

  }

}
layer {
  name: "Transform: transform-80-0-(F)/model/model_4_m_0_cv1_conv/layer/Conv"
  type: "Transform"
  bottom: "transform-80-(F)/model/model_4_m_0_cv1_conv/layer/Conv:0"
  top: "transform-80-0-(F)/model/model_4_m_0_cv1_conv/layer/Conv:0"
    scale_param {
    "InputShapes": "16x40x40"
    "OutputShape": "16x40x40"
    "Quantize[mn,mx]": [-4.0, 4.0]
    "QuantizeBits": 8
    
    "RuntimeMemory": "40.00KB"
    "ScheduleId": "260"

  }

}
layer {
  name: "Transform: transform-80-1-(F)/model/model_4_m_0_cv1_conv/layer/Conv"
  type: "Transform"
  bottom: "transform-80-0-(F)/model/model_4_m_0_cv1_conv/layer/Conv:0"
  top: "transform-80-1-(F)/model/model_4_m_0_cv1_conv/layer/Conv:0"
    scale_param {
    "InputShapes": "16x40x40"
    "OutputShape": "16x40x40"
    "Quantize[mn,mx]": [-4.0, 4.0]
    "QuantizeBits": 8
    
    "RuntimeMemory": "42.00KB"
    "ScheduleId": "261"

  }

}
layer {
  name: "Transform: transform-80-2-(F)/model/model_4_m_0_cv1_conv/layer/Conv"
  type: "Transform"
  bottom: "transform-80-1-(F)/model/model_4_m_0_cv1_conv/layer/Conv:0"
  top: "transform-80-2-(F)/model/model_4_m_0_cv1_conv/layer/Conv:0"
    scale_param {
    "InputShapes": "16x40x40"
    "OutputShape": "16x40x40"
    "Quantize[mn,mx]": [-4.0, 4.0]
    "QuantizeBits": 8
    
    "RuntimeMemory": "42.00KB"
    "ScheduleId": "262"

  }

}
layer {
  name: "Conv2D: /model/model_4_m_0_cv2_conv/layer/Conv"
  type: "Convolution"
  bottom: "transform-80-2-(F)/model/model_4_m_0_cv1_conv/layer/Conv:0"
  top: "/model/model_0_act_9/Mul_smr:0"
    scale_param {
    "InputShapes": "16x40x40, 32x16x3x3, 32"
    "OutputShape": "32x40x40"
    "Quantize[mn,mx]": [-8.0, 8.0]
    "QuantizeBits": 16
    "ConstInputs": "/model/model_4_m_0_cv2_conv/WeightsSymmetricQuantizer:0"
    "ConstInputs": "Variable.model.model_4_m_0_cv2_conv.layer.bias.uid11:0"
    "RuntimeMemory": "50.00KB"
    "ScheduleId": "263"

  }
  blobs {
    shape {
      dim: 32
      dim: 16
      dim: 3
      dim: 3
    }
  }
  blobs {
    shape {
      dim: 32
    }
  }
}
layer {
  name: "Swish: /model/model_0_act_9/Mul_smr"
  type: "Swish"
  bottom: "/model/model_0_act_9/Mul_smr:0"
  top: "/model/model_0_act_9/Mul_smr:0"
    scale_param {
    "InputShapes": "32x40x40"
    "OutputShape": "32x40x40"
    "Quantize[mn,mx]": [-8.0, 8.0]
    "QuantizeBits": 8
    "ConstInputs": "/model/model_4_m_0_cv2_conv/WeightsSymmetricQuantizer:0"
    "ConstInputs": "Variable.model.model_4_m_0_cv2_conv.layer.bias.uid11:0"
    "RuntimeMemory": "50.00KB"
    
  }

}
layer {
  name: "Add: /model/Add_5"
  type: "Add"
  bottom: "/model/model_0_act_9/Mul_smr:0"
  bottom: "transform-79-/model/Split_1sts1:0"
  top: "/model/Add_5:0"
    scale_param {
    "InputShapes": "32x40x40, 32x40x40"
    "OutputShape": "32x40x40"
    "Quantize[mn,mx]": [-8.0, 8.0]
    "QuantizeBits": 8
    
    "RuntimeMemory": "50.00KB"
    "ScheduleId": "264"

  }

}
layer {
  name: "Concat: /model/Concat_3"
  type: "Concat"
  bottom: "/model/Add_5:0"
  bottom: "transform-77-/model/Split_1sts0:0"
  bottom: "transform-78-/model/Split_1sts1:0"
  top: "/model/Concat_3:0"
    scale_param {
    "InputShapes": "32x40x40, 32x40x40, 32x40x40"
    "OutputShape": "96x40x40"
    "Quantize[mn,mx]": [-8.0, 8.0]
    "QuantizeBits": 8
    
    "RuntimeMemory": "150.00KB"
    "ScheduleId": "265"

  }

}
layer {
  name: "Conv2D: /model/model_4_cv2_conv/layer/Conv"
  type: "Convolution"
  bottom: "/model/Concat_3:0"
  top: "/model/model_0_act_10/Mul_smr:0"
    scale_param {
    "InputShapes": "96x40x40, 128x96x1x1, 128"
    "OutputShape": "128x40x40"
    "Quantize[mn,mx]": [-8.0, 8.0]
    "QuantizeBits": 16
    "ConstInputs": "/model/model_4_cv2_conv/WeightsSymmetricQuantizer:0"
    "ConstInputs": "Variable.model.model_4_cv2_conv.layer.bias.uid12:0"
    "RuntimeMemory": "200.00KB"
    "ScheduleId": "266"

  }
  blobs {
    shape {
      dim: 128
      dim: 96
      dim: 1
      dim: 1
    }
  }
  blobs {
    shape {
      dim: 128
    }
  }
}
layer {
  name: "Swish: /model/model_0_act_10/Mul_smr"
  type: "Swish"
  bottom: "/model/model_0_act_10/Mul_smr:0"
  top: "/model/model_0_act_10/Mul_smr:0"
    scale_param {
    "InputShapes": "128x40x40"
    "OutputShape": "128x40x40"
    "Quantize[mn,mx]": [-4.0, 4.0]
    "QuantizeBits": 8
    "ConstInputs": "/model/model_4_cv2_conv/WeightsSymmetricQuantizer:0"
    "ConstInputs": "Variable.model.model_4_cv2_conv.layer.bias.uid12:0"
    "RuntimeMemory": "200.00KB"
    
  }

}
layer {
  name: "Conv2D: /model/model_5_conv/layer/Conv"
  type: "Convolution"
  bottom: "/model/model_0_act_10/Mul_smr:0"
  top: "/model/model_0_act_11/Mul_smr:0"
    scale_param {
    "InputShapes": "128x40x40, 128x128x3x3, 128"
    "OutputShape": "128x20x20"
    "Quantize[mn,mx]": [-8.0, 8.0]
    "QuantizeBits": 16
    "ConstInputs": "/model/model_5_conv/WeightsSymmetricQuantizer:0"
    "ConstInputs": "Variable.model.model_5_conv.layer.bias.uid13:0"
    "RuntimeMemory": "50.00KB"
    "ScheduleId": "267"

  }
  blobs {
    shape {
      dim: 128
      dim: 128
      dim: 3
      dim: 3
    }
  }
  blobs {
    shape {
      dim: 128
    }
  }
}
layer {
  name: "Swish: /model/model_0_act_11/Mul_smr"
  type: "Swish"
  bottom: "/model/model_0_act_11/Mul_smr:0"
  top: "/model/model_0_act_11/Mul_smr:0"
    scale_param {
    "InputShapes": "128x20x20"
    "OutputShape": "128x20x20"
    "Quantize[mn,mx]": [-4.0, 4.0]
    "QuantizeBits": 8
    "ConstInputs": "/model/model_5_conv/WeightsSymmetricQuantizer:0"
    "ConstInputs": "Variable.model.model_5_conv.layer.bias.uid13:0"
    "RuntimeMemory": "50.00KB"
    
  }

}
layer {
  name: "Conv2D: /model/model_6_cv1_conv/layer/Conv"
  type: "Convolution"
  bottom: "/model/model_0_act_11/Mul_smr:0"
  top: "/model/model_0_act_12/Mul_smr:0"
    scale_param {
    "InputShapes": "128x20x20, 128x128x1x1, 128"
    "OutputShape": "128x20x20"
    "Quantize[mn,mx]": [-8.0, 8.0]
    "QuantizeBits": 16
    "ConstInputs": "/model/model_6_cv1_conv/WeightsSymmetricQuantizer:0"
    "ConstInputs": "Variable.model.model_6_cv1_conv.layer.bias.uid14:0"
    "RuntimeMemory": "50.00KB"
    "ScheduleId": "268"

  }
  blobs {
    shape {
      dim: 128
      dim: 128
      dim: 1
      dim: 1
    }
  }
  blobs {
    shape {
      dim: 128
    }
  }
}
layer {
  name: "Swish: /model/model_0_act_12/Mul_smr"
  type: "Swish"
  bottom: "/model/model_0_act_12/Mul_smr:0"
  top: "/model/model_0_act_12/Mul_smr:0"
    scale_param {
    "InputShapes": "128x20x20"
    "OutputShape": "128x20x20"
    "Quantize[mn,mx]": [-8.0, 8.0]
    "QuantizeBits": 8
    "ConstInputs": "/model/model_6_cv1_conv/WeightsSymmetricQuantizer:0"
    "ConstInputs": "Variable.model.model_6_cv1_conv.layer.bias.uid14:0"
    "RuntimeMemory": "50.00KB"
    
  }

}
layer {
  name: "Transform: transform-75-(F)/model/model_6_cv1_conv/layer/Conv"
  type: "Transform"
  bottom: "/model/model_0_act_12/Mul_smr:0"
  top: "transform-75-(F)/model/model_6_cv1_conv/layer/Conv:0"
    scale_param {
    "InputShapes": "128x20x20"
    "OutputShape": "128x20x20"
    "Quantize[mn,mx]": [-8.0, 8.0]
    "QuantizeBits": 8
    
    "RuntimeMemory": "80.00KB"
    "ScheduleId": "269"

  }

}
layer {
  name: "Transform: transform-76-(F)/model/model_6_cv1_conv/layer/Conv"
  type: "Transform"
  bottom: "/model/model_0_act_12/Mul_smr:0"
  top: "transform-76-(F)/model/model_6_cv1_conv/layer/Conv:0"
    scale_param {
    "InputShapes": "128x20x20"
    "OutputShape": "128x20x20"
    "Quantize[mn,mx]": [-8.0, 8.0]
    "QuantizeBits": 8
    
    "RuntimeMemory": "80.00KB"
    "ScheduleId": "272"

  }

}
layer {
  name: "StrideSlice: /model/Split_2sts0"
  type: "StrideSlice"
  bottom: "transform-75-(F)/model/model_6_cv1_conv/layer/Conv:0"
  top: "/model/Split_2sts0:0"
    scale_param {
    "InputShapes": "128x20x20"
    "OutputShape": "64x20x20"
    "Quantize[mn,mx]": [-8.0, 8.0]
    "QuantizeBits": 8
    
    "RuntimeMemory": "40.00KB"
    "ScheduleId": "270"

  }

}
layer {
  name: "StrideSlice: /model/Split_2sts1"
  type: "StrideSlice"
  bottom: "transform-76-(F)/model/model_6_cv1_conv/layer/Conv:0"
  top: "/model/Split_2sts1:0"
    scale_param {
    "InputShapes": "128x20x20"
    "OutputShape": "64x20x20"
    "Quantize[mn,mx]": [-8.0, 8.0]
    "QuantizeBits": 8
    
    "RuntimeMemory": "40.00KB"
    "ScheduleId": "273"

  }

}
layer {
  name: "Transform: transform-71-/model/Split_2sts0"
  type: "Transform"
  bottom: "/model/Split_2sts0:0"
  top: "transform-71-/model/Split_2sts0:0"
    scale_param {
    "InputShapes": "64x20x20"
    "OutputShape": "64x20x20"
    "Quantize[mn,mx]": [-8.0, 8.0]
    "QuantizeBits": 8
    
    "RuntimeMemory": "25.00KB"
    "ScheduleId": "271"

  }

}
layer {
  name: "Transform: transform-72-/model/Split_2sts1"
  type: "Transform"
  bottom: "/model/Split_2sts1:0"
  top: "transform-72-/model/Split_2sts1:0"
    scale_param {
    "InputShapes": "64x20x20"
    "OutputShape": "64x20x20"
    "Quantize[mn,mx]": [-8.0, 8.0]
    "QuantizeBits": 8
    
    "RuntimeMemory": "25.00KB"
    "ScheduleId": "274"

  }

}
layer {
  name: "Transform: transform-73-/model/Split_2sts1"
  type: "Transform"
  bottom: "/model/Split_2sts1:0"
  top: "transform-73-/model/Split_2sts1:0"
    scale_param {
    "InputShapes": "64x20x20"
    "OutputShape": "64x20x20"
    "Quantize[mn,mx]": [-8.0, 8.0]
    "QuantizeBits": 8
    
    "RuntimeMemory": "25.00KB"
    "ScheduleId": "275"

  }

}
layer {
  name: "Transform: transform-74-/model/Split_2sts1"
  type: "Transform"
  bottom: "/model/Split_2sts1:0"
  top: "transform-74-/model/Split_2sts1:0"
    scale_param {
    "InputShapes": "64x20x20"
    "OutputShape": "64x20x20"
    "Quantize[mn,mx]": [-8.0, 8.0]
    "QuantizeBits": 8
    
    "RuntimeMemory": "25.00KB"
    "ScheduleId": "278"

  }

}
layer {
  name: "Conv2D: /model/model_6_m_0_cv2_conv/layer/Conv"
  type: "Convolution"
  bottom: "transform-73-/model/Split_2sts1:0"
  top: "/model/model_0_act_18/Mul_smr:0"
    scale_param {
    "InputShapes": "64x20x20, 32x64x1x1, 32"
    "OutputShape": "32x20x20"
    "Quantize[mn,mx]": [-32.0, 32.0]
    "QuantizeBits": 16
    "ConstInputs": "/model/model_6_m_0_cv2_conv/WeightsSymmetricQuantizer:0"
    "ConstInputs": "Variable.model.model_6_m_0_cv2_conv.layer.bias.uid16:0"
    "RuntimeMemory": "12.50KB"
    "ScheduleId": "276"

  }
  blobs {
    shape {
      dim: 32
      dim: 64
      dim: 1
      dim: 1
    }
  }
  blobs {
    shape {
      dim: 32
    }
  }
}
layer {
  name: "Swish: /model/model_0_act_18/Mul_smr"
  type: "Swish"
  bottom: "/model/model_0_act_18/Mul_smr:0"
  top: "/model/model_0_act_18/Mul_smr:0"
    scale_param {
    "InputShapes": "32x20x20"
    "OutputShape": "32x20x20"
    "Quantize[mn,mx]": [-32.0, 32.0]
    "QuantizeBits": 8
    "ConstInputs": "/model/model_6_m_0_cv2_conv/WeightsSymmetricQuantizer:0"
    "ConstInputs": "Variable.model.model_6_m_0_cv2_conv.layer.bias.uid16:0"
    "RuntimeMemory": "12.50KB"
    
  }

}
layer {
  name: "Conv2D: /model/model_6_m_0_cv1_conv/layer/Conv"
  type: "Convolution"
  bottom: "transform-74-/model/Split_2sts1:0"
  top: "/model/model_0_act_13/Mul_smr:0"
    scale_param {
    "InputShapes": "64x20x20, 32x64x1x1, 32"
    "OutputShape": "32x20x20"
    "Quantize[mn,mx]": [-8.0, 8.0]
    "QuantizeBits": 16
    "ConstInputs": "/model/model_6_m_0_cv1_conv/WeightsSymmetricQuantizer:0"
    "ConstInputs": "Variable.model.model_6_m_0_cv1_conv.layer.bias.uid15:0"
    "RuntimeMemory": "12.50KB"
    "ScheduleId": "279"

  }
  blobs {
    shape {
      dim: 32
      dim: 64
      dim: 1
      dim: 1
    }
  }
  blobs {
    shape {
      dim: 32
    }
  }
}
layer {
  name: "Swish: /model/model_0_act_13/Mul_smr"
  type: "Swish"
  bottom: "/model/model_0_act_13/Mul_smr:0"
  top: "/model/model_0_act_13/Mul_smr:0"
    scale_param {
    "InputShapes": "32x20x20"
    "OutputShape": "32x20x20"
    "Quantize[mn,mx]": [-4.0, 4.0]
    "QuantizeBits": 8
    "ConstInputs": "/model/model_6_m_0_cv1_conv/WeightsSymmetricQuantizer:0"
    "ConstInputs": "Variable.model.model_6_m_0_cv1_conv.layer.bias.uid15:0"
    "RuntimeMemory": "12.50KB"
    
  }

}
layer {
  name: "Cast: Cast_to_/model/Concat_6_1"
  type: "Cast"
  bottom: "/model/model_0_act_18/Mul_smr:0"
  top: "Cast_to_/model/Concat_6_1:0"
    scale_param {
    "InputShapes": "32x20x20"
    "OutputShape": "32x20x20"
    "Quantize[mn,mx]": [-16.0, 16.0]
    "QuantizeBits": 8
    
    "RuntimeMemory": "12.50KB"
    "ScheduleId": "277"

  }

}
layer {
  name: "Conv2D: /model/model_6_m_0_m_0_cv1_conv/layer/Conv"
  type: "Convolution"
  bottom: "/model/model_0_act_13/Mul_smr:0"
  top: "/model/model_0_act_14/Mul_smr:0"
    scale_param {
    "InputShapes": "32x20x20, 32x32x3x3, 32"
    "OutputShape": "32x20x20"
    "Quantize[mn,mx]": [-8.0, 8.0]
    "QuantizeBits": 16
    "ConstInputs": "/model/model_6_m_0_m_0_cv1_conv/WeightsSymmetricQuantizer:0"
    "ConstInputs": "Variable.model.model_6_m_0_m_0_cv1_conv.layer.bias.uid17:0"
    "RuntimeMemory": "12.50KB"
    "ScheduleId": "280"

  }
  blobs {
    shape {
      dim: 32
      dim: 32
      dim: 3
      dim: 3
    }
  }
  blobs {
    shape {
      dim: 32
    }
  }
}
layer {
  name: "Swish: /model/model_0_act_14/Mul_smr"
  type: "Swish"
  bottom: "/model/model_0_act_14/Mul_smr:0"
  top: "/model/model_0_act_14/Mul_smr:0"
    scale_param {
    "InputShapes": "32x20x20"
    "OutputShape": "32x20x20"
    "Quantize[mn,mx]": [0, 8.0]
    "QuantizeBits": 8
    "ConstInputs": "/model/model_6_m_0_m_0_cv1_conv/WeightsSymmetricQuantizer:0"
    "ConstInputs": "Variable.model.model_6_m_0_m_0_cv1_conv.layer.bias.uid17:0"
    "RuntimeMemory": "12.50KB"
    
  }

}
layer {
  name: "Pad: /model/Pad_2_to1d_0"
  type: "Pad"
  bottom: "/model/model_0_act_14/Mul_smr:0"
  top: "/model/Pad_2_to1d_0:0"
    scale_param {
    "InputShapes": "32x20x20"
    "OutputShape": "32x22x20"
    "Quantize[mn,mx]": [0, 8.0]
    "QuantizeBits": 8
    "HasScratch": "true"
    
    "RuntimeMemory": "13.75KB"
    "ScheduleId": "281"

  }

}
layer {
  name: "Pad: /model/Pad_2_to1d_1"
  type: "Pad"
  bottom: "/model/Pad_2_to1d_0:0"
  top: "/model/Pad_2_to1d_1:0"
    scale_param {
    "InputShapes": "32x22x20"
    "OutputShape": "32x22x22"
    "Quantize[mn,mx]": [0, 8.0]
    "QuantizeBits": 8
    "HasScratch": "true"
    
    "RuntimeMemory": "15.13KB"
    "ScheduleId": "282"

  }

}
layer {
  name: "Conv2D: /model/model_6_m_0_m_0_cv2_conv/layer/Conv"
  type: "Convolution"
  bottom: "/model/Pad_2_to1d_1:0"
  top: "/model/model_0_act_15/Mul_smr:0"
    scale_param {
    "InputShapes": "32x22x22, 32x32x3x3, 32"
    "OutputShape": "32x20x20"
    "Quantize[mn,mx]": [-8.0, 8.0]
    "QuantizeBits": 16
    "ConstInputs": "/model/model_6_m_0_m_0_cv2_conv/WeightsSymmetricQuantizer:0"
    "ConstInputs": "Variable.model.model_6_m_0_m_0_cv2_conv.layer.bias.uid18:0"
    "RuntimeMemory": "12.50KB"
    "ScheduleId": "283"

  }
  blobs {
    shape {
      dim: 32
      dim: 32
      dim: 3
      dim: 3
    }
  }
  blobs {
    shape {
      dim: 32
    }
  }
}
layer {
  name: "Swish: /model/model_0_act_15/Mul_smr"
  type: "Swish"
  bottom: "/model/model_0_act_15/Mul_smr:0"
  top: "/model/model_0_act_15/Mul_smr:0"
    scale_param {
    "InputShapes": "32x20x20"
    "OutputShape": "32x20x20"
    "Quantize[mn,mx]": [-8.0, 8.0]
    "QuantizeBits": 8
    "ConstInputs": "/model/model_6_m_0_m_0_cv2_conv/WeightsSymmetricQuantizer:0"
    "ConstInputs": "Variable.model.model_6_m_0_m_0_cv2_conv.layer.bias.uid18:0"
    "RuntimeMemory": "12.50KB"
    
  }

}
layer {
  name: "Add: /model/Add_7"
  type: "Add"
  bottom: "/model/model_0_act_13/Mul_smr:0"
  bottom: "/model/model_0_act_15/Mul_smr:0"
  top: "/model/Add_7:0"
    scale_param {
    "InputShapes": "32x20x20, 32x20x20"
    "OutputShape": "32x20x20"
    "Quantize[mn,mx]": [-8.0, 8.0]
    "QuantizeBits": 8
    
    "RuntimeMemory": "12.50KB"
    "ScheduleId": "284"

  }

}
layer {
  name: "Conv2D: /model/model_6_m_0_m_1_cv1_conv/layer/Conv"
  type: "Convolution"
  bottom: "/model/Add_7:0"
  top: "/model/model_0_act_16/Mul_smr:0"
    scale_param {
    "InputShapes": "32x20x20, 32x32x3x3, 32"
    "OutputShape": "32x20x20"
    "Quantize[mn,mx]": [-8.0, 8.0]
    "QuantizeBits": 16
    "ConstInputs": "/model/model_6_m_0_m_1_cv1_conv/WeightsSymmetricQuantizer:0"
    "ConstInputs": "Variable.model.model_6_m_0_m_1_cv1_conv.layer.bias.uid19:0"
    "RuntimeMemory": "12.50KB"
    "ScheduleId": "285"

  }
  blobs {
    shape {
      dim: 32
      dim: 32
      dim: 3
      dim: 3
    }
  }
  blobs {
    shape {
      dim: 32
    }
  }
}
layer {
  name: "Swish: /model/model_0_act_16/Mul_smr"
  type: "Swish"
  bottom: "/model/model_0_act_16/Mul_smr:0"
  top: "/model/model_0_act_16/Mul_smr:0"
    scale_param {
    "InputShapes": "32x20x20"
    "OutputShape": "32x20x20"
    "Quantize[mn,mx]": [0, 8.0]
    "QuantizeBits": 8
    "ConstInputs": "/model/model_6_m_0_m_1_cv1_conv/WeightsSymmetricQuantizer:0"
    "ConstInputs": "Variable.model.model_6_m_0_m_1_cv1_conv.layer.bias.uid19:0"
    "RuntimeMemory": "12.50KB"
    
  }

}
layer {
  name: "Pad: /model/Pad_3_to1d_0"
  type: "Pad"
  bottom: "/model/model_0_act_16/Mul_smr:0"
  top: "/model/Pad_3_to1d_0:0"
    scale_param {
    "InputShapes": "32x20x20"
    "OutputShape": "32x22x20"
    "Quantize[mn,mx]": [0, 8.0]
    "QuantizeBits": 8
    "HasScratch": "true"
    
    "RuntimeMemory": "13.75KB"
    "ScheduleId": "286"

  }

}
layer {
  name: "Pad: /model/Pad_3_to1d_1"
  type: "Pad"
  bottom: "/model/Pad_3_to1d_0:0"
  top: "/model/Pad_3_to1d_1:0"
    scale_param {
    "InputShapes": "32x22x20"
    "OutputShape": "32x22x22"
    "Quantize[mn,mx]": [0, 8.0]
    "QuantizeBits": 8
    "HasScratch": "true"
    
    "RuntimeMemory": "15.13KB"
    "ScheduleId": "287"

  }

}
layer {
  name: "Conv2D: /model/model_6_m_0_m_1_cv2_conv/layer/Conv"
  type: "Convolution"
  bottom: "/model/Pad_3_to1d_1:0"
  top: "/model/model_0_act_17/Mul_smr:0"
    scale_param {
    "InputShapes": "32x22x22, 32x32x3x3, 32"
    "OutputShape": "32x20x20"
    "Quantize[mn,mx]": [-16.0, 16.0]
    "QuantizeBits": 16
    "ConstInputs": "/model/model_6_m_0_m_1_cv2_conv/WeightsSymmetricQuantizer:0"
    "ConstInputs": "Variable.model.model_6_m_0_m_1_cv2_conv.layer.bias.uid20:0"
    "RuntimeMemory": "12.50KB"
    "ScheduleId": "288"

  }
  blobs {
    shape {
      dim: 32
      dim: 32
      dim: 3
      dim: 3
    }
  }
  blobs {
    shape {
      dim: 32
    }
  }
}
layer {
  name: "Swish: /model/model_0_act_17/Mul_smr"
  type: "Swish"
  bottom: "/model/model_0_act_17/Mul_smr:0"
  top: "/model/model_0_act_17/Mul_smr:0"
    scale_param {
    "InputShapes": "32x20x20"
    "OutputShape": "32x20x20"
    "Quantize[mn,mx]": [-16.0, 16.0]
    "QuantizeBits": 8
    "ConstInputs": "/model/model_6_m_0_m_1_cv2_conv/WeightsSymmetricQuantizer:0"
    "ConstInputs": "Variable.model.model_6_m_0_m_1_cv2_conv.layer.bias.uid20:0"
    "RuntimeMemory": "12.50KB"
    
  }

}
layer {
  name: "Add: /model/Add_9"
  type: "Add"
  bottom: "/model/Add_7:0"
  bottom: "/model/model_0_act_17/Mul_smr:0"
  top: "/model/Add_9:0"
    scale_param {
    "InputShapes": "32x20x20, 32x20x20"
    "OutputShape": "32x20x20"
    "Quantize[mn,mx]": [-16.0, 16.0]
    "QuantizeBits": 8
    
    "RuntimeMemory": "12.50KB"
    "ScheduleId": "289"

  }

}
layer {
  name: "Concat: /model/Concat_6"
  type: "Concat"
  bottom: "/model/Add_9:0"
  bottom: "Cast_to_/model/Concat_6_1:0"
  top: "/model/Concat_6:0"
    scale_param {
    "InputShapes": "32x20x20, 32x20x20"
    "OutputShape": "64x20x20"
    "Quantize[mn,mx]": [-16.0, 16.0]
    "QuantizeBits": 8
    
    "RuntimeMemory": "25.00KB"
    "ScheduleId": "290"

  }

}
layer {
  name: "Conv2D: /model/model_6_m_0_cv3_conv/layer/Conv"
  type: "Convolution"
  bottom: "/model/Concat_6:0"
  top: "/model/model_0_act_19/Mul_smr:0"
    scale_param {
    "InputShapes": "64x20x20, 64x64x1x1, 64"
    "OutputShape": "64x20x20"
    "Quantize[mn,mx]": [-8.0, 8.0]
    "QuantizeBits": 16
    "ConstInputs": "/model/model_6_m_0_cv3_conv/WeightsSymmetricQuantizer:0"
    "ConstInputs": "Variable.model.model_6_m_0_cv3_conv.layer.bias.uid21:0"
    "RuntimeMemory": "25.00KB"
    "ScheduleId": "291"

  }
  blobs {
    shape {
      dim: 64
      dim: 64
      dim: 1
      dim: 1
    }
  }
  blobs {
    shape {
      dim: 64
    }
  }
}
layer {
  name: "Swish: /model/model_0_act_19/Mul_smr"
  type: "Swish"
  bottom: "/model/model_0_act_19/Mul_smr:0"
  top: "/model/model_0_act_19/Mul_smr:0"
    scale_param {
    "InputShapes": "64x20x20"
    "OutputShape": "64x20x20"
    "Quantize[mn,mx]": [-8.0, 8.0]
    "QuantizeBits": 8
    "ConstInputs": "/model/model_6_m_0_cv3_conv/WeightsSymmetricQuantizer:0"
    "ConstInputs": "Variable.model.model_6_m_0_cv3_conv.layer.bias.uid21:0"
    "RuntimeMemory": "25.00KB"
    
  }

}
layer {
  name: "Concat: /model/Concat_7"
  type: "Concat"
  bottom: "/model/model_0_act_19/Mul_smr:0"
  bottom: "transform-71-/model/Split_2sts0:0"
  bottom: "transform-72-/model/Split_2sts1:0"
  top: "/model/Concat_7:0"
    scale_param {
    "InputShapes": "64x20x20, 64x20x20, 64x20x20"
    "OutputShape": "192x20x20"
    "Quantize[mn,mx]": [-8.0, 8.0]
    "QuantizeBits": 8
    
    "RuntimeMemory": "75.00KB"
    "ScheduleId": "292"

  }

}
layer {
  name: "Conv2D: /model/model_6_cv2_conv/layer/Conv"
  type: "Convolution"
  bottom: "/model/Concat_7:0"
  top: "/model/model_0_act_20/Mul_smr:0"
    scale_param {
    "InputShapes": "192x20x20, 128x192x1x1, 128"
    "OutputShape": "128x20x20"
    "Quantize[mn,mx]": [-8.0, 8.0]
    "QuantizeBits": 16
    "ConstInputs": "/model/model_6_cv2_conv/WeightsSymmetricQuantizer:0"
    "ConstInputs": "Variable.model.model_6_cv2_conv.layer.bias.uid22:0"
    "RuntimeMemory": "50.00KB"
    "ScheduleId": "293"

  }
  blobs {
    shape {
      dim: 128
      dim: 192
      dim: 1
      dim: 1
    }
  }
  blobs {
    shape {
      dim: 128
    }
  }
}
layer {
  name: "Swish: /model/model_0_act_20/Mul_smr"
  type: "Swish"
  bottom: "/model/model_0_act_20/Mul_smr:0"
  top: "/model/model_0_act_20/Mul_smr:0"
    scale_param {
    "InputShapes": "128x20x20"
    "OutputShape": "128x20x20"
    "Quantize[mn,mx]": [-8.0, 8.0]
    "QuantizeBits": 8
    "ConstInputs": "/model/model_6_cv2_conv/WeightsSymmetricQuantizer:0"
    "ConstInputs": "Variable.model.model_6_cv2_conv.layer.bias.uid22:0"
    "RuntimeMemory": "50.00KB"
    
  }

}
layer {
  name: "Conv2D: /model/model_7_conv/layer/Conv"
  type: "Convolution"
  bottom: "/model/model_0_act_20/Mul_smr:0"
  top: "/model/model_0_act_21/Mul_smr:0"
    scale_param {
    "InputShapes": "128x20x20, 256x128x3x3, 256"
    "OutputShape": "256x10x10"
    "Quantize[mn,mx]": [-16.0, 16.0]
    "QuantizeBits": 16
    "ConstInputs": "/model/model_7_conv/WeightsSymmetricQuantizer:0"
    "ConstInputs": "Variable.model.model_7_conv.layer.bias.uid23:0"
    "RuntimeMemory": "25.00KB"
    "ScheduleId": "294"

  }
  blobs {
    shape {
      dim: 256
      dim: 128
      dim: 3
      dim: 3
    }
  }
  blobs {
    shape {
      dim: 256
    }
  }
}
layer {
  name: "Swish: /model/model_0_act_21/Mul_smr"
  type: "Swish"
  bottom: "/model/model_0_act_21/Mul_smr:0"
  top: "/model/model_0_act_21/Mul_smr:0"
    scale_param {
    "InputShapes": "256x10x10"
    "OutputShape": "256x10x10"
    "Quantize[mn,mx]": [0, 16.0]
    "QuantizeBits": 8
    "ConstInputs": "/model/model_7_conv/WeightsSymmetricQuantizer:0"
    "ConstInputs": "Variable.model.model_7_conv.layer.bias.uid23:0"
    "RuntimeMemory": "25.00KB"
    
  }

}
layer {
  name: "Conv2D: /model/model_8_cv1_conv/layer/Conv"
  type: "Convolution"
  bottom: "/model/model_0_act_21/Mul_smr:0"
  top: "/model/model_0_act_22/Mul_smr:0"
    scale_param {
    "InputShapes": "256x10x10, 256x256x1x1, 256"
    "OutputShape": "256x10x10"
    "Quantize[mn,mx]": [-16.0, 16.0]
    "QuantizeBits": 16
    "ConstInputs": "/model/model_8_cv1_conv/WeightsSymmetricQuantizer:0"
    "ConstInputs": "Variable.model.model_8_cv1_conv.layer.bias.uid24:0"
    "RuntimeMemory": "25.00KB"
    "ScheduleId": "295"

  }
  blobs {
    shape {
      dim: 256
      dim: 256
      dim: 1
      dim: 1
    }
  }
  blobs {
    shape {
      dim: 256
    }
  }
}
layer {
  name: "Swish: /model/model_0_act_22/Mul_smr"
  type: "Swish"
  bottom: "/model/model_0_act_22/Mul_smr:0"
  top: "/model/model_0_act_22/Mul_smr:0"
    scale_param {
    "InputShapes": "256x10x10"
    "OutputShape": "256x10x10"
    "Quantize[mn,mx]": [-16.0, 16.0]
    "QuantizeBits": 8
    "ConstInputs": "/model/model_8_cv1_conv/WeightsSymmetricQuantizer:0"
    "ConstInputs": "Variable.model.model_8_cv1_conv.layer.bias.uid24:0"
    "RuntimeMemory": "25.00KB"
    
  }

}
layer {
  name: "Transform: transform-69-(F)/model/model_8_cv1_conv/layer/Conv"
  type: "Transform"
  bottom: "/model/model_0_act_22/Mul_smr:0"
  top: "transform-69-(F)/model/model_8_cv1_conv/layer/Conv:0"
    scale_param {
    "InputShapes": "256x10x10"
    "OutputShape": "256x10x10"
    "Quantize[mn,mx]": [-16.0, 16.0]
    "QuantizeBits": 8
    
    "RuntimeMemory": "80.00KB"
    "ScheduleId": "296"

  }

}
layer {
  name: "Transform: transform-70-(F)/model/model_8_cv1_conv/layer/Conv"
  type: "Transform"
  bottom: "/model/model_0_act_22/Mul_smr:0"
  top: "transform-70-(F)/model/model_8_cv1_conv/layer/Conv:0"
    scale_param {
    "InputShapes": "256x10x10"
    "OutputShape": "256x10x10"
    "Quantize[mn,mx]": [-16.0, 16.0]
    "QuantizeBits": 8
    
    "RuntimeMemory": "80.00KB"
    "ScheduleId": "299"

  }

}
layer {
  name: "StrideSlice: /model/Split_3sts0"
  type: "StrideSlice"
  bottom: "transform-69-(F)/model/model_8_cv1_conv/layer/Conv:0"
  top: "/model/Split_3sts0:0"
    scale_param {
    "InputShapes": "256x10x10"
    "OutputShape": "128x10x10"
    "Quantize[mn,mx]": [-16.0, 16.0]
    "QuantizeBits": 8
    
    "RuntimeMemory": "40.00KB"
    "ScheduleId": "297"

  }

}
layer {
  name: "StrideSlice: /model/Split_3sts1"
  type: "StrideSlice"
  bottom: "transform-70-(F)/model/model_8_cv1_conv/layer/Conv:0"
  top: "/model/Split_3sts1:0"
    scale_param {
    "InputShapes": "256x10x10"
    "OutputShape": "128x10x10"
    "Quantize[mn,mx]": [-16.0, 16.0]
    "QuantizeBits": 8
    
    "RuntimeMemory": "40.00KB"
    "ScheduleId": "300"

  }

}
layer {
  name: "Transform: transform-65-/model/Split_3sts0"
  type: "Transform"
  bottom: "/model/Split_3sts0:0"
  top: "transform-65-/model/Split_3sts0:0"
    scale_param {
    "InputShapes": "128x10x10"
    "OutputShape": "128x10x10"
    "Quantize[mn,mx]": [-16.0, 16.0]
    "QuantizeBits": 8
    
    "RuntimeMemory": "12.50KB"
    "ScheduleId": "298"

  }

}
layer {
  name: "Transform: transform-66-/model/Split_3sts1"
  type: "Transform"
  bottom: "/model/Split_3sts1:0"
  top: "transform-66-/model/Split_3sts1:0"
    scale_param {
    "InputShapes": "128x10x10"
    "OutputShape": "128x10x10"
    "Quantize[mn,mx]": [-16.0, 16.0]
    "QuantizeBits": 8
    
    "RuntimeMemory": "12.50KB"
    "ScheduleId": "301"

  }

}
layer {
  name: "Transform: transform-67-/model/Split_3sts1"
  type: "Transform"
  bottom: "/model/Split_3sts1:0"
  top: "transform-67-/model/Split_3sts1:0"
    scale_param {
    "InputShapes": "128x10x10"
    "OutputShape": "128x10x10"
    "Quantize[mn,mx]": [-16.0, 16.0]
    "QuantizeBits": 8
    
    "RuntimeMemory": "12.50KB"
    "ScheduleId": "302"

  }

}
layer {
  name: "Transform: transform-68-/model/Split_3sts1"
  type: "Transform"
  bottom: "/model/Split_3sts1:0"
  top: "transform-68-/model/Split_3sts1:0"
    scale_param {
    "InputShapes": "128x10x10"
    "OutputShape": "128x10x10"
    "Quantize[mn,mx]": [-16.0, 16.0]
    "QuantizeBits": 8
    
    "RuntimeMemory": "12.50KB"
    "ScheduleId": "304"

  }

}
layer {
  name: "Conv2D: /model/model_8_m_0_cv2_conv/layer/Conv"
  type: "Convolution"
  bottom: "transform-67-/model/Split_3sts1:0"
  top: "/model/model_0_act_28/Mul_smr:0"
    scale_param {
    "InputShapes": "128x10x10, 64x128x1x1, 64"
    "OutputShape": "64x10x10"
    "Quantize[mn,mx]": [-16.0, 16.0]
    "QuantizeBits": 16
    "ConstInputs": "/model/model_8_m_0_cv2_conv/WeightsSymmetricQuantizer:0"
    "ConstInputs": "Variable.model.model_8_m_0_cv2_conv.layer.bias.uid26:0"
    "RuntimeMemory": "6.25KB"
    "ScheduleId": "303"

  }
  blobs {
    shape {
      dim: 64
      dim: 128
      dim: 1
      dim: 1
    }
  }
  blobs {
    shape {
      dim: 64
    }
  }
}
layer {
  name: "Swish: /model/model_0_act_28/Mul_smr"
  type: "Swish"
  bottom: "/model/model_0_act_28/Mul_smr:0"
  top: "/model/model_0_act_28/Mul_smr:0"
    scale_param {
    "InputShapes": "64x10x10"
    "OutputShape": "64x10x10"
    "Quantize[mn,mx]": [-16.0, 16.0]
    "QuantizeBits": 8
    "ConstInputs": "/model/model_8_m_0_cv2_conv/WeightsSymmetricQuantizer:0"
    "ConstInputs": "Variable.model.model_8_m_0_cv2_conv.layer.bias.uid26:0"
    "RuntimeMemory": "6.25KB"
    
  }

}
layer {
  name: "Conv2D: /model/model_8_m_0_cv1_conv/layer/Conv"
  type: "Convolution"
  bottom: "transform-68-/model/Split_3sts1:0"
  top: "/model/model_0_act_23/Mul_smr:0"
    scale_param {
    "InputShapes": "128x10x10, 64x128x1x1, 64"
    "OutputShape": "64x10x10"
    "Quantize[mn,mx]": [-16.0, 16.0]
    "QuantizeBits": 16
    "ConstInputs": "/model/model_8_m_0_cv1_conv/WeightsSymmetricQuantizer:0"
    "ConstInputs": "Variable.model.model_8_m_0_cv1_conv.layer.bias.uid25:0"
    "RuntimeMemory": "6.25KB"
    "ScheduleId": "305"

  }
  blobs {
    shape {
      dim: 64
      dim: 128
      dim: 1
      dim: 1
    }
  }
  blobs {
    shape {
      dim: 64
    }
  }
}
layer {
  name: "Swish: /model/model_0_act_23/Mul_smr"
  type: "Swish"
  bottom: "/model/model_0_act_23/Mul_smr:0"
  top: "/model/model_0_act_23/Mul_smr:0"
    scale_param {
    "InputShapes": "64x10x10"
    "OutputShape": "64x10x10"
    "Quantize[mn,mx]": [-16.0, 16.0]
    "QuantizeBits": 8
    "ConstInputs": "/model/model_8_m_0_cv1_conv/WeightsSymmetricQuantizer:0"
    "ConstInputs": "Variable.model.model_8_m_0_cv1_conv.layer.bias.uid25:0"
    "RuntimeMemory": "6.25KB"
    
  }

}
layer {
  name: "Conv2D: /model/model_8_m_0_m_0_cv1_conv/layer/Conv"
  type: "Convolution"
  bottom: "/model/model_0_act_23/Mul_smr:0"
  top: "/model/model_0_act_24/Mul_smr:0"
    scale_param {
    "InputShapes": "64x10x10, 64x64x3x3, 64"
    "OutputShape": "64x10x10"
    "Quantize[mn,mx]": [-8.0, 8.0]
    "QuantizeBits": 16
    "ConstInputs": "/model/model_8_m_0_m_0_cv1_conv/WeightsSymmetricQuantizer:0"
    "ConstInputs": "Variable.model.model_8_m_0_m_0_cv1_conv.layer.bias.uid27:0"
    "RuntimeMemory": "6.25KB"
    "ScheduleId": "306"

  }
  blobs {
    shape {
      dim: 64
      dim: 64
      dim: 3
      dim: 3
    }
  }
  blobs {
    shape {
      dim: 64
    }
  }
}
layer {
  name: "Swish: /model/model_0_act_24/Mul_smr"
  type: "Swish"
  bottom: "/model/model_0_act_24/Mul_smr:0"
  top: "/model/model_0_act_24/Mul_smr:0"
    scale_param {
    "InputShapes": "64x10x10"
    "OutputShape": "64x10x10"
    "Quantize[mn,mx]": [0, 8.0]
    "QuantizeBits": 8
    "ConstInputs": "/model/model_8_m_0_m_0_cv1_conv/WeightsSymmetricQuantizer:0"
    "ConstInputs": "Variable.model.model_8_m_0_m_0_cv1_conv.layer.bias.uid27:0"
    "RuntimeMemory": "6.25KB"
    
  }

}
layer {
  name: "Pad: /model/Pad_4_to1d_0"
  type: "Pad"
  bottom: "/model/model_0_act_24/Mul_smr:0"
  top: "/model/Pad_4_to1d_0:0"
    scale_param {
    "InputShapes": "64x10x10"
    "OutputShape": "64x12x10"
    "Quantize[mn,mx]": [0, 8.0]
    "QuantizeBits": 8
    "HasScratch": "true"
    
    "RuntimeMemory": "7.50KB"
    "ScheduleId": "307"

  }

}
layer {
  name: "Pad: /model/Pad_4_to1d_1"
  type: "Pad"
  bottom: "/model/Pad_4_to1d_0:0"
  top: "/model/Pad_4_to1d_1:0"
    scale_param {
    "InputShapes": "64x12x10"
    "OutputShape": "64x12x12"
    "Quantize[mn,mx]": [0, 8.0]
    "QuantizeBits": 8
    "HasScratch": "true"
    
    "RuntimeMemory": "9.00KB"
    "ScheduleId": "308"

  }

}
layer {
  name: "Conv2D: /model/model_8_m_0_m_0_cv2_conv/layer/Conv"
  type: "Convolution"
  bottom: "/model/Pad_4_to1d_1:0"
  top: "/model/model_0_act_25/Mul_smr:0"
    scale_param {
    "InputShapes": "64x12x12, 64x64x3x3, 64"
    "OutputShape": "64x10x10"
    "Quantize[mn,mx]": [-16.0, 16.0]
    "QuantizeBits": 16
    "ConstInputs": "/model/model_8_m_0_m_0_cv2_conv/WeightsSymmetricQuantizer:0"
    "ConstInputs": "Variable.model.model_8_m_0_m_0_cv2_conv.layer.bias.uid28:0"
    "RuntimeMemory": "6.25KB"
    "ScheduleId": "309"

  }
  blobs {
    shape {
      dim: 64
      dim: 64
      dim: 3
      dim: 3
    }
  }
  blobs {
    shape {
      dim: 64
    }
  }
}
layer {
  name: "Swish: /model/model_0_act_25/Mul_smr"
  type: "Swish"
  bottom: "/model/model_0_act_25/Mul_smr:0"
  top: "/model/model_0_act_25/Mul_smr:0"
    scale_param {
    "InputShapes": "64x10x10"
    "OutputShape": "64x10x10"
    "Quantize[mn,mx]": [-16.0, 16.0]
    "QuantizeBits": 8
    "ConstInputs": "/model/model_8_m_0_m_0_cv2_conv/WeightsSymmetricQuantizer:0"
    "ConstInputs": "Variable.model.model_8_m_0_m_0_cv2_conv.layer.bias.uid28:0"
    "RuntimeMemory": "6.25KB"
    
  }

}
layer {
  name: "Add: /model/Add_12"
  type: "Add"
  bottom: "/model/model_0_act_23/Mul_smr:0"
  bottom: "/model/model_0_act_25/Mul_smr:0"
  top: "/model/Add_12:0"
    scale_param {
    "InputShapes": "64x10x10, 64x10x10"
    "OutputShape": "64x10x10"
    "Quantize[mn,mx]": [-16.0, 16.0]
    "QuantizeBits": 8
    
    "RuntimeMemory": "6.25KB"
    "ScheduleId": "310"

  }

}
layer {
  name: "Conv2D: /model/model_8_m_0_m_1_cv1_conv/layer/Conv"
  type: "Convolution"
  bottom: "/model/Add_12:0"
  top: "/model/model_0_act_26/Mul_smr:0"
    scale_param {
    "InputShapes": "64x10x10, 64x64x3x3, 64"
    "OutputShape": "64x10x10"
    "Quantize[mn,mx]": [-8.0, 8.0]
    "QuantizeBits": 16
    "ConstInputs": "/model/model_8_m_0_m_1_cv1_conv/WeightsSymmetricQuantizer:0"
    "ConstInputs": "Variable.model.model_8_m_0_m_1_cv1_conv.layer.bias.uid29:0"
    "RuntimeMemory": "6.25KB"
    "ScheduleId": "311"

  }
  blobs {
    shape {
      dim: 64
      dim: 64
      dim: 3
      dim: 3
    }
  }
  blobs {
    shape {
      dim: 64
    }
  }
}
layer {
  name: "Swish: /model/model_0_act_26/Mul_smr"
  type: "Swish"
  bottom: "/model/model_0_act_26/Mul_smr:0"
  top: "/model/model_0_act_26/Mul_smr:0"
    scale_param {
    "InputShapes": "64x10x10"
    "OutputShape": "64x10x10"
    "Quantize[mn,mx]": [0, 8.0]
    "QuantizeBits": 8
    "ConstInputs": "/model/model_8_m_0_m_1_cv1_conv/WeightsSymmetricQuantizer:0"
    "ConstInputs": "Variable.model.model_8_m_0_m_1_cv1_conv.layer.bias.uid29:0"
    "RuntimeMemory": "6.25KB"
    
  }

}
layer {
  name: "Pad: /model/Pad_5_to1d_0"
  type: "Pad"
  bottom: "/model/model_0_act_26/Mul_smr:0"
  top: "/model/Pad_5_to1d_0:0"
    scale_param {
    "InputShapes": "64x10x10"
    "OutputShape": "64x12x10"
    "Quantize[mn,mx]": [0, 8.0]
    "QuantizeBits": 8
    "HasScratch": "true"
    
    "RuntimeMemory": "7.50KB"
    "ScheduleId": "312"

  }

}
layer {
  name: "Pad: /model/Pad_5_to1d_1"
  type: "Pad"
  bottom: "/model/Pad_5_to1d_0:0"
  top: "/model/Pad_5_to1d_1:0"
    scale_param {
    "InputShapes": "64x12x10"
    "OutputShape": "64x12x12"
    "Quantize[mn,mx]": [0, 8.0]
    "QuantizeBits": 8
    "HasScratch": "true"
    
    "RuntimeMemory": "9.00KB"
    "ScheduleId": "313"

  }

}
layer {
  name: "Conv2D: /model/model_8_m_0_m_1_cv2_conv/layer/Conv"
  type: "Convolution"
  bottom: "/model/Pad_5_to1d_1:0"
  top: "/model/model_0_act_27/Mul_smr:0"
    scale_param {
    "InputShapes": "64x12x12, 64x64x3x3, 64"
    "OutputShape": "64x10x10"
    "Quantize[mn,mx]": [-16.0, 16.0]
    "QuantizeBits": 16
    "ConstInputs": "/model/model_8_m_0_m_1_cv2_conv/WeightsSymmetricQuantizer:0"
    "ConstInputs": "Variable.model.model_8_m_0_m_1_cv2_conv.layer.bias.uid30:0"
    "RuntimeMemory": "6.25KB"
    "ScheduleId": "314"

  }
  blobs {
    shape {
      dim: 64
      dim: 64
      dim: 3
      dim: 3
    }
  }
  blobs {
    shape {
      dim: 64
    }
  }
}
layer {
  name: "Swish: /model/model_0_act_27/Mul_smr"
  type: "Swish"
  bottom: "/model/model_0_act_27/Mul_smr:0"
  top: "/model/model_0_act_27/Mul_smr:0"
    scale_param {
    "InputShapes": "64x10x10"
    "OutputShape": "64x10x10"
    "Quantize[mn,mx]": [-16.0, 16.0]
    "QuantizeBits": 8
    "ConstInputs": "/model/model_8_m_0_m_1_cv2_conv/WeightsSymmetricQuantizer:0"
    "ConstInputs": "Variable.model.model_8_m_0_m_1_cv2_conv.layer.bias.uid30:0"
    "RuntimeMemory": "6.25KB"
    
  }

}
layer {
  name: "Add: /model/Add_14"
  type: "Add"
  bottom: "/model/Add_12:0"
  bottom: "/model/model_0_act_27/Mul_smr:0"
  top: "/model/Add_14:0"
    scale_param {
    "InputShapes": "64x10x10, 64x10x10"
    "OutputShape": "64x10x10"
    "Quantize[mn,mx]": [-32.0, 32.0]
    "QuantizeBits": 8
    
    "RuntimeMemory": "6.25KB"
    "ScheduleId": "315"

  }

}
layer {
  name: "Cast: Cast_to_/model/Concat_10_0"
  type: "Cast"
  bottom: "/model/Add_14:0"
  top: "Cast_to_/model/Concat_10_0:0"
    scale_param {
    "InputShapes": "64x10x10"
    "OutputShape": "64x10x10"
    "Quantize[mn,mx]": [-16.0, 16.0]
    "QuantizeBits": 8
    
    "RuntimeMemory": "6.25KB"
    "ScheduleId": "316"

  }

}
layer {
  name: "Concat: /model/Concat_10"
  type: "Concat"
  bottom: "/model/model_0_act_28/Mul_smr:0"
  bottom: "Cast_to_/model/Concat_10_0:0"
  top: "/model/Concat_10:0"
    scale_param {
    "InputShapes": "64x10x10, 64x10x10"
    "OutputShape": "128x10x10"
    "Quantize[mn,mx]": [-16.0, 16.0]
    "QuantizeBits": 8
    
    "RuntimeMemory": "12.50KB"
    "ScheduleId": "317"

  }

}
layer {
  name: "Conv2D: /model/model_8_m_0_cv3_conv/layer/Conv"
  type: "Convolution"
  bottom: "/model/Concat_10:0"
  top: "/model/model_0_act_29/Mul_smr:0"
    scale_param {
    "InputShapes": "128x10x10, 128x128x1x1, 128"
    "OutputShape": "128x10x10"
    "Quantize[mn,mx]": [-8.0, 8.0]
    "QuantizeBits": 16
    "ConstInputs": "/model/model_8_m_0_cv3_conv/WeightsSymmetricQuantizer:0"
    "ConstInputs": "Variable.model.model_8_m_0_cv3_conv.layer.bias.uid31:0"
    "RuntimeMemory": "12.50KB"
    "ScheduleId": "318"

  }
  blobs {
    shape {
      dim: 128
      dim: 128
      dim: 1
      dim: 1
    }
  }
  blobs {
    shape {
      dim: 128
    }
  }
}
layer {
  name: "Swish: /model/model_0_act_29/Mul_smr"
  type: "Swish"
  bottom: "/model/model_0_act_29/Mul_smr:0"
  top: "/model/model_0_act_29/Mul_smr:0"
    scale_param {
    "InputShapes": "128x10x10"
    "OutputShape": "128x10x10"
    "Quantize[mn,mx]": [-8.0, 8.0]
    "QuantizeBits": 8
    "ConstInputs": "/model/model_8_m_0_cv3_conv/WeightsSymmetricQuantizer:0"
    "ConstInputs": "Variable.model.model_8_m_0_cv3_conv.layer.bias.uid31:0"
    "RuntimeMemory": "12.50KB"
    
  }

}
layer {
  name: "Concat: /model/Concat_11"
  type: "Concat"
  bottom: "/model/model_0_act_29/Mul_smr:0"
  bottom: "transform-65-/model/Split_3sts0:0"
  bottom: "transform-66-/model/Split_3sts1:0"
  top: "/model/Concat_11:0"
    scale_param {
    "InputShapes": "128x10x10, 128x10x10, 128x10x10"
    "OutputShape": "384x10x10"
    "Quantize[mn,mx]": [-16.0, 16.0]
    "QuantizeBits": 8
    
    "RuntimeMemory": "37.50KB"
    "ScheduleId": "319"

  }

}
layer {
  name: "Conv2D: /model/model_8_cv2_conv/layer/Conv"
  type: "Convolution"
  bottom: "/model/Concat_11:0"
  top: "/model/model_0_act_30/Mul_smr:0"
    scale_param {
    "InputShapes": "384x10x10, 256x384x1x1, 256"
    "OutputShape": "256x10x10"
    "Quantize[mn,mx]": [-8.0, 8.0]
    "QuantizeBits": 16
    "ConstInputs": "/model/model_8_cv2_conv/WeightsSymmetricQuantizer:0"
    "ConstInputs": "Variable.model.model_8_cv2_conv.layer.bias.uid32:0"
    "RuntimeMemory": "25.00KB"
    "ScheduleId": "320"

  }
  blobs {
    shape {
      dim: 256
      dim: 384
      dim: 1
      dim: 1
    }
  }
  blobs {
    shape {
      dim: 256
    }
  }
}
layer {
  name: "Swish: /model/model_0_act_30/Mul_smr"
  type: "Swish"
  bottom: "/model/model_0_act_30/Mul_smr:0"
  top: "/model/model_0_act_30/Mul_smr:0"
    scale_param {
    "InputShapes": "256x10x10"
    "OutputShape": "256x10x10"
    "Quantize[mn,mx]": [0, 8.0]
    "QuantizeBits": 8
    "ConstInputs": "/model/model_8_cv2_conv/WeightsSymmetricQuantizer:0"
    "ConstInputs": "Variable.model.model_8_cv2_conv.layer.bias.uid32:0"
    "RuntimeMemory": "25.00KB"
    
  }

}
layer {
  name: "Conv2D: /model/model_9_cv1_conv/layer/Conv"
  type: "Convolution"
  bottom: "/model/model_0_act_30/Mul_smr:0"
  top: "/model/model_9_cv1_conv/layer/Conv:0"
    scale_param {
    "InputShapes": "256x10x10, 128x256x1x1, 128"
    "OutputShape": "128x10x10"
    "Quantize[mn,mx]": [-8.0, 8.0]
    "QuantizeBits": 8
    "ConstInputs": "/model/model_9_cv1_conv/WeightsSymmetricQuantizer:0"
    "ConstInputs": "Variable.model.model_9_cv1_conv.layer.bias.uid33:0"
    "RuntimeMemory": "12.50KB"
    "ScheduleId": "321"

  }
  blobs {
    shape {
      dim: 128
      dim: 256
      dim: 1
      dim: 1
    }
  }
  blobs {
    shape {
      dim: 128
    }
  }
}
layer {
  name: "MaxPool: /model/model_9_m/MaxPool"
  type: "MaxPool"
  bottom: "/model/model_9_cv1_conv/layer/Conv:0"
  top: "/model/model_9_m/MaxPool:0"
    scale_param {
    "InputShapes": "128x10x10"
    "OutputShape": "128x10x10"
    "Quantize[mn,mx]": [-8.0, 8.0]
    "QuantizeBits": 8
    
    "RuntimeMemory": "12.50KB"
    "ScheduleId": "322"

  }

}
layer {
  name: "MaxPool: /model/model_9_m_1/MaxPool"
  type: "MaxPool"
  bottom: "/model/model_9_m/MaxPool:0"
  top: "/model/model_9_m_1/MaxPool:0"
    scale_param {
    "InputShapes": "128x10x10"
    "OutputShape": "128x10x10"
    "Quantize[mn,mx]": [-8.0, 8.0]
    "QuantizeBits": 8
    
    "RuntimeMemory": "12.50KB"
    "ScheduleId": "323"

  }

}
layer {
  name: "MaxPool: /model/model_9_m_2/MaxPool"
  type: "MaxPool"
  bottom: "/model/model_9_m_1/MaxPool:0"
  top: "/model/model_9_m_2/MaxPool:0"
    scale_param {
    "InputShapes": "128x10x10"
    "OutputShape": "128x10x10"
    "Quantize[mn,mx]": [-8.0, 8.0]
    "QuantizeBits": 8
    
    "RuntimeMemory": "12.50KB"
    "ScheduleId": "324"

  }

}
layer {
  name: "Concat: /model/Concat_12"
  type: "Concat"
  bottom: "/model/model_9_cv1_conv/layer/Conv:0"
  bottom: "/model/model_9_m/MaxPool:0"
  bottom: "/model/model_9_m_1/MaxPool:0"
  bottom: "/model/model_9_m_2/MaxPool:0"
  top: "/model/Concat_12:0"
    scale_param {
    "InputShapes": "128x10x10, 128x10x10, 128x10x10, 128x10x10"
    "OutputShape": "512x10x10"
    "Quantize[mn,mx]": [-8.0, 8.0]
    "QuantizeBits": 8
    
    "RuntimeMemory": "50.00KB"
    "ScheduleId": "325"

  }

}
layer {
  name: "Conv2D: /model/model_9_cv2_conv/layer/Conv"
  type: "Convolution"
  bottom: "/model/Concat_12:0"
  top: "/model/model_0_act_31/Mul_smr:0"
    scale_param {
    "InputShapes": "512x10x10, 256x512x1x1, 256"
    "OutputShape": "256x10x10"
    "Quantize[mn,mx]": [-8.0, 8.0]
    "QuantizeBits": 16
    "ConstInputs": "/model/model_9_cv2_conv/WeightsSymmetricQuantizer:0"
    "ConstInputs": "Variable.model.model_9_cv2_conv.layer.bias.uid34:0"
    "RuntimeMemory": "25.00KB"
    "ScheduleId": "326"

  }
  blobs {
    shape {
      dim: 256
      dim: 512
      dim: 1
      dim: 1
    }
  }
  blobs {
    shape {
      dim: 256
    }
  }
}
layer {
  name: "Swish: /model/model_0_act_31/Mul_smr"
  type: "Swish"
  bottom: "/model/model_0_act_31/Mul_smr:0"
  top: "/model/model_0_act_31/Mul_smr:0"
    scale_param {
    "InputShapes": "256x10x10"
    "OutputShape": "256x10x10"
    "Quantize[mn,mx]": [-4.0, 4.0]
    "QuantizeBits": 8
    "ConstInputs": "/model/model_9_cv2_conv/WeightsSymmetricQuantizer:0"
    "ConstInputs": "Variable.model.model_9_cv2_conv.layer.bias.uid34:0"
    "RuntimeMemory": "25.00KB"
    
  }

}
layer {
  name: "Conv2D: /model/model_10_cv1_conv/layer/Conv"
  type: "Convolution"
  bottom: "/model/model_0_act_31/Mul_smr:0"
  top: "/model/model_0_act_32/Mul_smr:0"
    scale_param {
    "InputShapes": "256x10x10, 256x256x1x1, 256"
    "OutputShape": "256x10x10"
    "Quantize[mn,mx]": [-8.0, 8.0]
    "QuantizeBits": 16
    "ConstInputs": "/model/model_10_cv1_conv/WeightsSymmetricQuantizer:0"
    "ConstInputs": "Variable.model.model_10_cv1_conv.layer.bias.uid35:0"
    "RuntimeMemory": "25.00KB"
    "ScheduleId": "327"

  }
  blobs {
    shape {
      dim: 256
      dim: 256
      dim: 1
      dim: 1
    }
  }
  blobs {
    shape {
      dim: 256
    }
  }
}
layer {
  name: "Swish: /model/model_0_act_32/Mul_smr"
  type: "Swish"
  bottom: "/model/model_0_act_32/Mul_smr:0"
  top: "/model/model_0_act_32/Mul_smr:0"
    scale_param {
    "InputShapes": "256x10x10"
    "OutputShape": "256x10x10"
    "Quantize[mn,mx]": [-8.0, 8.0]
    "QuantizeBits": 8
    "ConstInputs": "/model/model_10_cv1_conv/WeightsSymmetricQuantizer:0"
    "ConstInputs": "Variable.model.model_10_cv1_conv.layer.bias.uid35:0"
    "RuntimeMemory": "25.00KB"
    
  }

}
layer {
  name: "Transform: transform-63-(F)/model/model_10_cv1_conv/layer/Conv"
  type: "Transform"
  bottom: "/model/model_0_act_32/Mul_smr:0"
  top: "transform-63-(F)/model/model_10_cv1_conv/layer/Conv:0"
    scale_param {
    "InputShapes": "256x10x10"
    "OutputShape": "256x10x10"
    "Quantize[mn,mx]": [-8.0, 8.0]
    "QuantizeBits": 8
    
    "RuntimeMemory": "80.00KB"
    "ScheduleId": "328"

  }

}
layer {
  name: "Transform: transform-64-(F)/model/model_10_cv1_conv/layer/Conv"
  type: "Transform"
  bottom: "/model/model_0_act_32/Mul_smr:0"
  top: "transform-64-(F)/model/model_10_cv1_conv/layer/Conv:0"
    scale_param {
    "InputShapes": "256x10x10"
    "OutputShape": "256x10x10"
    "Quantize[mn,mx]": [-8.0, 8.0]
    "QuantizeBits": 8
    
    "RuntimeMemory": "80.00KB"
    "ScheduleId": "331"

  }

}
layer {
  name: "StrideSlice: /model/Split_4sts0"
  type: "StrideSlice"
  bottom: "transform-63-(F)/model/model_10_cv1_conv/layer/Conv:0"
  top: "/model/Split_4sts0:0"
    scale_param {
    "InputShapes": "256x10x10"
    "OutputShape": "128x10x10"
    "Quantize[mn,mx]": [-8.0, 8.0]
    "QuantizeBits": 8
    
    "RuntimeMemory": "40.00KB"
    "ScheduleId": "329"

  }

}
layer {
  name: "StrideSlice: /model/Split_4sts1"
  type: "StrideSlice"
  bottom: "transform-64-(F)/model/model_10_cv1_conv/layer/Conv:0"
  top: "/model/Split_4sts1:0"
    scale_param {
    "InputShapes": "256x10x10"
    "OutputShape": "128x10x10"
    "Quantize[mn,mx]": [-8.0, 8.0]
    "QuantizeBits": 8
    
    "RuntimeMemory": "40.00KB"
    "ScheduleId": "332"

  }

}
layer {
  name: "Transform: transform-41-/model/Split_4sts0"
  type: "Transform"
  bottom: "/model/Split_4sts0:0"
  top: "transform-41-/model/Split_4sts0:0"
    scale_param {
    "InputShapes": "128x10x10"
    "OutputShape": "128x10x10"
    "Quantize[mn,mx]": [-8.0, 8.0]
    "QuantizeBits": 8
    
    "RuntimeMemory": "12.50KB"
    "ScheduleId": "330"

  }

}
layer {
  name: "Transform: transform-42-/model/Split_4sts1"
  type: "Transform"
  bottom: "/model/Split_4sts1:0"
  top: "transform-42-/model/Split_4sts1:0"
    scale_param {
    "InputShapes": "128x10x10"
    "OutputShape": "128x10x10"
    "Quantize[mn,mx]": [-8.0, 8.0]
    "QuantizeBits": 8
    
    "RuntimeMemory": "12.50KB"
    "ScheduleId": "333"

  }

}
layer {
  name: "Transform: transform-62-/model/Split_4sts1"
  type: "Transform"
  bottom: "/model/Split_4sts1:0"
  top: "transform-62-/model/Split_4sts1:0"
    scale_param {
    "InputShapes": "128x10x10"
    "OutputShape": "128x10x10"
    "Quantize[mn,mx]": [-8.0, 8.0]
    "QuantizeBits": 8
    
    "RuntimeMemory": "12.50KB"
    "ScheduleId": "334"

  }

}
layer {
  name: "Conv2D: /model/model_10_m_0_attn_qkv_conv/layer/Conv"
  type: "Convolution"
  bottom: "transform-62-/model/Split_4sts1:0"
  top: "/model/model_10_m_0_attn_qkv_conv/layer/Conv:0"
    scale_param {
    "InputShapes": "128x10x10, 256x128x1x1, 256"
    "OutputShape": "256x10x10"
    "Quantize[mn,mx]": [-8.0, 8.0]
    "QuantizeBits": 8
    "ConstInputs": "/model/model_10_m_0_attn_qkv_conv/WeightsSymmetricQuantizer:0"
    "ConstInputs": "Variable.model.model_10_m_0_attn_qkv_conv.layer.bias.uid36:0"
    "RuntimeMemory": "25.00KB"
    "ScheduleId": "335"

  }
  blobs {
    shape {
      dim: 256
      dim: 128
      dim: 1
      dim: 1
    }
  }
  blobs {
    shape {
      dim: 256
    }
  }
}
layer {
  name: "Transform: transform-61-/model/model_10_m_0_attn_qkv_conv/layer/Conv"
  type: "Transform"
  bottom: "/model/model_10_m_0_attn_qkv_conv/layer/Conv:0"
  top: "transform-61-/model/model_10_m_0_attn_qkv_conv/layer/Conv:0"
    scale_param {
    "InputShapes": "256x10x10"
    "OutputShape": "256x10x10"
    "Quantize[mn,mx]": [-8.0, 8.0]
    "QuantizeBits": 8
    
    "RuntimeMemory": "80.00KB"
    "ScheduleId": "336"

  }

}
layer {
  name: "Reshape: /model/Reshape_12"
  type: "Reshape"
  bottom: "transform-61-/model/model_10_m_0_attn_qkv_conv/layer/Conv:0"
  top: "/model/Reshape_12:0"
    scale_param {
    "InputShapes": "256x10x10"
    "OutputShape": "2x128x100"
    "Quantize[mn,mx]": [-8.0, 8.0]
    "QuantizeBits": 8
    "HasScratch": "true"
    
    "RuntimeMemory": "32.00KB"
    "ScheduleId": "337"

  }

}
layer {
  name: "StrideSlice: /model/Split_5sts2"
  type: "StrideSlice"
  bottom: "/model/Reshape_12:0"
  top: "/model/Split_5sts2:0"
    scale_param {
    "InputShapes": "2x128x100"
    "OutputShape": "2x64x100"
    "Quantize[mn,mx]": [-8.0, 8.0]
    "QuantizeBits": 8
    
    "RuntimeMemory": "16.00KB"
    "ScheduleId": "340"

  }

}
layer {
  name: "StrideSlice: /model/Split_5sts1"
  type: "StrideSlice"
  bottom: "/model/Reshape_12:0"
  top: "/model/Split_5sts1:0"
    scale_param {
    "InputShapes": "2x128x100"
    "OutputShape": "2x32x100"
    "Quantize[mn,mx]": [-8.0, 8.0]
    "QuantizeBits": 8
    
    "RuntimeMemory": "8.00KB"
    "ScheduleId": "339"

  }

}
layer {
  name: "StrideSlice: /model/Split_5sts0"
  type: "StrideSlice"
  bottom: "/model/Reshape_12:0"
  top: "/model/Split_5sts0:0"
    scale_param {
    "InputShapes": "2x128x100"
    "OutputShape": "2x32x100"
    "Quantize[mn,mx]": [-8.0, 8.0]
    "QuantizeBits": 8
    
    "RuntimeMemory": "8.00KB"
    "ScheduleId": "338"

  }

}
layer {
  name: "Reshape: /model/Reshape_13"
  type: "Reshape"
  bottom: "/model/Split_5sts2:0"
  top: "/model/Reshape_13:0"
    scale_param {
    "InputShapes": "2x64x100"
    "OutputShape": "128x10x10"
    "Quantize[mn,mx]": [-8.0, 8.0]
    "QuantizeBits": 8
    "HasScratch": "true"
    
    "RuntimeMemory": "40.00KB"
    "ScheduleId": "341"

  }

}
layer {
  name: "StrideSlice: /model/Split_7sts1"
  type: "StrideSlice"
  bottom: "/model/Split_5sts2:0"
  top: "/model/Split_7sts1:0"
    scale_param {
    "InputShapes": "2x64x100"
    "OutputShape": "1x64x100"
    "Quantize[mn,mx]": [-8.0, 8.0]
    "QuantizeBits": 8
    
    "RuntimeMemory": "8.00KB"
    "ScheduleId": "345"

  }

}
layer {
  name: "StrideSlice: /model/Split_7sts0"
  type: "StrideSlice"
  bottom: "/model/Split_5sts2:0"
  top: "/model/Split_7sts0:0"
    scale_param {
    "InputShapes": "2x64x100"
    "OutputShape": "1x64x100"
    "Quantize[mn,mx]": [-8.0, 8.0]
    "QuantizeBits": 8
    
    "RuntimeMemory": "8.00KB"
    "ScheduleId": "344"

  }

}
layer {
  name: "StrideSlice: /model/Split_6sts1"
  type: "StrideSlice"
  bottom: "/model/Split_5sts1:0"
  top: "/model/Split_6sts1:0"
    scale_param {
    "InputShapes": "2x32x100"
    "OutputShape": "1x32x100"
    "Quantize[mn,mx]": [-8.0, 8.0]
    "QuantizeBits": 8
    
    "RuntimeMemory": "4.00KB"
    "ScheduleId": "343"

  }

}
layer {
  name: "StrideSlice: /model/Split_6sts0"
  type: "StrideSlice"
  bottom: "/model/Split_5sts1:0"
  top: "/model/Split_6sts0:0"
    scale_param {
    "InputShapes": "2x32x100"
    "OutputShape": "1x32x100"
    "Quantize[mn,mx]": [-8.0, 8.0]
    "QuantizeBits": 8
    
    "RuntimeMemory": "4.00KB"
    "ScheduleId": "342"

  }

}
layer {
  name: "Transform: transform-60-/model/Split_5sts0"
  type: "Transform"
  bottom: "/model/Split_5sts0:0"
  top: "transform-60-/model/Split_5sts0:0"
    scale_param {
    "InputShapes": "2x32x100"
    "OutputShape": "2x32x100"
    "Quantize[mn,mx]": [-8.0, 8.0]
    "QuantizeBits": 8
    
    "RuntimeMemory": "8.00KB"
    "ScheduleId": "357"

  }

}
layer {
  name: "Transform: transform-43-/model/Reshape_13"
  type: "Transform"
  bottom: "/model/Reshape_13:0"
  top: "transform-43-/model/Reshape_13:0"
    scale_param {
    "InputShapes": "128x10x10"
    "OutputShape": "128x10x10"
    "Quantize[mn,mx]": [-8.0, 8.0]
    "QuantizeBits": 8
    
    "RuntimeMemory": "12.50KB"
    "ScheduleId": "350"

  }

}
layer {
  name: "Squeeze: /model/Squeeze_3"
  type: "Squeeze"
  bottom: "/model/Split_7sts1:0"
  top: "/model/Squeeze_3:0"
    scale_param {
    "InputShapes": "1x64x100"
    "OutputShape": "64x100"
    "Quantize[mn,mx]": [-8.0, 8.0]
    "QuantizeBits": 8
    
    "RuntimeMemory": "8.00KB"
    "ScheduleId": "349"

  }

}
layer {
  name: "Squeeze: /model/Squeeze_2"
  type: "Squeeze"
  bottom: "/model/Split_7sts0:0"
  top: "/model/Squeeze_2:0"
    scale_param {
    "InputShapes": "1x64x100"
    "OutputShape": "64x100"
    "Quantize[mn,mx]": [-8.0, 8.0]
    "QuantizeBits": 8
    
    "RuntimeMemory": "8.00KB"
    "ScheduleId": "348"

  }

}
layer {
  name: "Squeeze: /model/Squeeze_1"
  type: "Squeeze"
  bottom: "/model/Split_6sts1:0"
  top: "/model/Squeeze_1:0"
    scale_param {
    "InputShapes": "1x32x100"
    "OutputShape": "32x100"
    "Quantize[mn,mx]": [-8.0, 8.0]
    "QuantizeBits": 8
    
    "RuntimeMemory": "4.00KB"
    "ScheduleId": "347"

  }

}
layer {
  name: "Squeeze: /model/Squeeze"
  type: "Squeeze"
  bottom: "/model/Split_6sts0:0"
  top: "/model/Squeeze:0"
    scale_param {
    "InputShapes": "1x32x100"
    "OutputShape": "32x100"
    "Quantize[mn,mx]": [-8.0, 8.0]
    "QuantizeBits": 8
    
    "RuntimeMemory": "4.00KB"
    "ScheduleId": "346"

  }

}
layer {
  name: "Transpose: /model/Transpose_6"
  type: "Transpose"
  bottom: "transform-60-/model/Split_5sts0:0"
  top: "/model/Transpose_6:0"
    scale_param {
    "InputShapes": "2x32x100"
    "OutputShape": "2x100x32"
    "Quantize[mn,mx]": [-8.0, 8.0]
    "QuantizeBits": 8
    
    "RuntimeMemory": "8.00KB"
    "ScheduleId": "358"

  }

}
layer {
  name: "Transform: transform-48-/model/Squeeze_3"
  type: "Transform"
  bottom: "/model/Squeeze_3:0"
  top: "transform-48-/model/Squeeze_3:0"
    scale_param {
    "InputShapes": "64x100"
    "OutputShape": "64x100"
    "Quantize[mn,mx]": [-8.0, 8.0]
    "QuantizeBits": 8
    
    "RuntimeMemory": "8.00KB"
    "ScheduleId": "351"

  }

}
layer {
  name: "Transform: transform-50-/model/Squeeze_2"
  type: "Transform"
  bottom: "/model/Squeeze_2:0"
  top: "transform-50-/model/Squeeze_2:0"
    scale_param {
    "InputShapes": "64x100"
    "OutputShape": "64x100"
    "Quantize[mn,mx]": [-8.0, 8.0]
    "QuantizeBits": 8
    
    "RuntimeMemory": "8.00KB"
    "ScheduleId": "352"

  }

}
layer {
  name: "Transform: transform-57-/model/Squeeze_1"
  type: "Transform"
  bottom: "/model/Squeeze_1:0"
  top: "transform-57-/model/Squeeze_1:0"
    scale_param {
    "InputShapes": "32x100"
    "OutputShape": "32x100"
    "Quantize[mn,mx]": [-8.0, 8.0]
    "QuantizeBits": 8
    
    "RuntimeMemory": "3.13KB"
    "ScheduleId": "353"

  }

}
layer {
  name: "Transform: transform-59-/model/Squeeze"
  type: "Transform"
  bottom: "/model/Squeeze:0"
  top: "transform-59-/model/Squeeze:0"
    scale_param {
    "InputShapes": "32x100"
    "OutputShape": "32x100"
    "Quantize[mn,mx]": [-8.0, 8.0]
    "QuantizeBits": 8
    
    "RuntimeMemory": "3.13KB"
    "ScheduleId": "355"

  }

}
layer {
  name: "StrideSlice: /model/Split_8sts1"
  type: "StrideSlice"
  bottom: "/model/Transpose_6:0"
  top: "/model/Split_8sts1:0"
    scale_param {
    "InputShapes": "2x100x32"
    "OutputShape": "1x100x32"
    "Quantize[mn,mx]": [-8.0, 8.0]
    "QuantizeBits": 8
    
    "RuntimeMemory": "4.00KB"
    "ScheduleId": "360"

  }

}
layer {
  name: "StrideSlice: /model/Split_8sts0"
  type: "StrideSlice"
  bottom: "/model/Transpose_6:0"
  top: "/model/Split_8sts0:0"
    scale_param {
    "InputShapes": "2x100x32"
    "OutputShape": "1x100x32"
    "Quantize[mn,mx]": [-8.0, 8.0]
    "QuantizeBits": 8
    
    "RuntimeMemory": "4.00KB"
    "ScheduleId": "359"

  }

}
layer {
  name: "Transform: transform-57-0-/model/Squeeze_1"
  type: "Transform"
  bottom: "transform-57-/model/Squeeze_1:0"
  top: "transform-57-0-/model/Squeeze_1:0"
    scale_param {
    "InputShapes": "32x100"
    "OutputShape": "32x100"
    "Quantize[mn,mx]": [-8.0, 8.0]
    "QuantizeBits": 8
    
    "RuntimeMemory": "4.00KB"
    "ScheduleId": "354"

  }

}
layer {
  name: "Transform: transform-59-0-/model/Squeeze"
  type: "Transform"
  bottom: "transform-59-/model/Squeeze:0"
  top: "transform-59-0-/model/Squeeze:0"
    scale_param {
    "InputShapes": "32x100"
    "OutputShape": "32x100"
    "Quantize[mn,mx]": [-8.0, 8.0]
    "QuantizeBits": 8
    
    "RuntimeMemory": "4.00KB"
    "ScheduleId": "356"

  }

}
layer {
  name: "Squeeze: /model/Squeeze_5"
  type: "Squeeze"
  bottom: "/model/Split_8sts1:0"
  top: "/model/Squeeze_5:0"
    scale_param {
    "InputShapes": "1x100x32"
    "OutputShape": "100x32"
    "Quantize[mn,mx]": [-8.0, 8.0]
    "QuantizeBits": 8
    
    "RuntimeMemory": "4.00KB"
    "ScheduleId": "362"

  }

}
layer {
  name: "Squeeze: /model/Squeeze_4"
  type: "Squeeze"
  bottom: "/model/Split_8sts0:0"
  top: "/model/Squeeze_4:0"
    scale_param {
    "InputShapes": "1x100x32"
    "OutputShape": "100x32"
    "Quantize[mn,mx]": [-8.0, 8.0]
    "QuantizeBits": 8
    
    "RuntimeMemory": "4.00KB"
    "ScheduleId": "361"

  }

}
layer {
  name: "Transform: transform-56-/model/Squeeze_5"
  type: "Transform"
  bottom: "/model/Squeeze_5:0"
  top: "transform-56-/model/Squeeze_5:0"
    scale_param {
    "InputShapes": "100x32"
    "OutputShape": "100x32"
    "Quantize[mn,mx]": [-8.0, 8.0]
    "QuantizeBits": 8
    
    "RuntimeMemory": "3.13KB"
    "ScheduleId": "363"

  }

}
layer {
  name: "Transform: transform-58-/model/Squeeze_4"
  type: "Transform"
  bottom: "/model/Squeeze_4:0"
  top: "transform-58-/model/Squeeze_4:0"
    scale_param {
    "InputShapes": "100x32"
    "OutputShape": "100x32"
    "Quantize[mn,mx]": [-8.0, 8.0]
    "QuantizeBits": 8
    
    "RuntimeMemory": "3.13KB"
    "ScheduleId": "367"

  }

}
layer {
  name: "MatMul: /model/MatMul_1"
  type: "MatMul"
  bottom: "transform-56-/model/Squeeze_5:0"
  bottom: "transform-57-0-/model/Squeeze_1:0"
  top: "/model/MatMul_1:0"
    scale_param {
    "InputShapes": "100x32, 32x100"
    "OutputShape": "100x100"
    "Quantize[mn,mx]": [-128.0, 128.0]
    "QuantizeBits": 8
    "HasScratch": "true"
    
    "RuntimeMemory": "12.50KB"
    "ScheduleId": "364"

  }

}
layer {
  name: "MatMul: /model/MatMul"
  type: "MatMul"
  bottom: "transform-58-/model/Squeeze_4:0"
  bottom: "transform-59-0-/model/Squeeze:0"
  top: "/model/MatMul:0"
    scale_param {
    "InputShapes": "100x32, 32x100"
    "OutputShape": "100x100"
    "Quantize[mn,mx]": [-256.0, 256.0]
    "QuantizeBits": 8
    "HasScratch": "true"
    
    "RuntimeMemory": "12.50KB"
    "ScheduleId": "368"

  }

}
layer {
  name: "Reshape: /model/Unsqueeze_1_reshaped"
  type: "Reshape"
  bottom: "/model/MatMul_1:0"
  top: "/model/Unsqueeze_1_reshaped:0"
    scale_param {
    "InputShapes": "100x100"
    "OutputShape": "1x100x100"
    "Quantize[mn,mx]": [-128.0, 128.0]
    "QuantizeBits": 8
    "HasScratch": "true"
    
    "RuntimeMemory": "12.50KB"
    "ScheduleId": "365"

  }

}
layer {
  name: "Reshape: /model/Unsqueeze_reshaped"
  type: "Reshape"
  bottom: "/model/MatMul:0"
  top: "/model/Unsqueeze_reshaped:0"
    scale_param {
    "InputShapes": "100x100"
    "OutputShape": "1x100x100"
    "Quantize[mn,mx]": [-256.0, 256.0]
    "QuantizeBits": 8
    "HasScratch": "true"
    
    "RuntimeMemory": "12.50KB"
    "ScheduleId": "369"

  }

}
layer {
  name: "Transform: transform-55-/model/Unsqueeze_1_reshaped"
  type: "Transform"
  bottom: "/model/Unsqueeze_1_reshaped:0"
  top: "transform-55-/model/Unsqueeze_1_reshaped:0"
    scale_param {
    "InputShapes": "1x100x100"
    "OutputShape": "1x100x100"
    "Quantize[mn,mx]": [-128.0, 128.0]
    "QuantizeBits": 8
    
    "RuntimeMemory": "12.50KB"
    "ScheduleId": "366"

  }

}
layer {
  name: "Transform: transform-54-/model/Unsqueeze_reshaped"
  type: "Transform"
  bottom: "/model/Unsqueeze_reshaped:0"
  top: "transform-54-/model/Unsqueeze_reshaped:0"
    scale_param {
    "InputShapes": "1x100x100"
    "OutputShape": "1x100x100"
    "Quantize[mn,mx]": [-256.0, 256.0]
    "QuantizeBits": 8
    
    "RuntimeMemory": "12.50KB"
    "ScheduleId": "370"

  }

}
layer {
  name: "Concat: /model/Concat_13"
  type: "Concat"
  bottom: "transform-54-/model/Unsqueeze_reshaped:0"
  bottom: "transform-55-/model/Unsqueeze_1_reshaped:0"
  top: "/model/Concat_13:0"
    scale_param {
    "InputShapes": "1x100x100, 1x100x100"
    "OutputShape": "2x100x100"
    "Quantize[mn,mx]": [-256.0, 256.0]
    "QuantizeBits": 8
    
    "RuntimeMemory": "25.00KB"
    "ScheduleId": "371"

  }

}
layer {
  name: "Mul: /model/Mul"
  type: "Mul"
  bottom: "/model/Concat_13:0"
  top: "/model/Mul:0"
    scale_param {
    "InputShapes": "2x100x100, 1x1x1"
    "OutputShape": "2x100x100"
    "Quantize[mn,mx]": [-64.0, 64.0]
    "QuantizeBits": 8
    "ConstInputs": "/model/Constant_77:0"
    "RuntimeMemory": "25.00KB"
    "ScheduleId": "372"

  }
  blobs {
    shape {
      dim: 1
      dim: 1
      dim: 1
    }
  }
}
layer {
  name: "Transform: transform-53-/model/Mul"
  type: "Transform"
  bottom: "/model/Mul:0"
  top: "transform-53-/model/Mul:0"
    scale_param {
    "InputShapes": "2x100x100"
    "OutputShape": "2x100x100"
    "Quantize[mn,mx]": [-64.0, 64.0]
    "QuantizeBits": 8
    
    "RuntimeMemory": "25.00KB"
    "ScheduleId": "373"

  }

}
layer {
  name: "Softmax: /model/Softmax"
  type: "Softmax"
  bottom: "transform-53-/model/Mul:0"
  top: "/model/Softmax:0"
    scale_param {
    "InputShapes": "2x100x100"
    "OutputShape": "2x100x100"
    "Quantize[mn,mx]": [0, 1.0]
    "QuantizeBits": 8
    
    "RuntimeMemory": "25.00KB"
    "ScheduleId": "374"

  }

}
layer {
  name: "Transform: transform-52-/model/Softmax"
  type: "Transform"
  bottom: "/model/Softmax:0"
  top: "transform-52-/model/Softmax:0"
    scale_param {
    "InputShapes": "2x100x100"
    "OutputShape": "2x100x100"
    "Quantize[mn,mx]": [0, 1.0]
    "QuantizeBits": 8
    
    "RuntimeMemory": "25.00KB"
    "ScheduleId": "375"

  }

}
layer {
  name: "Transpose: /model/Transpose_7"
  type: "Transpose"
  bottom: "transform-52-/model/Softmax:0"
  top: "/model/Transpose_7:0"
    scale_param {
    "InputShapes": "2x100x100"
    "OutputShape": "2x100x100"
    "Quantize[mn,mx]": [0, 1.0]
    "QuantizeBits": 8
    
    "RuntimeMemory": "25.00KB"
    "ScheduleId": "376"

  }

}
layer {
  name: "StrideSlice: /model/Split_9sts1"
  type: "StrideSlice"
  bottom: "/model/Transpose_7:0"
  top: "/model/Split_9sts1:0"
    scale_param {
    "InputShapes": "2x100x100"
    "OutputShape": "1x100x100"
    "Quantize[mn,mx]": [0, 1.0]
    "QuantizeBits": 8
    
    "RuntimeMemory": "12.50KB"
    "ScheduleId": "378"

  }

}
layer {
  name: "StrideSlice: /model/Split_9sts0"
  type: "StrideSlice"
  bottom: "/model/Transpose_7:0"
  top: "/model/Split_9sts0:0"
    scale_param {
    "InputShapes": "2x100x100"
    "OutputShape": "1x100x100"
    "Quantize[mn,mx]": [0, 1.0]
    "QuantizeBits": 8
    
    "RuntimeMemory": "12.50KB"
    "ScheduleId": "377"

  }

}
layer {
  name: "Squeeze: /model/Squeeze_7"
  type: "Squeeze"
  bottom: "/model/Split_9sts1:0"
  top: "/model/Squeeze_7:0"
    scale_param {
    "InputShapes": "1x100x100"
    "OutputShape": "100x100"
    "Quantize[mn,mx]": [0, 1.0]
    "QuantizeBits": 8
    
    "RuntimeMemory": "12.50KB"
    "ScheduleId": "380"

  }

}
layer {
  name: "Squeeze: /model/Squeeze_6"
  type: "Squeeze"
  bottom: "/model/Split_9sts0:0"
  top: "/model/Squeeze_6:0"
    scale_param {
    "InputShapes": "1x100x100"
    "OutputShape": "100x100"
    "Quantize[mn,mx]": [0, 1.0]
    "QuantizeBits": 8
    
    "RuntimeMemory": "12.50KB"
    "ScheduleId": "379"

  }

}
layer {
  name: "Transform: transform-49-/model/Squeeze_7"
  type: "Transform"
  bottom: "/model/Squeeze_7:0"
  top: "transform-49-/model/Squeeze_7:0"
    scale_param {
    "InputShapes": "100x100"
    "OutputShape": "100x100"
    "Quantize[mn,mx]": [0, 1.0]
    "QuantizeBits": 8
    
    "RuntimeMemory": "12.50KB"
    "ScheduleId": "381"

  }

}
layer {
  name: "Transform: transform-51-/model/Squeeze_6"
  type: "Transform"
  bottom: "/model/Squeeze_6:0"
  top: "transform-51-/model/Squeeze_6:0"
    scale_param {
    "InputShapes": "100x100"
    "OutputShape": "100x100"
    "Quantize[mn,mx]": [0, 1.0]
    "QuantizeBits": 8
    
    "RuntimeMemory": "12.50KB"
    "ScheduleId": "386"

  }

}
layer {
  name: "Transform: transform-49-0-/model/Squeeze_7"
  type: "Transform"
  bottom: "transform-49-/model/Squeeze_7:0"
  top: "transform-49-0-/model/Squeeze_7:0"
    scale_param {
    "InputShapes": "100x100"
    "OutputShape": "100x100"
    "Quantize[mn,mx]": [0, 1.0]
    "QuantizeBits": 8
    
    "RuntimeMemory": "16.00KB"
    "ScheduleId": "382"

  }

}
layer {
  name: "Transform: transform-51-0-/model/Squeeze_6"
  type: "Transform"
  bottom: "transform-51-/model/Squeeze_6:0"
  top: "transform-51-0-/model/Squeeze_6:0"
    scale_param {
    "InputShapes": "100x100"
    "OutputShape": "100x100"
    "Quantize[mn,mx]": [0, 1.0]
    "QuantizeBits": 8
    
    "RuntimeMemory": "16.00KB"
    "ScheduleId": "387"

  }

}
layer {
  name: "MatMul: /model/MatMul_3"
  type: "MatMul"
  bottom: "transform-48-/model/Squeeze_3:0"
  bottom: "transform-49-0-/model/Squeeze_7:0"
  top: "/model/MatMul_3:0"
    scale_param {
    "InputShapes": "64x100, 100x100"
    "OutputShape": "64x100"
    "Quantize[mn,mx]": [-16.0, 16.0]
    "QuantizeBits": 8
    "HasScratch": "true"
    
    "RuntimeMemory": "8.00KB"
    "ScheduleId": "383"

  }

}
layer {
  name: "MatMul: /model/MatMul_2"
  type: "MatMul"
  bottom: "transform-50-/model/Squeeze_2:0"
  bottom: "transform-51-0-/model/Squeeze_6:0"
  top: "/model/MatMul_2:0"
    scale_param {
    "InputShapes": "64x100, 100x100"
    "OutputShape": "64x100"
    "Quantize[mn,mx]": [-8.0, 8.0]
    "QuantizeBits": 8
    "HasScratch": "true"
    
    "RuntimeMemory": "8.00KB"
    "ScheduleId": "388"

  }

}
layer {
  name: "Reshape: /model/Unsqueeze_3_reshaped"
  type: "Reshape"
  bottom: "/model/MatMul_3:0"
  top: "/model/Unsqueeze_3_reshaped:0"
    scale_param {
    "InputShapes": "64x100"
    "OutputShape": "1x64x100"
    "Quantize[mn,mx]": [-16.0, 16.0]
    "QuantizeBits": 8
    "HasScratch": "true"
    
    "RuntimeMemory": "8.00KB"
    "ScheduleId": "384"

  }

}
layer {
  name: "Reshape: /model/Unsqueeze_2_reshaped"
  type: "Reshape"
  bottom: "/model/MatMul_2:0"
  top: "/model/Unsqueeze_2_reshaped:0"
    scale_param {
    "InputShapes": "64x100"
    "OutputShape": "1x64x100"
    "Quantize[mn,mx]": [-8.0, 8.0]
    "QuantizeBits": 8
    "HasScratch": "true"
    
    "RuntimeMemory": "8.00KB"
    "ScheduleId": "389"

  }

}
layer {
  name: "Transform: transform-47-/model/Unsqueeze_3_reshaped"
  type: "Transform"
  bottom: "/model/Unsqueeze_3_reshaped:0"
  top: "transform-47-/model/Unsqueeze_3_reshaped:0"
    scale_param {
    "InputShapes": "1x64x100"
    "OutputShape": "1x64x100"
    "Quantize[mn,mx]": [-16.0, 16.0]
    "QuantizeBits": 8
    
    "RuntimeMemory": "6.25KB"
    "ScheduleId": "385"

  }

}
layer {
  name: "Transform: transform-46-/model/Unsqueeze_2_reshaped"
  type: "Transform"
  bottom: "/model/Unsqueeze_2_reshaped:0"
  top: "transform-46-/model/Unsqueeze_2_reshaped:0"
    scale_param {
    "InputShapes": "1x64x100"
    "OutputShape": "1x64x100"
    "Quantize[mn,mx]": [-8.0, 8.0]
    "QuantizeBits": 8
    
    "RuntimeMemory": "6.25KB"
    "ScheduleId": "390"

  }

}
layer {
  name: "Concat: /model/Concat_14"
  type: "Concat"
  bottom: "transform-46-/model/Unsqueeze_2_reshaped:0"
  bottom: "transform-47-/model/Unsqueeze_3_reshaped:0"
  top: "/model/Concat_14:0"
    scale_param {
    "InputShapes": "1x64x100, 1x64x100"
    "OutputShape": "2x64x100"
    "Quantize[mn,mx]": [-16.0, 16.0]
    "QuantizeBits": 8
    
    "RuntimeMemory": "12.50KB"
    "ScheduleId": "391"

  }

}
layer {
  name: "Transform: transform-45-/model/Concat_14"
  type: "Transform"
  bottom: "/model/Concat_14:0"
  top: "transform-45-/model/Concat_14:0"
    scale_param {
    "InputShapes": "2x64x100"
    "OutputShape": "2x64x100"
    "Quantize[mn,mx]": [-16.0, 16.0]
    "QuantizeBits": 8
    
    "RuntimeMemory": "16.00KB"
    "ScheduleId": "392"

  }

}
layer {
  name: "Reshape: /model/Reshape_14"
  type: "Reshape"
  bottom: "transform-45-/model/Concat_14:0"
  top: "/model/Reshape_14:0"
    scale_param {
    "InputShapes": "2x64x100"
    "OutputShape": "128x10x10"
    "Quantize[mn,mx]": [-16.0, 16.0]
    "QuantizeBits": 8
    "HasScratch": "true"
    
    "RuntimeMemory": "40.00KB"
    "ScheduleId": "393"

  }

}
layer {
  name: "Transform: transform-44-/model/Reshape_14"
  type: "Transform"
  bottom: "/model/Reshape_14:0"
  top: "transform-44-/model/Reshape_14:0"
    scale_param {
    "InputShapes": "128x10x10"
    "OutputShape": "128x10x10"
    "Quantize[mn,mx]": [-16.0, 16.0]
    "QuantizeBits": 8
    
    "RuntimeMemory": "12.50KB"
    "ScheduleId": "394"

  }

}
layer {
  name: "Conv2D: /model/model_10_m_0_attn_pe_conv/layer/Conv"
  type: "Convolution"
  bottom: "transform-43-/model/Reshape_13:0"
  bottom: "transform-44-/model/Reshape_14:0"
  top: "/model/Add_16:0"
    scale_param {
    "InputShapes": "128x10x10, 128x1x3x3, 128"
    "OutputShape": "128x10x10"
    "Quantize[mn,mx]": [-8.0, 8.0]
    "QuantizeBits": 16
    "ConstInputs": "/model/model_10_m_0_attn_pe_conv/WeightsSymmetricQuantizer:0"
    "ConstInputs": "Variable.model.model_10_m_0_attn_pe_conv.layer.bias.uid37:0"
    "RuntimeMemory": "12.50KB"
    "ScheduleId": "395"

  }
  blobs {
    shape {
      dim: 128
      dim: 1
      dim: 3
      dim: 3
    }
  }
  blobs {
    shape {
      dim: 128
    }
  }
}
layer {
  name: "Add: /model/Add_16"
  type: "Add"
  bottom: "/model/Add_16:0"
  top: "/model/Add_16:0"
    scale_param {
    "InputShapes": "128x10x10, 128x10x10"
    "OutputShape": "128x10x10"
    "Quantize[mn,mx]": [-8.0, 8.0]
    "QuantizeBits": 8
    "ConstInputs": "/model/model_10_m_0_attn_pe_conv/WeightsSymmetricQuantizer:0"
    "ConstInputs": "Variable.model.model_10_m_0_attn_pe_conv.layer.bias.uid37:0"
    "RuntimeMemory": "12.50KB"
    
  }

}
layer {
  name: "Conv2D: /model/model_10_m_0_attn_proj_conv/layer/Conv"
  type: "Convolution"
  bottom: "/model/Add_16:0"
  bottom: "transform-42-/model/Split_4sts1:0"
  top: "/model/Add_17:0"
    scale_param {
    "InputShapes": "128x10x10, 128x128x1x1, 128"
    "OutputShape": "128x10x10"
    "Quantize[mn,mx]": [-8.0, 8.0]
    "QuantizeBits": 16
    "ConstInputs": "/model/model_10_m_0_attn_proj_conv/WeightsSymmetricQuantizer:0"
    "ConstInputs": "Variable.model.model_10_m_0_attn_proj_conv.layer.bias.uid38:0"
    "RuntimeMemory": "12.50KB"
    "ScheduleId": "396"

  }
  blobs {
    shape {
      dim: 128
      dim: 128
      dim: 1
      dim: 1
    }
  }
  blobs {
    shape {
      dim: 128
    }
  }
}
layer {
  name: "Add: /model/Add_17"
  type: "Add"
  bottom: "/model/Add_17:0"
  top: "/model/Add_17:0"
    scale_param {
    "InputShapes": "128x10x10, 128x10x10"
    "OutputShape": "128x10x10"
    "Quantize[mn,mx]": [-8.0, 8.0]
    "QuantizeBits": 8
    "ConstInputs": "/model/model_10_m_0_attn_proj_conv/WeightsSymmetricQuantizer:0"
    "ConstInputs": "Variable.model.model_10_m_0_attn_proj_conv.layer.bias.uid38:0"
    "RuntimeMemory": "12.50KB"
    
  }

}
layer {
  name: "Conv2D: /model/model_10_m_0_ffn_0_conv/layer/Conv"
  type: "Convolution"
  bottom: "/model/Add_17:0"
  top: "/model/model_0_act_33/Mul_smr:0"
    scale_param {
    "InputShapes": "128x10x10, 256x128x1x1, 256"
    "OutputShape": "256x10x10"
    "Quantize[mn,mx]": [-8.0, 8.0]
    "QuantizeBits": 16
    "ConstInputs": "/model/model_10_m_0_ffn_0_conv/WeightsSymmetricQuantizer:0"
    "ConstInputs": "Variable.model.model_10_m_0_ffn_0_conv.layer.bias.uid39:0"
    "RuntimeMemory": "25.00KB"
    "ScheduleId": "397"

  }
  blobs {
    shape {
      dim: 256
      dim: 128
      dim: 1
      dim: 1
    }
  }
  blobs {
    shape {
      dim: 256
    }
  }
}
layer {
  name: "Swish: /model/model_0_act_33/Mul_smr"
  type: "Swish"
  bottom: "/model/model_0_act_33/Mul_smr:0"
  top: "/model/model_0_act_33/Mul_smr:0"
    scale_param {
    "InputShapes": "256x10x10"
    "OutputShape": "256x10x10"
    "Quantize[mn,mx]": [-4.0, 4.0]
    "QuantizeBits": 8
    "ConstInputs": "/model/model_10_m_0_ffn_0_conv/WeightsSymmetricQuantizer:0"
    "ConstInputs": "Variable.model.model_10_m_0_ffn_0_conv.layer.bias.uid39:0"
    "RuntimeMemory": "25.00KB"
    
  }

}
layer {
  name: "Conv2D: /model/model_10_m_0_ffn_1_conv/layer/Conv"
  type: "Convolution"
  bottom: "/model/Add_17:0"
  bottom: "/model/model_0_act_33/Mul_smr:0"
  top: "/model/Add_18:0"
    scale_param {
    "InputShapes": "256x10x10, 128x256x1x1, 128"
    "OutputShape": "128x10x10"
    "Quantize[mn,mx]": [-8.0, 8.0]
    "QuantizeBits": 16
    "ConstInputs": "/model/model_10_m_0_ffn_1_conv/WeightsSymmetricQuantizer:0"
    "ConstInputs": "Variable.model.model_10_m_0_ffn_1_conv.layer.bias.uid40:0"
    "RuntimeMemory": "12.50KB"
    "ScheduleId": "398"

  }
  blobs {
    shape {
      dim: 128
      dim: 256
      dim: 1
      dim: 1
    }
  }
  blobs {
    shape {
      dim: 128
    }
  }
}
layer {
  name: "Add: /model/Add_18"
  type: "Add"
  bottom: "/model/Add_18:0"
  top: "/model/Add_18:0"
    scale_param {
    "InputShapes": "128x10x10, 128x10x10"
    "OutputShape": "128x10x10"
    "Quantize[mn,mx]": [-16.0, 16.0]
    "QuantizeBits": 8
    "ConstInputs": "/model/model_10_m_0_ffn_1_conv/WeightsSymmetricQuantizer:0"
    "ConstInputs": "Variable.model.model_10_m_0_ffn_1_conv.layer.bias.uid40:0"
    "RuntimeMemory": "12.50KB"
    
  }

}
layer {
  name: "Concat: /model/Concat_15"
  type: "Concat"
  bottom: "/model/Add_18:0"
  bottom: "transform-41-/model/Split_4sts0:0"
  top: "/model/Concat_15:0"
    scale_param {
    "InputShapes": "128x10x10, 128x10x10"
    "OutputShape": "256x10x10"
    "Quantize[mn,mx]": [-16.0, 16.0]
    "QuantizeBits": 8
    
    "RuntimeMemory": "25.00KB"
    "ScheduleId": "399"

  }

}
layer {
  name: "Conv2D: /model/model_10_cv2_conv/layer/Conv"
  type: "Convolution"
  bottom: "/model/Concat_15:0"
  top: "/model/model_0_act_34/Mul_smr:0"
    scale_param {
    "InputShapes": "256x10x10, 256x256x1x1, 256"
    "OutputShape": "256x10x10"
    "Quantize[mn,mx]": [-8.0, 8.0]
    "QuantizeBits": 16
    "ConstInputs": "/model/model_10_cv2_conv/WeightsSymmetricQuantizer:0"
    "ConstInputs": "Variable.model.model_10_cv2_conv.layer.bias.uid41:0"
    "RuntimeMemory": "25.00KB"
    "ScheduleId": "400"

  }
  blobs {
    shape {
      dim: 256
      dim: 256
      dim: 1
      dim: 1
    }
  }
  blobs {
    shape {
      dim: 256
    }
  }
}
layer {
  name: "Swish: /model/model_0_act_34/Mul_smr"
  type: "Swish"
  bottom: "/model/model_0_act_34/Mul_smr:0"
  top: "/model/model_0_act_34/Mul_smr:0"
    scale_param {
    "InputShapes": "256x10x10"
    "OutputShape": "256x10x10"
    "Quantize[mn,mx]": [-4.0, 4.0]
    "QuantizeBits": 8
    "ConstInputs": "/model/model_10_cv2_conv/WeightsSymmetricQuantizer:0"
    "ConstInputs": "Variable.model.model_10_cv2_conv.layer.bias.uid41:0"
    "RuntimeMemory": "25.00KB"
    
  }

}
layer {
  name: "Resize: /model/model_11/Resize"
  type: "Resize"
  bottom: "/model/model_0_act_34/Mul_smr:0"
  top: "/model/model_11/Resize:0"
    scale_param {
    "InputShapes": "256x10x10"
    "OutputShape": "256x20x20"
    "Quantize[mn,mx]": [-8.0, 8.0]
    "QuantizeBits": 8
    "HasScratch": "true"
    
    "RuntimeMemory": "100.00KB"
    "ScheduleId": "401"

  }

}
layer {
  name: "Concat: /model/Concat_16"
  type: "Concat"
  bottom: "/model/model_0_act_20/Mul_smr:0"
  bottom: "/model/model_11/Resize:0"
  top: "/model/Concat_16:0"
    scale_param {
    "InputShapes": "256x20x20, 128x20x20"
    "OutputShape": "384x20x20"
    "Quantize[mn,mx]": [-8.0, 8.0]
    "QuantizeBits": 8
    
    "RuntimeMemory": "150.00KB"
    "ScheduleId": "402"

  }

}
layer {
  name: "Conv2D: /model/model_13_cv1_conv/layer/Conv"
  type: "Convolution"
  bottom: "/model/Concat_16:0"
  top: "/model/model_0_act_35/Mul_smr:0"
    scale_param {
    "InputShapes": "384x20x20, 128x384x1x1, 128"
    "OutputShape": "128x20x20"
    "Quantize[mn,mx]": [-8.0, 8.0]
    "QuantizeBits": 16
    "ConstInputs": "/model/model_13_cv1_conv/WeightsSymmetricQuantizer:0"
    "ConstInputs": "Variable.model.model_13_cv1_conv.layer.bias.uid42:0"
    "RuntimeMemory": "50.00KB"
    "ScheduleId": "403"

  }
  blobs {
    shape {
      dim: 128
      dim: 384
      dim: 1
      dim: 1
    }
  }
  blobs {
    shape {
      dim: 128
    }
  }
}
layer {
  name: "Swish: /model/model_0_act_35/Mul_smr"
  type: "Swish"
  bottom: "/model/model_0_act_35/Mul_smr:0"
  top: "/model/model_0_act_35/Mul_smr:0"
    scale_param {
    "InputShapes": "128x20x20"
    "OutputShape": "128x20x20"
    "Quantize[mn,mx]": [-4.0, 4.0]
    "QuantizeBits": 8
    "ConstInputs": "/model/model_13_cv1_conv/WeightsSymmetricQuantizer:0"
    "ConstInputs": "Variable.model.model_13_cv1_conv.layer.bias.uid42:0"
    "RuntimeMemory": "50.00KB"
    
  }

}
layer {
  name: "Transform: transform-39-(F)/model/model_13_cv1_conv/layer/Conv"
  type: "Transform"
  bottom: "/model/model_0_act_35/Mul_smr:0"
  top: "transform-39-(F)/model/model_13_cv1_conv/layer/Conv:0"
    scale_param {
    "InputShapes": "128x20x20"
    "OutputShape": "128x20x20"
    "Quantize[mn,mx]": [-4.0, 4.0]
    "QuantizeBits": 8
    
    "RuntimeMemory": "80.00KB"
    "ScheduleId": "404"

  }

}
layer {
  name: "Transform: transform-40-(F)/model/model_13_cv1_conv/layer/Conv"
  type: "Transform"
  bottom: "/model/model_0_act_35/Mul_smr:0"
  top: "transform-40-(F)/model/model_13_cv1_conv/layer/Conv:0"
    scale_param {
    "InputShapes": "128x20x20"
    "OutputShape": "128x20x20"
    "Quantize[mn,mx]": [-4.0, 4.0]
    "QuantizeBits": 8
    
    "RuntimeMemory": "80.00KB"
    "ScheduleId": "407"

  }

}
layer {
  name: "StrideSlice: /model/Split_10sts0"
  type: "StrideSlice"
  bottom: "transform-39-(F)/model/model_13_cv1_conv/layer/Conv:0"
  top: "/model/Split_10sts0:0"
    scale_param {
    "InputShapes": "128x20x20"
    "OutputShape": "64x20x20"
    "Quantize[mn,mx]": [-4.0, 4.0]
    "QuantizeBits": 8
    
    "RuntimeMemory": "40.00KB"
    "ScheduleId": "405"

  }

}
layer {
  name: "StrideSlice: /model/Split_10sts1"
  type: "StrideSlice"
  bottom: "transform-40-(F)/model/model_13_cv1_conv/layer/Conv:0"
  top: "/model/Split_10sts1:0"
    scale_param {
    "InputShapes": "128x20x20"
    "OutputShape": "64x20x20"
    "Quantize[mn,mx]": [-4.0, 4.0]
    "QuantizeBits": 8
    
    "RuntimeMemory": "40.00KB"
    "ScheduleId": "408"

  }

}
layer {
  name: "Transform: transform-35-/model/Split_10sts0"
  type: "Transform"
  bottom: "/model/Split_10sts0:0"
  top: "transform-35-/model/Split_10sts0:0"
    scale_param {
    "InputShapes": "64x20x20"
    "OutputShape": "64x20x20"
    "Quantize[mn,mx]": [-4.0, 4.0]
    "QuantizeBits": 8
    
    "RuntimeMemory": "25.00KB"
    "ScheduleId": "406"

  }

}
layer {
  name: "Transform: transform-36-/model/Split_10sts1"
  type: "Transform"
  bottom: "/model/Split_10sts1:0"
  top: "transform-36-/model/Split_10sts1:0"
    scale_param {
    "InputShapes": "64x20x20"
    "OutputShape": "64x20x20"
    "Quantize[mn,mx]": [-4.0, 4.0]
    "QuantizeBits": 8
    
    "RuntimeMemory": "25.00KB"
    "ScheduleId": "409"

  }

}
layer {
  name: "Transform: transform-37-/model/Split_10sts1"
  type: "Transform"
  bottom: "/model/Split_10sts1:0"
  top: "transform-37-/model/Split_10sts1:0"
    scale_param {
    "InputShapes": "64x20x20"
    "OutputShape": "64x20x20"
    "Quantize[mn,mx]": [-4.0, 4.0]
    "QuantizeBits": 8
    
    "RuntimeMemory": "25.00KB"
    "ScheduleId": "410"

  }

}
layer {
  name: "Transform: transform-38-/model/Split_10sts1"
  type: "Transform"
  bottom: "/model/Split_10sts1:0"
  top: "transform-38-/model/Split_10sts1:0"
    scale_param {
    "InputShapes": "64x20x20"
    "OutputShape": "64x20x20"
    "Quantize[mn,mx]": [-4.0, 4.0]
    "QuantizeBits": 8
    
    "RuntimeMemory": "25.00KB"
    "ScheduleId": "411"

  }

}
layer {
  name: "Conv2D: /model/model_13_m_0_cv1_conv/layer/Conv"
  type: "Convolution"
  bottom: "transform-38-/model/Split_10sts1:0"
  top: "/model/model_0_act_36/Mul_smr:0"
    scale_param {
    "InputShapes": "64x20x20, 32x64x3x3, 32"
    "OutputShape": "32x20x20"
    "Quantize[mn,mx]": [-8.0, 8.0]
    "QuantizeBits": 16
    "ConstInputs": "/model/model_13_m_0_cv1_conv/WeightsSymmetricQuantizer:0"
    "ConstInputs": "Variable.model.model_13_m_0_cv1_conv.layer.bias.uid43:0"
    "RuntimeMemory": "12.50KB"
    "ScheduleId": "412"

  }
  blobs {
    shape {
      dim: 32
      dim: 64
      dim: 3
      dim: 3
    }
  }
  blobs {
    shape {
      dim: 32
    }
  }
}
layer {
  name: "Swish: /model/model_0_act_36/Mul_smr"
  type: "Swish"
  bottom: "/model/model_0_act_36/Mul_smr:0"
  top: "/model/model_0_act_36/Mul_smr:0"
    scale_param {
    "InputShapes": "32x20x20"
    "OutputShape": "32x20x20"
    "Quantize[mn,mx]": [0, 8.0]
    "QuantizeBits": 8
    "ConstInputs": "/model/model_13_m_0_cv1_conv/WeightsSymmetricQuantizer:0"
    "ConstInputs": "Variable.model.model_13_m_0_cv1_conv.layer.bias.uid43:0"
    "RuntimeMemory": "12.50KB"
    
  }

}
layer {
  name: "Pad: /model/Pad_6_to1d_0"
  type: "Pad"
  bottom: "/model/model_0_act_36/Mul_smr:0"
  top: "/model/Pad_6_to1d_0:0"
    scale_param {
    "InputShapes": "32x20x20"
    "OutputShape": "32x22x20"
    "Quantize[mn,mx]": [0, 8.0]
    "QuantizeBits": 8
    "HasScratch": "true"
    
    "RuntimeMemory": "13.75KB"
    "ScheduleId": "413"

  }

}
layer {
  name: "Pad: /model/Pad_6_to1d_1"
  type: "Pad"
  bottom: "/model/Pad_6_to1d_0:0"
  top: "/model/Pad_6_to1d_1:0"
    scale_param {
    "InputShapes": "32x22x20"
    "OutputShape": "32x22x22"
    "Quantize[mn,mx]": [0, 8.0]
    "QuantizeBits": 8
    "HasScratch": "true"
    
    "RuntimeMemory": "15.13KB"
    "ScheduleId": "414"

  }

}
layer {
  name: "Conv2D: /model/model_13_m_0_cv2_conv/layer/Conv"
  type: "Convolution"
  bottom: "/model/Pad_6_to1d_1:0"
  top: "/model/model_0_act_37/Mul_smr:0"
    scale_param {
    "InputShapes": "32x22x22, 64x32x3x3, 64"
    "OutputShape": "64x20x20"
    "Quantize[mn,mx]": [-16.0, 16.0]
    "QuantizeBits": 16
    "ConstInputs": "/model/model_13_m_0_cv2_conv/WeightsSymmetricQuantizer:0"
    "ConstInputs": "Variable.model.model_13_m_0_cv2_conv.layer.bias.uid44:0"
    "RuntimeMemory": "25.00KB"
    "ScheduleId": "415"

  }
  blobs {
    shape {
      dim: 64
      dim: 32
      dim: 3
      dim: 3
    }
  }
  blobs {
    shape {
      dim: 64
    }
  }
}
layer {
  name: "Swish: /model/model_0_act_37/Mul_smr"
  type: "Swish"
  bottom: "/model/model_0_act_37/Mul_smr:0"
  top: "/model/model_0_act_37/Mul_smr:0"
    scale_param {
    "InputShapes": "64x20x20"
    "OutputShape": "64x20x20"
    "Quantize[mn,mx]": [-16.0, 16.0]
    "QuantizeBits": 8
    "ConstInputs": "/model/model_13_m_0_cv2_conv/WeightsSymmetricQuantizer:0"
    "ConstInputs": "Variable.model.model_13_m_0_cv2_conv.layer.bias.uid44:0"
    "RuntimeMemory": "25.00KB"
    
  }

}
layer {
  name: "Add: /model/Add_20"
  type: "Add"
  bottom: "/model/model_0_act_37/Mul_smr:0"
  bottom: "transform-37-/model/Split_10sts1:0"
  top: "/model/Add_20:0"
    scale_param {
    "InputShapes": "64x20x20, 64x20x20"
    "OutputShape": "64x20x20"
    "Quantize[mn,mx]": [-16.0, 16.0]
    "QuantizeBits": 8
    
    "RuntimeMemory": "25.00KB"
    "ScheduleId": "416"

  }

}
layer {
  name: "Concat: /model/Concat_18"
  type: "Concat"
  bottom: "/model/Add_20:0"
  bottom: "transform-35-/model/Split_10sts0:0"
  bottom: "transform-36-/model/Split_10sts1:0"
  top: "/model/Concat_18:0"
    scale_param {
    "InputShapes": "64x20x20, 64x20x20, 64x20x20"
    "OutputShape": "192x20x20"
    "Quantize[mn,mx]": [-16.0, 16.0]
    "QuantizeBits": 8
    
    "RuntimeMemory": "75.00KB"
    "ScheduleId": "417"

  }

}
layer {
  name: "Conv2D: /model/model_13_cv2_conv/layer/Conv"
  type: "Convolution"
  bottom: "/model/Concat_18:0"
  top: "/model/model_0_act_38/Mul_smr:0"
    scale_param {
    "InputShapes": "192x20x20, 128x192x1x1, 128"
    "OutputShape": "128x20x20"
    "Quantize[mn,mx]": [-8.0, 8.0]
    "QuantizeBits": 16
    "ConstInputs": "/model/model_13_cv2_conv/WeightsSymmetricQuantizer:0"
    "ConstInputs": "Variable.model.model_13_cv2_conv.layer.bias.uid45:0"
    "RuntimeMemory": "50.00KB"
    "ScheduleId": "418"

  }
  blobs {
    shape {
      dim: 128
      dim: 192
      dim: 1
      dim: 1
    }
  }
  blobs {
    shape {
      dim: 128
    }
  }
}
layer {
  name: "Swish: /model/model_0_act_38/Mul_smr"
  type: "Swish"
  bottom: "/model/model_0_act_38/Mul_smr:0"
  top: "/model/model_0_act_38/Mul_smr:0"
    scale_param {
    "InputShapes": "128x20x20"
    "OutputShape": "128x20x20"
    "Quantize[mn,mx]": [-4.0, 4.0]
    "QuantizeBits": 8
    "ConstInputs": "/model/model_13_cv2_conv/WeightsSymmetricQuantizer:0"
    "ConstInputs": "Variable.model.model_13_cv2_conv.layer.bias.uid45:0"
    "RuntimeMemory": "50.00KB"
    
  }

}
layer {
  name: "Resize: /model/model_14/Resize"
  type: "Resize"
  bottom: "/model/model_0_act_38/Mul_smr:0"
  top: "/model/model_14/Resize:0"
    scale_param {
    "InputShapes": "128x20x20"
    "OutputShape": "128x40x40"
    "Quantize[mn,mx]": [-4.0, 4.0]
    "QuantizeBits": 8
    "HasScratch": "true"
    
    "RuntimeMemory": "200.00KB"
    "ScheduleId": "419"

  }

}
layer {
  name: "Concat: /model/Concat_19"
  type: "Concat"
  bottom: "/model/model_0_act_10/Mul_smr:0"
  bottom: "/model/model_14/Resize:0"
  top: "/model/Concat_19:0"
    scale_param {
    "InputShapes": "128x40x40, 128x40x40"
    "OutputShape": "256x40x40"
    "Quantize[mn,mx]": [-4.0, 4.0]
    "QuantizeBits": 8
    
    "RuntimeMemory": "400.00KB"
    "ScheduleId": "420"

  }

}
layer {
  name: "Conv2D: /model/model_16_cv1_conv/layer/Conv"
  type: "Convolution"
  bottom: "/model/Concat_19:0"
  top: "/model/model_0_act_39/Mul_smr:0"
    scale_param {
    "InputShapes": "256x40x40, 64x256x1x1, 64"
    "OutputShape": "64x40x40"
    "Quantize[mn,mx]": [-8.0, 8.0]
    "QuantizeBits": 16
    "ConstInputs": "/model/model_16_cv1_conv/WeightsSymmetricQuantizer:0"
    "ConstInputs": "Variable.model.model_16_cv1_conv.layer.bias.uid46:0"
    "RuntimeMemory": "100.00KB"
    "ScheduleId": "421"

  }
  blobs {
    shape {
      dim: 64
      dim: 256
      dim: 1
      dim: 1
    }
  }
  blobs {
    shape {
      dim: 64
    }
  }
}
layer {
  name: "Swish: /model/model_0_act_39/Mul_smr"
  type: "Swish"
  bottom: "/model/model_0_act_39/Mul_smr:0"
  top: "/model/model_0_act_39/Mul_smr:0"
    scale_param {
    "InputShapes": "64x40x40"
    "OutputShape": "64x40x40"
    "Quantize[mn,mx]": [-4.0, 4.0]
    "QuantizeBits": 8
    "ConstInputs": "/model/model_16_cv1_conv/WeightsSymmetricQuantizer:0"
    "ConstInputs": "Variable.model.model_16_cv1_conv.layer.bias.uid46:0"
    "RuntimeMemory": "100.00KB"
    
  }

}
layer {
  name: "Transform: transform-33-(F)/model/model_16_cv1_conv/layer/Conv"
  type: "Transform"
  bottom: "/model/model_0_act_39/Mul_smr:0"
  top: "transform-33-(F)/model/model_16_cv1_conv/layer/Conv:0"
    scale_param {
    "InputShapes": "64x40x40"
    "OutputShape": "64x40x40"
    "Quantize[mn,mx]": [-4.0, 4.0]
    "QuantizeBits": 8
    
    "RuntimeMemory": "160.00KB"
    "ScheduleId": "422"

  }

}
layer {
  name: "Transform: transform-34-(F)/model/model_16_cv1_conv/layer/Conv"
  type: "Transform"
  bottom: "/model/model_0_act_39/Mul_smr:0"
  top: "transform-34-(F)/model/model_16_cv1_conv/layer/Conv:0"
    scale_param {
    "InputShapes": "64x40x40"
    "OutputShape": "64x40x40"
    "Quantize[mn,mx]": [-4.0, 4.0]
    "QuantizeBits": 8
    
    "RuntimeMemory": "160.00KB"
    "ScheduleId": "425"

  }

}
layer {
  name: "StrideSlice: /model/Split_11sts0"
  type: "StrideSlice"
  bottom: "transform-33-(F)/model/model_16_cv1_conv/layer/Conv:0"
  top: "/model/Split_11sts0:0"
    scale_param {
    "InputShapes": "64x40x40"
    "OutputShape": "32x40x40"
    "Quantize[mn,mx]": [-4.0, 4.0]
    "QuantizeBits": 8
    
    "RuntimeMemory": "80.00KB"
    "ScheduleId": "423"

  }

}
layer {
  name: "StrideSlice: /model/Split_11sts1"
  type: "StrideSlice"
  bottom: "transform-34-(F)/model/model_16_cv1_conv/layer/Conv:0"
  top: "/model/Split_11sts1:0"
    scale_param {
    "InputShapes": "64x40x40"
    "OutputShape": "32x40x40"
    "Quantize[mn,mx]": [-4.0, 4.0]
    "QuantizeBits": 8
    
    "RuntimeMemory": "80.00KB"
    "ScheduleId": "426"

  }

}
layer {
  name: "Transform: transform-28-/model/Split_11sts0"
  type: "Transform"
  bottom: "/model/Split_11sts0:0"
  top: "transform-28-/model/Split_11sts0:0"
    scale_param {
    "InputShapes": "32x40x40"
    "OutputShape": "32x40x40"
    "Quantize[mn,mx]": [-4.0, 4.0]
    "QuantizeBits": 8
    
    "RuntimeMemory": "50.00KB"
    "ScheduleId": "424"

  }

}
layer {
  name: "Transform: transform-29-/model/Split_11sts1"
  type: "Transform"
  bottom: "/model/Split_11sts1:0"
  top: "transform-29-/model/Split_11sts1:0"
    scale_param {
    "InputShapes": "32x40x40"
    "OutputShape": "32x40x40"
    "Quantize[mn,mx]": [-4.0, 4.0]
    "QuantizeBits": 8
    
    "RuntimeMemory": "50.00KB"
    "ScheduleId": "427"

  }

}
layer {
  name: "Transform: transform-30-/model/Split_11sts1"
  type: "Transform"
  bottom: "/model/Split_11sts1:0"
  top: "transform-30-/model/Split_11sts1:0"
    scale_param {
    "InputShapes": "32x40x40"
    "OutputShape": "32x40x40"
    "Quantize[mn,mx]": [-4.0, 4.0]
    "QuantizeBits": 8
    
    "RuntimeMemory": "50.00KB"
    "ScheduleId": "428"

  }

}
layer {
  name: "Transform: transform-32-/model/Split_11sts1"
  type: "Transform"
  bottom: "/model/Split_11sts1:0"
  top: "transform-32-/model/Split_11sts1:0"
    scale_param {
    "InputShapes": "32x40x40"
    "OutputShape": "32x40x40"
    "Quantize[mn,mx]": [-4.0, 4.0]
    "QuantizeBits": 8
    
    "RuntimeMemory": "50.00KB"
    "ScheduleId": "429"

  }

}
layer {
  name: "Conv2D: /model/model_16_m_0_cv1_conv/layer/Conv"
  type: "Convolution"
  bottom: "transform-32-/model/Split_11sts1:0"
  top: "/model/model_0_act_40/Mul_smr:0"
    scale_param {
    "InputShapes": "32x40x40, 16x32x3x3, 16"
    "OutputShape": "16x40x40"
    "Quantize[mn,mx]": [-8.0, 8.0]
    "QuantizeBits": 16
    "ConstInputs": "/model/model_16_m_0_cv1_conv/WeightsSymmetricQuantizer:0"
    "ConstInputs": "Variable.model.model_16_m_0_cv1_conv.layer.bias.uid47:0"
    "RuntimeMemory": "40.00KB"
    "ScheduleId": "430"

  }
  blobs {
    shape {
      dim: 16
      dim: 32
      dim: 3
      dim: 3
    }
  }
  blobs {
    shape {
      dim: 16
    }
  }
}
layer {
  name: "Swish: /model/model_0_act_40/Mul_smr"
  type: "Swish"
  bottom: "/model/model_0_act_40/Mul_smr:0"
  top: "/model/model_0_act_40/Mul_smr:0"
    scale_param {
    "InputShapes": "16x40x40"
    "OutputShape": "16x40x40"
    "Quantize[mn,mx]": [-4.0, 4.0]
    "QuantizeBits": 8
    "ConstInputs": "/model/model_16_m_0_cv1_conv/WeightsSymmetricQuantizer:0"
    "ConstInputs": "Variable.model.model_16_m_0_cv1_conv.layer.bias.uid47:0"
    "RuntimeMemory": "40.00KB"
    
  }

}
layer {
  name: "Transform: transform-31-(F)/model/model_16_m_0_cv1_conv/layer/Conv"
  type: "Transform"
  bottom: "/model/model_0_act_40/Mul_smr:0"
  top: "transform-31-(F)/model/model_16_m_0_cv1_conv/layer/Conv:0"
    scale_param {
    "InputShapes": "16x40x40"
    "OutputShape": "16x40x40"
    "Quantize[mn,mx]": [-4.0, 4.0]
    "QuantizeBits": 8
    
    "RuntimeMemory": "42.00KB"
    "ScheduleId": "431"

  }

}
layer {
  name: "Transform: transform-31-0-(F)/model/model_16_m_0_cv1_conv/layer/Conv"
  type: "Transform"
  bottom: "transform-31-(F)/model/model_16_m_0_cv1_conv/layer/Conv:0"
  top: "transform-31-0-(F)/model/model_16_m_0_cv1_conv/layer/Conv:0"
    scale_param {
    "InputShapes": "16x40x40"
    "OutputShape": "16x40x40"
    "Quantize[mn,mx]": [-4.0, 4.0]
    "QuantizeBits": 8
    
    "RuntimeMemory": "40.00KB"
    "ScheduleId": "432"

  }

}
layer {
  name: "Transform: transform-31-1-(F)/model/model_16_m_0_cv1_conv/layer/Conv"
  type: "Transform"
  bottom: "transform-31-0-(F)/model/model_16_m_0_cv1_conv/layer/Conv:0"
  top: "transform-31-1-(F)/model/model_16_m_0_cv1_conv/layer/Conv:0"
    scale_param {
    "InputShapes": "16x40x40"
    "OutputShape": "16x40x40"
    "Quantize[mn,mx]": [-4.0, 4.0]
    "QuantizeBits": 8
    
    "RuntimeMemory": "42.00KB"
    "ScheduleId": "433"

  }

}
layer {
  name: "Transform: transform-31-2-(F)/model/model_16_m_0_cv1_conv/layer/Conv"
  type: "Transform"
  bottom: "transform-31-1-(F)/model/model_16_m_0_cv1_conv/layer/Conv:0"
  top: "transform-31-2-(F)/model/model_16_m_0_cv1_conv/layer/Conv:0"
    scale_param {
    "InputShapes": "16x40x40"
    "OutputShape": "16x40x40"
    "Quantize[mn,mx]": [-4.0, 4.0]
    "QuantizeBits": 8
    
    "RuntimeMemory": "42.00KB"
    "ScheduleId": "434"

  }

}
layer {
  name: "Conv2D: /model/model_16_m_0_cv2_conv/layer/Conv"
  type: "Convolution"
  bottom: "transform-31-2-(F)/model/model_16_m_0_cv1_conv/layer/Conv:0"
  top: "/model/model_0_act_41/Mul_smr:0"
    scale_param {
    "InputShapes": "16x40x40, 32x16x3x3, 32"
    "OutputShape": "32x40x40"
    "Quantize[mn,mx]": [-8.0, 8.0]
    "QuantizeBits": 16
    "ConstInputs": "/model/model_16_m_0_cv2_conv/WeightsSymmetricQuantizer:0"
    "ConstInputs": "Variable.model.model_16_m_0_cv2_conv.layer.bias.uid48:0"
    "RuntimeMemory": "50.00KB"
    "ScheduleId": "435"

  }
  blobs {
    shape {
      dim: 32
      dim: 16
      dim: 3
      dim: 3
    }
  }
  blobs {
    shape {
      dim: 32
    }
  }
}
layer {
  name: "Swish: /model/model_0_act_41/Mul_smr"
  type: "Swish"
  bottom: "/model/model_0_act_41/Mul_smr:0"
  top: "/model/model_0_act_41/Mul_smr:0"
    scale_param {
    "InputShapes": "32x40x40"
    "OutputShape": "32x40x40"
    "Quantize[mn,mx]": [-4.0, 4.0]
    "QuantizeBits": 8
    "ConstInputs": "/model/model_16_m_0_cv2_conv/WeightsSymmetricQuantizer:0"
    "ConstInputs": "Variable.model.model_16_m_0_cv2_conv.layer.bias.uid48:0"
    "RuntimeMemory": "50.00KB"
    
  }

}
layer {
  name: "Add: /model/Add_21"
  type: "Add"
  bottom: "/model/model_0_act_41/Mul_smr:0"
  bottom: "transform-30-/model/Split_11sts1:0"
  top: "/model/Add_21:0"
    scale_param {
    "InputShapes": "32x40x40, 32x40x40"
    "OutputShape": "32x40x40"
    "Quantize[mn,mx]": [-8.0, 8.0]
    "QuantizeBits": 8
    
    "RuntimeMemory": "50.00KB"
    "ScheduleId": "436"

  }

}
layer {
  name: "Cast: Cast_to_/model/Concat_20_2"
  type: "Cast"
  bottom: "/model/Add_21:0"
  top: "Cast_to_/model/Concat_20_2:0"
    scale_param {
    "InputShapes": "32x40x40"
    "OutputShape": "32x40x40"
    "Quantize[mn,mx]": [-4.0, 4.0]
    "QuantizeBits": 8
    
    "RuntimeMemory": "50.00KB"
    "ScheduleId": "437"

  }

}
layer {
  name: "Concat: /model/Concat_20"
  type: "Concat"
  bottom: "Cast_to_/model/Concat_20_2:0"
  bottom: "transform-28-/model/Split_11sts0:0"
  bottom: "transform-29-/model/Split_11sts1:0"
  top: "/model/Concat_20:0"
    scale_param {
    "InputShapes": "32x40x40, 32x40x40, 32x40x40"
    "OutputShape": "96x40x40"
    "Quantize[mn,mx]": [-4.0, 4.0]
    "QuantizeBits": 8
    
    "RuntimeMemory": "150.00KB"
    "ScheduleId": "438"

  }

}
layer {
  name: "Conv2D: /model/model_16_cv2_conv/layer/Conv"
  type: "Convolution"
  bottom: "/model/Concat_20:0"
  top: "/model/model_0_act_42/Mul_smr:0"
    scale_param {
    "InputShapes": "96x40x40, 64x96x1x1, 64"
    "OutputShape": "64x40x40"
    "Quantize[mn,mx]": [-8.0, 8.0]
    "QuantizeBits": 16
    "ConstInputs": "/model/model_16_cv2_conv/WeightsSymmetricQuantizer:0"
    "ConstInputs": "Variable.model.model_16_cv2_conv.layer.bias.uid49:0"
    "RuntimeMemory": "100.00KB"
    "ScheduleId": "439"

  }
  blobs {
    shape {
      dim: 64
      dim: 96
      dim: 1
      dim: 1
    }
  }
  blobs {
    shape {
      dim: 64
    }
  }
}
layer {
  name: "Swish: /model/model_0_act_42/Mul_smr"
  type: "Swish"
  bottom: "/model/model_0_act_42/Mul_smr:0"
  top: "/model/model_0_act_42/Mul_smr:0"
    scale_param {
    "InputShapes": "64x40x40"
    "OutputShape": "64x40x40"
    "Quantize[mn,mx]": [-8.0, 8.0]
    "QuantizeBits": 8
    "ConstInputs": "/model/model_16_cv2_conv/WeightsSymmetricQuantizer:0"
    "ConstInputs": "Variable.model.model_16_cv2_conv.layer.bias.uid49:0"
    "RuntimeMemory": "100.00KB"
    
  }

}
layer {
  name: "Conv2D: /model/model_23_cv3_0_0_0_conv/layer/Conv"
  type: "Convolution"
  bottom: "/model/model_0_act_42/Mul_smr:0"
  top: "/model/model_0_act_64/Mul_smr:0"
    scale_param {
    "InputShapes": "64x40x40, 64x1x3x3, 64"
    "OutputShape": "64x40x40"
    "Quantize[mn,mx]": [-8.0, 8.0]
    "QuantizeBits": 16
    "ConstInputs": "/model/model_23_cv3_0_0_0_conv/WeightsSymmetricQuantizer:0"
    "ConstInputs": "Variable.model.model_23_cv3_0_0_0_conv.layer.bias.uid52:0"
    "RuntimeMemory": "100.00KB"
    "ScheduleId": "443"

  }
  blobs {
    shape {
      dim: 64
      dim: 1
      dim: 3
      dim: 3
    }
  }
  blobs {
    shape {
      dim: 64
    }
  }
}
layer {
  name: "Swish: /model/model_0_act_64/Mul_smr"
  type: "Swish"
  bottom: "/model/model_0_act_64/Mul_smr:0"
  top: "/model/model_0_act_64/Mul_smr:0"
    scale_param {
    "InputShapes": "64x40x40"
    "OutputShape": "64x40x40"
    "Quantize[mn,mx]": [0, 8.0]
    "QuantizeBits": 8
    "ConstInputs": "/model/model_23_cv3_0_0_0_conv/WeightsSymmetricQuantizer:0"
    "ConstInputs": "Variable.model.model_23_cv3_0_0_0_conv.layer.bias.uid52:0"
    "RuntimeMemory": "100.00KB"
    
  }

}
layer {
  name: "Conv2D: /model/model_23_cv2_0_0_conv/layer/Conv"
  type: "Convolution"
  bottom: "/model/model_0_act_42/Mul_smr:0"
  top: "/model/model_0_act_58/Mul_smr:0"
    scale_param {
    "InputShapes": "64x40x40, 64x64x3x3, 64"
    "OutputShape": "64x40x40"
    "Quantize[mn,mx]": [-8.0, 8.0]
    "QuantizeBits": 16
    "ConstInputs": "/model/model_23_cv2_0_0_conv/WeightsSymmetricQuantizer:0"
    "ConstInputs": "Variable.model.model_23_cv2_0_0_conv.layer.bias.uid51:0"
    "RuntimeMemory": "100.00KB"
    "ScheduleId": "441"

  }
  blobs {
    shape {
      dim: 64
      dim: 64
      dim: 3
      dim: 3
    }
  }
  blobs {
    shape {
      dim: 64
    }
  }
}
layer {
  name: "Swish: /model/model_0_act_58/Mul_smr"
  type: "Swish"
  bottom: "/model/model_0_act_58/Mul_smr:0"
  top: "/model/model_0_act_58/Mul_smr:0"
    scale_param {
    "InputShapes": "64x40x40"
    "OutputShape": "64x40x40"
    "Quantize[mn,mx]": [-4.0, 4.0]
    "QuantizeBits": 8
    "ConstInputs": "/model/model_23_cv2_0_0_conv/WeightsSymmetricQuantizer:0"
    "ConstInputs": "Variable.model.model_23_cv2_0_0_conv.layer.bias.uid51:0"
    "RuntimeMemory": "100.00KB"
    
  }

}
layer {
  name: "Conv2D: /model/model_17_conv/layer/Conv"
  type: "Convolution"
  bottom: "/model/model_0_act_42/Mul_smr:0"
  top: "/model/model_0_act_43/Mul_smr:0"
    scale_param {
    "InputShapes": "64x40x40, 64x64x3x3, 64"
    "OutputShape": "64x20x20"
    "Quantize[mn,mx]": [-8.0, 8.0]
    "QuantizeBits": 16
    "ConstInputs": "/model/model_17_conv/WeightsSymmetricQuantizer:0"
    "ConstInputs": "Variable.model.model_17_conv.layer.bias.uid50:0"
    "RuntimeMemory": "25.00KB"
    "ScheduleId": "440"

  }
  blobs {
    shape {
      dim: 64
      dim: 64
      dim: 3
      dim: 3
    }
  }
  blobs {
    shape {
      dim: 64
    }
  }
}
layer {
  name: "Swish: /model/model_0_act_43/Mul_smr"
  type: "Swish"
  bottom: "/model/model_0_act_43/Mul_smr:0"
  top: "/model/model_0_act_43/Mul_smr:0"
    scale_param {
    "InputShapes": "64x20x20"
    "OutputShape": "64x20x20"
    "Quantize[mn,mx]": [-8.0, 8.0]
    "QuantizeBits": 8
    "ConstInputs": "/model/model_17_conv/WeightsSymmetricQuantizer:0"
    "ConstInputs": "Variable.model.model_17_conv.layer.bias.uid50:0"
    "RuntimeMemory": "25.00KB"
    
  }

}
layer {
  name: "Conv2D: /model/model_23_cv3_0_0_1_conv/layer/Conv"
  type: "Convolution"
  bottom: "/model/model_0_act_64/Mul_smr:0"
  top: "/model/model_0_act_65/Mul_smr:0"
    scale_param {
    "InputShapes": "64x40x40, 64x64x1x1, 64"
    "OutputShape": "64x40x40"
    "Quantize[mn,mx]": [-8.0, 8.0]
    "QuantizeBits": 16
    "ConstInputs": "/model/model_23_cv3_0_0_1_conv/WeightsSymmetricQuantizer:0"
    "ConstInputs": "Variable.model.model_23_cv3_0_0_1_conv.layer.bias.uid55:0"
    "RuntimeMemory": "100.00KB"
    "ScheduleId": "444"

  }
  blobs {
    shape {
      dim: 64
      dim: 64
      dim: 1
      dim: 1
    }
  }
  blobs {
    shape {
      dim: 64
    }
  }
}
layer {
  name: "Swish: /model/model_0_act_65/Mul_smr"
  type: "Swish"
  bottom: "/model/model_0_act_65/Mul_smr:0"
  top: "/model/model_0_act_65/Mul_smr:0"
    scale_param {
    "InputShapes": "64x40x40"
    "OutputShape": "64x40x40"
    "Quantize[mn,mx]": [0, 8.0]
    "QuantizeBits": 8
    "ConstInputs": "/model/model_23_cv3_0_0_1_conv/WeightsSymmetricQuantizer:0"
    "ConstInputs": "Variable.model.model_23_cv3_0_0_1_conv.layer.bias.uid55:0"
    "RuntimeMemory": "100.00KB"
    
  }

}
layer {
  name: "Conv2D: /model/model_23_cv2_0_1_conv/layer/Conv"
  type: "Convolution"
  bottom: "/model/model_0_act_58/Mul_smr:0"
  top: "/model/model_0_act_59/Mul_smr:0"
    scale_param {
    "InputShapes": "64x40x40, 64x64x3x3, 64"
    "OutputShape": "64x40x40"
    "Quantize[mn,mx]": [-16.0, 16.0]
    "QuantizeBits": 16
    "ConstInputs": "/model/model_23_cv2_0_1_conv/WeightsSymmetricQuantizer:0"
    "ConstInputs": "Variable.model.model_23_cv2_0_1_conv.layer.bias.uid53:0"
    "RuntimeMemory": "100.00KB"
    "ScheduleId": "442"

  }
  blobs {
    shape {
      dim: 64
      dim: 64
      dim: 3
      dim: 3
    }
  }
  blobs {
    shape {
      dim: 64
    }
  }
}
layer {
  name: "Swish: /model/model_0_act_59/Mul_smr"
  type: "Swish"
  bottom: "/model/model_0_act_59/Mul_smr:0"
  top: "/model/model_0_act_59/Mul_smr:0"
    scale_param {
    "InputShapes": "64x40x40"
    "OutputShape": "64x40x40"
    "Quantize[mn,mx]": [0, 16.0]
    "QuantizeBits": 8
    "ConstInputs": "/model/model_23_cv2_0_1_conv/WeightsSymmetricQuantizer:0"
    "ConstInputs": "Variable.model.model_23_cv2_0_1_conv.layer.bias.uid53:0"
    "RuntimeMemory": "100.00KB"
    
  }

}
layer {
  name: "Concat: /model/Concat_21"
  type: "Concat"
  bottom: "/model/model_0_act_38/Mul_smr:0"
  bottom: "/model/model_0_act_43/Mul_smr:0"
  top: "/model/Concat_21:0"
    scale_param {
    "InputShapes": "64x20x20, 128x20x20"
    "OutputShape": "192x20x20"
    "Quantize[mn,mx]": [-8.0, 8.0]
    "QuantizeBits": 8
    
    "RuntimeMemory": "75.00KB"
    "ScheduleId": "445"

  }

}
layer {
  name: "Pad: /model/Pad_7_to1d_0"
  type: "Pad"
  bottom: "/model/model_0_act_65/Mul_smr:0"
  top: "/model/Pad_7_to1d_0:0"
    scale_param {
    "InputShapes": "64x40x40"
    "OutputShape": "64x42x40"
    "Quantize[mn,mx]": [0, 8.0]
    "QuantizeBits": 8
    "HasScratch": "true"
    
    "RuntimeMemory": "105.00KB"
    "ScheduleId": "447"

  }

}
layer {
  name: "Conv2D: /model/model_23_cv2_0_2/layer/Conv"
  type: "Convolution"
  bottom: "/model/model_0_act_59/Mul_smr:0"
  top: "/model/model_23_cv2_0_2/layer/Conv:0"
    scale_param {
    "InputShapes": "64x40x40, 64x64x1x1, 64"
    "OutputShape": "64x40x40"
    "Quantize[mn,mx]": [-16.0, 16.0]
    "QuantizeBits": 8
    "ConstInputs": "/model/model_23_cv2_0_2/WeightsSymmetricQuantizer:0"
    "ConstInputs": "Variable.model.model_23_cv2_0_2.layer.bias.uid56:0"
    "RuntimeMemory": "100.00KB"
    "ScheduleId": "451"

  }
  blobs {
    shape {
      dim: 64
      dim: 64
      dim: 1
      dim: 1
    }
  }
  blobs {
    shape {
      dim: 64
    }
  }
}
layer {
  name: "Conv2D: /model/model_19_cv1_conv/layer/Conv"
  type: "Convolution"
  bottom: "/model/Concat_21:0"
  top: "/model/model_0_act_44/Mul_smr:0"
    scale_param {
    "InputShapes": "192x20x20, 128x192x1x1, 128"
    "OutputShape": "128x20x20"
    "Quantize[mn,mx]": [-8.0, 8.0]
    "QuantizeBits": 16
    "ConstInputs": "/model/model_19_cv1_conv/WeightsSymmetricQuantizer:0"
    "ConstInputs": "Variable.model.model_19_cv1_conv.layer.bias.uid54:0"
    "RuntimeMemory": "50.00KB"
    "ScheduleId": "446"

  }
  blobs {
    shape {
      dim: 128
      dim: 192
      dim: 1
      dim: 1
    }
  }
  blobs {
    shape {
      dim: 128
    }
  }
}
layer {
  name: "Swish: /model/model_0_act_44/Mul_smr"
  type: "Swish"
  bottom: "/model/model_0_act_44/Mul_smr:0"
  top: "/model/model_0_act_44/Mul_smr:0"
    scale_param {
    "InputShapes": "128x20x20"
    "OutputShape": "128x20x20"
    "Quantize[mn,mx]": [-8.0, 8.0]
    "QuantizeBits": 8
    "ConstInputs": "/model/model_19_cv1_conv/WeightsSymmetricQuantizer:0"
    "ConstInputs": "Variable.model.model_19_cv1_conv.layer.bias.uid54:0"
    "RuntimeMemory": "50.00KB"
    
  }

}
layer {
  name: "Pad: /model/Pad_7_to1d_1"
  type: "Pad"
  bottom: "/model/Pad_7_to1d_0:0"
  top: "/model/Pad_7_to1d_1:0"
    scale_param {
    "InputShapes": "64x42x40"
    "OutputShape": "64x42x42"
    "Quantize[mn,mx]": [0, 8.0]
    "QuantizeBits": 8
    "HasScratch": "true"
    
    "RuntimeMemory": "110.25KB"
    "ScheduleId": "448"

  }

}
layer {
  name: "Transform: transform-15-/model/model_23_cv2_0_2/layer/Conv"
  type: "Transform"
  bottom: "/model/model_23_cv2_0_2/layer/Conv:0"
  top: "transform-15-/model/model_23_cv2_0_2/layer/Conv:0"
    scale_param {
    "InputShapes": "64x40x40"
    "OutputShape": "64x40x40"
    "Quantize[mn,mx]": [-16.0, 16.0]
    "QuantizeBits": 8
    
    "RuntimeMemory": "100.00KB"
    "ScheduleId": "454"

  }

}
layer {
  name: "Transform: transform-26-(F)/model/model_19_cv1_conv/layer/Conv"
  type: "Transform"
  bottom: "/model/model_0_act_44/Mul_smr:0"
  top: "transform-26-(F)/model/model_19_cv1_conv/layer/Conv:0"
    scale_param {
    "InputShapes": "128x20x20"
    "OutputShape": "128x20x20"
    "Quantize[mn,mx]": [-8.0, 8.0]
    "QuantizeBits": 8
    
    "RuntimeMemory": "80.00KB"
    "ScheduleId": "456"

  }

}
layer {
  name: "Transform: transform-27-(F)/model/model_19_cv1_conv/layer/Conv"
  type: "Transform"
  bottom: "/model/model_0_act_44/Mul_smr:0"
  top: "transform-27-(F)/model/model_19_cv1_conv/layer/Conv:0"
    scale_param {
    "InputShapes": "128x20x20"
    "OutputShape": "128x20x20"
    "Quantize[mn,mx]": [-8.0, 8.0]
    "QuantizeBits": 8
    
    "RuntimeMemory": "80.00KB"
    "ScheduleId": "459"

  }

}
layer {
  name: "Conv2D: /model/model_23_cv3_0_1_0_conv/layer/Conv"
  type: "Convolution"
  bottom: "/model/Pad_7_to1d_1:0"
  top: "/model/model_0_act_66/Mul_smr:0"
    scale_param {
    "InputShapes": "64x42x42, 64x1x3x3, 64"
    "OutputShape": "64x40x40"
    "Quantize[mn,mx]": [-16.0, 16.0]
    "QuantizeBits": 16
    "ConstInputs": "/model/model_23_cv3_0_1_0_conv/WeightsSymmetricQuantizer:0"
    "ConstInputs": "Variable.model.model_23_cv3_0_1_0_conv.layer.bias.uid58:0"
    "RuntimeMemory": "100.00KB"
    "ScheduleId": "449"

  }
  blobs {
    shape {
      dim: 64
      dim: 1
      dim: 3
      dim: 3
    }
  }
  blobs {
    shape {
      dim: 64
    }
  }
}
layer {
  name: "Swish: /model/model_0_act_66/Mul_smr"
  type: "Swish"
  bottom: "/model/model_0_act_66/Mul_smr:0"
  top: "/model/model_0_act_66/Mul_smr:0"
    scale_param {
    "InputShapes": "64x40x40"
    "OutputShape": "64x40x40"
    "Quantize[mn,mx]": [0, 16.0]
    "QuantizeBits": 8
    "ConstInputs": "/model/model_23_cv3_0_1_0_conv/WeightsSymmetricQuantizer:0"
    "ConstInputs": "Variable.model.model_23_cv3_0_1_0_conv.layer.bias.uid58:0"
    "RuntimeMemory": "100.00KB"
    
  }

}
layer {
  name: "Reshape: /model/Reshape_17"
  type: "Reshape"
  bottom: "transform-15-/model/model_23_cv2_0_2/layer/Conv:0"
  top: "/model/Reshape_17:0"
    scale_param {
    "InputShapes": "64x40x40"
    "OutputShape": "64x1600"
    "Quantize[mn,mx]": [-16.0, 16.0]
    "QuantizeBits": 8
    "HasScratch": "true"
    
    "RuntimeMemory": "100.00KB"
    "ScheduleId": "455"

  }

}
layer {
  name: "StrideSlice: /model/Split_12sts0"
  type: "StrideSlice"
  bottom: "transform-26-(F)/model/model_19_cv1_conv/layer/Conv:0"
  top: "/model/Split_12sts0:0"
    scale_param {
    "InputShapes": "128x20x20"
    "OutputShape": "64x20x20"
    "Quantize[mn,mx]": [-8.0, 8.0]
    "QuantizeBits": 8
    
    "RuntimeMemory": "40.00KB"
    "ScheduleId": "457"

  }

}
layer {
  name: "StrideSlice: /model/Split_12sts1"
  type: "StrideSlice"
  bottom: "transform-27-(F)/model/model_19_cv1_conv/layer/Conv:0"
  top: "/model/Split_12sts1:0"
    scale_param {
    "InputShapes": "128x20x20"
    "OutputShape": "64x20x20"
    "Quantize[mn,mx]": [-8.0, 8.0]
    "QuantizeBits": 8
    
    "RuntimeMemory": "40.00KB"
    "ScheduleId": "460"

  }

}
layer {
  name: "Conv2D: /model/model_23_cv3_0_1_1_conv/layer/Conv"
  type: "Convolution"
  bottom: "/model/model_0_act_66/Mul_smr:0"
  top: "/model/model_0_act_67/Mul_smr:0"
    scale_param {
    "InputShapes": "64x40x40, 64x64x1x1, 64"
    "OutputShape": "64x40x40"
    "Quantize[mn,mx]": [-8.0, 8.0]
    "QuantizeBits": 16
    "ConstInputs": "/model/model_23_cv3_0_1_1_conv/WeightsSymmetricQuantizer:0"
    "ConstInputs": "Variable.model.model_23_cv3_0_1_1_conv.layer.bias.uid59:0"
    "RuntimeMemory": "100.00KB"
…
    "QuantizeBits": 8
    "ConstInputs": "/model/model_23_cv3_1_0_1_conv/WeightsSymmetricQuantizer:0"
    "ConstInputs": "Variable.model.model_23_cv3_1_0_1_conv.layer.bias.uid67:0"
    "RuntimeMemory": "25.00KB"
    
  }

}
layer {
  name: "Pad: /model/Pad_9_to1d_0"
  type: "Pad"
  bottom: "/model/model_0_act_60/Mul_smr:0"
  top: "/model/Pad_9_to1d_0:0"
    scale_param {
    "InputShapes": "64x20x20"
    "OutputShape": "64x22x20"
    "Quantize[mn,mx]": [0, 8.0]
    "QuantizeBits": 8
    "HasScratch": "true"
    
    "RuntimeMemory": "27.50KB"
    "ScheduleId": "479"

  }

}
layer {
  name: "Cast: Cast_to_/model/Concat_25_0"
  type: "Cast"
  bottom: "/model/model_0_act_48/Mul_smr:0"
  top: "Cast_to_/model/Concat_25_0:0"
    scale_param {
    "InputShapes": "128x10x10"
    "OutputShape": "128x10x10"
    "Quantize[mn,mx]": [-4.0, 4.0]
    "QuantizeBits": 8
    
    "RuntimeMemory": "12.50KB"
    "ScheduleId": "485"

  }

}
layer {
  name: "Pad: /model/Pad_10_to1d_0"
  type: "Pad"
  bottom: "/model/model_0_act_69/Mul_smr:0"
  top: "/model/Pad_10_to1d_0:0"
    scale_param {
    "InputShapes": "64x20x20"
    "OutputShape": "64x22x20"
    "Quantize[mn,mx]": [0, 8.0]
    "QuantizeBits": 8
    "HasScratch": "true"
    
    "RuntimeMemory": "27.50KB"
    "ScheduleId": "475"

  }

}
layer {
  name: "Pad: /model/Pad_9_to1d_1"
  type: "Pad"
  bottom: "/model/Pad_9_to1d_0:0"
  top: "/model/Pad_9_to1d_1:0"
    scale_param {
    "InputShapes": "64x22x20"
    "OutputShape": "64x22x22"
    "Quantize[mn,mx]": [0, 8.0]
    "QuantizeBits": 8
    "HasScratch": "true"
    
    "RuntimeMemory": "30.25KB"
    "ScheduleId": "480"

  }

}
layer {
  name: "Concat: /model/Concat_25"
  type: "Concat"
  bottom: "/model/model_0_act_34/Mul_smr:0"
  bottom: "Cast_to_/model/Concat_25_0:0"
  top: "/model/Concat_25:0"
    scale_param {
    "InputShapes": "128x10x10, 256x10x10"
    "OutputShape": "384x10x10"
    "Quantize[mn,mx]": [-4.0, 4.0]
    "QuantizeBits": 8
    
    "RuntimeMemory": "37.50KB"
    "ScheduleId": "486"

  }

}
layer {
  name: "Pad: /model/Pad_10_to1d_1"
  type: "Pad"
  bottom: "/model/Pad_10_to1d_0:0"
  top: "/model/Pad_10_to1d_1:0"
    scale_param {
    "InputShapes": "64x22x20"
    "OutputShape": "64x22x22"
    "Quantize[mn,mx]": [0, 8.0]
    "QuantizeBits": 8
    "HasScratch": "true"
    
    "RuntimeMemory": "30.25KB"
    "ScheduleId": "476"

  }

}
layer {
  name: "Conv2D: /model/model_23_cv2_1_1_conv/layer/Conv"
  type: "Convolution"
  bottom: "/model/Pad_9_to1d_1:0"
  top: "/model/model_0_act_61/Mul_smr:0"
    scale_param {
    "InputShapes": "64x22x22, 64x64x3x3, 64"
    "OutputShape": "64x20x20"
    "Quantize[mn,mx]": [-16.0, 16.0]
    "QuantizeBits": 16
    "ConstInputs": "/model/model_23_cv2_1_1_conv/WeightsSymmetricQuantizer:0"
    "ConstInputs": "Variable.model.model_23_cv2_1_1_conv.layer.bias.uid68:0"
    "RuntimeMemory": "25.00KB"
    "ScheduleId": "481"

  }
  blobs {
    shape {
      dim: 64
      dim: 64
      dim: 3
      dim: 3
    }
  }
  blobs {
    shape {
      dim: 64
    }
  }
}
layer {
  name: "Swish: /model/model_0_act_61/Mul_smr"
  type: "Swish"
  bottom: "/model/model_0_act_61/Mul_smr:0"
  top: "/model/model_0_act_61/Mul_smr:0"
    scale_param {
    "InputShapes": "64x20x20"
    "OutputShape": "64x20x20"
    "Quantize[mn,mx]": [0, 16.0]
    "QuantizeBits": 8
    "ConstInputs": "/model/model_23_cv2_1_1_conv/WeightsSymmetricQuantizer:0"
    "ConstInputs": "Variable.model.model_23_cv2_1_1_conv.layer.bias.uid68:0"
    "RuntimeMemory": "25.00KB"
    
  }

}
layer {
  name: "Conv2D: /model/model_22_cv1_conv/layer/Conv"
  type: "Convolution"
  bottom: "/model/Concat_25:0"
  top: "/model/model_0_act_49/Mul_smr:0"
    scale_param {
    "InputShapes": "384x10x10, 256x384x1x1, 256"
    "OutputShape": "256x10x10"
    "Quantize[mn,mx]": [-8.0, 8.0]
    "QuantizeBits": 16
    "ConstInputs": "/model/model_22_cv1_conv/WeightsSymmetricQuantizer:0"
    "ConstInputs": "Variable.model.model_22_cv1_conv.layer.bias.uid66:0"
    "RuntimeMemory": "25.00KB"
    "ScheduleId": "487"

  }
  blobs {
    shape {
      dim: 256
      dim: 384
      dim: 1
      dim: 1
    }
  }
  blobs {
    shape {
      dim: 256
    }
  }
}
layer {
  name: "Swish: /model/model_0_act_49/Mul_smr"
  type: "Swish"
  bottom: "/model/model_0_act_49/Mul_smr:0"
  top: "/model/model_0_act_49/Mul_smr:0"
    scale_param {
    "InputShapes": "256x10x10"
    "OutputShape": "256x10x10"
    "Quantize[mn,mx]": [-8.0, 8.0]
    "QuantizeBits": 8
    "ConstInputs": "/model/model_22_cv1_conv/WeightsSymmetricQuantizer:0"
    "ConstInputs": "Variable.model.model_22_cv1_conv.layer.bias.uid66:0"
    "RuntimeMemory": "25.00KB"
    
  }

}
layer {
  name: "Conv2D: /model/model_23_cv3_1_1_0_conv/layer/Conv"
  type: "Convolution"
  bottom: "/model/Pad_10_to1d_1:0"
  top: "/model/model_0_act_70/Mul_smr:0"
    scale_param {
    "InputShapes": "64x22x22, 64x1x3x3, 64"
    "OutputShape": "64x20x20"
    "Quantize[mn,mx]": [-16.0, 16.0]
    "QuantizeBits": 16
    "ConstInputs": "/model/model_23_cv3_1_1_0_conv/WeightsSymmetricQuantizer:0"
    "ConstInputs": "Variable.model.model_23_cv3_1_1_0_conv.layer.bias.uid72:0"
    "RuntimeMemory": "25.00KB"
    "ScheduleId": "477"

  }
  blobs {
    shape {
      dim: 64
      dim: 1
      dim: 3
      dim: 3
    }
  }
  blobs {
    shape {
      dim: 64
    }
  }
}
layer {
  name: "Swish: /model/model_0_act_70/Mul_smr"
  type: "Swish"
  bottom: "/model/model_0_act_70/Mul_smr:0"
  top: "/model/model_0_act_70/Mul_smr:0"
    scale_param {
    "InputShapes": "64x20x20"
    "OutputShape": "64x20x20"
    "Quantize[mn,mx]": [0, 16.0]
    "QuantizeBits": 8
    "ConstInputs": "/model/model_23_cv3_1_1_0_conv/WeightsSymmetricQuantizer:0"
    "ConstInputs": "Variable.model.model_23_cv3_1_1_0_conv.layer.bias.uid72:0"
    "RuntimeMemory": "25.00KB"
    
  }

}
layer {
  name: "Conv2D: /model/model_23_cv2_1_2/layer/Conv"
  type: "Convolution"
  bottom: "/model/model_0_act_61/Mul_smr:0"
  top: "/model/model_23_cv2_1_2/layer/Conv:0"
    scale_param {
    "InputShapes": "64x20x20, 64x64x1x1, 64"
    "OutputShape": "64x20x20"
    "Quantize[mn,mx]": [-16.0, 16.0]
    "QuantizeBits": 8
    "ConstInputs": "/model/model_23_cv2_1_2/WeightsSymmetricQuantizer:0"
    "ConstInputs": "Variable.model.model_23_cv2_1_2.layer.bias.uid71:0"
    "RuntimeMemory": "25.00KB"
    "ScheduleId": "482"

  }
  blobs {
    shape {
      dim: 64
      dim: 64
      dim: 1
      dim: 1
    }
  }
  blobs {
    shape {
      dim: 64
    }
  }
}
layer {
  name: "Transform: transform-20-(F)/model/model_22_cv1_conv/layer/Conv"
  type: "Transform"
  bottom: "/model/model_0_act_49/Mul_smr:0"
  top: "transform-20-(F)/model/model_22_cv1_conv/layer/Conv:0"
    scale_param {
    "InputShapes": "256x10x10"
    "OutputShape": "256x10x10"
    "Quantize[mn,mx]": [-8.0, 8.0]
    "QuantizeBits": 8
    
    "RuntimeMemory": "80.00KB"
    "ScheduleId": "490"

  }

}
layer {
  name: "Transform: transform-21-(F)/model/model_22_cv1_conv/layer/Conv"
  type: "Transform"
  bottom: "/model/model_0_act_49/Mul_smr:0"
  top: "transform-21-(F)/model/model_22_cv1_conv/layer/Conv:0"
    scale_param {
    "InputShapes": "256x10x10"
    "OutputShape": "256x10x10"
    "Quantize[mn,mx]": [-8.0, 8.0]
    "QuantizeBits": 8
    
    "RuntimeMemory": "80.00KB"
    "ScheduleId": "493"

  }

}
layer {
  name: "Conv2D: /model/model_23_cv3_1_1_1_conv/layer/Conv"
  type: "Convolution"
  bottom: "/model/model_0_act_70/Mul_smr:0"
  top: "/model/model_0_act_71/Mul_smr:0"
    scale_param {
    "InputShapes": "64x20x20, 64x64x1x1, 64"
    "OutputShape": "64x20x20"
    "Quantize[mn,mx]": [-16.0, 16.0]
    "QuantizeBits": 16
    "ConstInputs": "/model/model_23_cv3_1_1_1_conv/WeightsSymmetricQuantizer:0"
    "ConstInputs": "Variable.model.model_23_cv3_1_1_1_conv.layer.bias.uid74:0"
    "RuntimeMemory": "25.00KB"
    "ScheduleId": "478"

  }
  blobs {
    shape {
      dim: 64
      dim: 64
      dim: 1
      dim: 1
    }
  }
  blobs {
    shape {
      dim: 64
    }
  }
}
layer {
  name: "Swish: /model/model_0_act_71/Mul_smr"
  type: "Swish"
  bottom: "/model/model_0_act_71/Mul_smr:0"
  top: "/model/model_0_act_71/Mul_smr:0"
    scale_param {
    "InputShapes": "64x20x20"
    "OutputShape": "64x20x20"
    "Quantize[mn,mx]": [0, 16.0]
    "QuantizeBits": 8
    "ConstInputs": "/model/model_23_cv3_1_1_1_conv/WeightsSymmetricQuantizer:0"
    "ConstInputs": "Variable.model.model_23_cv3_1_1_1_conv.layer.bias.uid74:0"
    "RuntimeMemory": "25.00KB"
    
  }

}
layer {
  name: "Transform: transform-14-/model/model_23_cv2_1_2/layer/Conv"
  type: "Transform"
  bottom: "/model/model_23_cv2_1_2/layer/Conv:0"
  top: "transform-14-/model/model_23_cv2_1_2/layer/Conv:0"
    scale_param {
    "InputShapes": "64x20x20"
    "OutputShape": "64x20x20"
    "Quantize[mn,mx]": [-16.0, 16.0]
    "QuantizeBits": 8
    
    "RuntimeMemory": "25.00KB"
    "ScheduleId": "488"

  }

}
layer {
  name: "StrideSlice: /model/Split_13sts0"
  type: "StrideSlice"
  bottom: "transform-20-(F)/model/model_22_cv1_conv/layer/Conv:0"
  top: "/model/Split_13sts0:0"
    scale_param {
    "InputShapes": "256x10x10"
    "OutputShape": "128x10x10"
    "Quantize[mn,mx]": [-8.0, 8.0]
    "QuantizeBits": 8
    
    "RuntimeMemory": "40.00KB"
    "ScheduleId": "491"

  }

}
layer {
  name: "StrideSlice: /model/Split_13sts1"
  type: "StrideSlice"
  bottom: "transform-21-(F)/model/model_22_cv1_conv/layer/Conv:0"
  top: "/model/Split_13sts1:0"
    scale_param {
    "InputShapes": "256x10x10"
    "OutputShape": "128x10x10"
    "Quantize[mn,mx]": [-8.0, 8.0]
    "QuantizeBits": 8
    
    "RuntimeMemory": "40.00KB"
    "ScheduleId": "494"

  }

}
layer {
  name: "Conv2D: /model/model_23_cv3_1_2/layer/Conv"
  type: "Convolution"
  bottom: "/model/model_0_act_71/Mul_smr:0"
  top: "/model/model_23_cv3_1_2/layer/Conv:0"
    scale_param {
    "InputShapes": "64x20x20, 1x64x1x1, 1"
    "OutputShape": "1x20x20"
    "Quantize[mn,mx]": [-32.0, 32.0]
    "QuantizeBits": 8
    "ConstInputs": "/model/model_23_cv3_1_2/WeightsSymmetricQuantizer:0"
    "ConstInputs": "Variable.model.model_23_cv3_1_2.layer.bias.uid76:0"
    "RuntimeMemory": "640B"
    "ScheduleId": "483"

  }
  blobs {
    shape {
      dim: 1
      dim: 64
      dim: 1
      dim: 1
    }
  }
  blobs {
    shape {
      dim: 1
    }
  }
}
layer {
  name: "Reshape: /model/Reshape_27"
  type: "Reshape"
  bottom: "transform-14-/model/model_23_cv2_1_2/layer/Conv:0"
  top: "/model/Reshape_27:0"
    scale_param {
    "InputShapes": "64x20x20"
    "OutputShape": "64x400"
    "Quantize[mn,mx]": [-16.0, 16.0]
    "QuantizeBits": 8
    "HasScratch": "true"
    
    "RuntimeMemory": "26.00KB"
    "ScheduleId": "489"

  }

}
layer {
  name: "Transform: transform-16-/model/Split_13sts0"
  type: "Transform"
  bottom: "/model/Split_13sts0:0"
  top: "transform-16-/model/Split_13sts0:0"
    scale_param {
    "InputShapes": "128x10x10"
    "OutputShape": "128x10x10"
    "Quantize[mn,mx]": [-8.0, 8.0]
    "QuantizeBits": 8
    
    "RuntimeMemory": "12.50KB"
    "ScheduleId": "492"

  }

}
layer {
  name: "Transform: transform-17-/model/Split_13sts1"
  type: "Transform"
  bottom: "/model/Split_13sts1:0"
  top: "transform-17-/model/Split_13sts1:0"
    scale_param {
    "InputShapes": "128x10x10"
    "OutputShape": "128x10x10"
    "Quantize[mn,mx]": [-8.0, 8.0]
    "QuantizeBits": 8
    
    "RuntimeMemory": "12.50KB"
    "ScheduleId": "495"

  }

}
layer {
  name: "Transform: transform-18-/model/Split_13sts1"
  type: "Transform"
  bottom: "/model/Split_13sts1:0"
  top: "transform-18-/model/Split_13sts1:0"
    scale_param {
    "InputShapes": "128x10x10"
    "OutputShape": "128x10x10"
    "Quantize[mn,mx]": [-8.0, 8.0]
    "QuantizeBits": 8
    
    "RuntimeMemory": "12.50KB"
    "ScheduleId": "496"

  }

}
layer {
  name: "Transform: transform-19-/model/Split_13sts1"
  type: "Transform"
  bottom: "/model/Split_13sts1:0"
  top: "transform-19-/model/Split_13sts1:0"
    scale_param {
    "InputShapes": "128x10x10"
    "OutputShape": "128x10x10"
    "Quantize[mn,mx]": [-8.0, 8.0]
    "QuantizeBits": 8
    
    "RuntimeMemory": "12.50KB"
    "ScheduleId": "498"

  }

}
layer {
  name: "Reshape: /model/Reshape_28"
  type: "Reshape"
  bottom: "/model/model_23_cv3_1_2/layer/Conv:0"
  top: "/model/Reshape_28:0"
    scale_param {
    "InputShapes": "1x20x20"
    "OutputShape": "1x400"
    "Quantize[mn,mx]": [-32.0, 32.0]
    "QuantizeBits": 8
    "HasScratch": "true"
    
    "RuntimeMemory": "416B"
    "ScheduleId": "484"

  }

}
layer {
  name: "Conv2D: /model/model_22_m_0_cv2_conv/layer/Conv"
  type: "Convolution"
  bottom: "transform-18-/model/Split_13sts1:0"
  top: "/model/model_0_act_55/Mul_smr:0"
    scale_param {
    "InputShapes": "128x10x10, 64x128x1x1, 64"
    "OutputShape": "64x10x10"
    "Quantize[mn,mx]": [-8.0, 8.0]
    "QuantizeBits": 16
    "ConstInputs": "/model/model_22_m_0_cv2_conv/WeightsSymmetricQuantizer:0"
    "ConstInputs": "Variable.model.model_22_m_0_cv2_conv.layer.bias.uid70:0"
    "RuntimeMemory": "6.25KB"
    "ScheduleId": "497"

  }
  blobs {
    shape {
      dim: 64
      dim: 128
      dim: 1
      dim: 1
    }
  }
  blobs {
    shape {
      dim: 64
    }
  }
}
layer {
  name: "Swish: /model/model_0_act_55/Mul_smr"
  type: "Swish"
  bottom: "/model/model_0_act_55/Mul_smr:0"
  top: "/model/model_0_act_55/Mul_smr:0"
    scale_param {
    "InputShapes": "64x10x10"
    "OutputShape": "64x10x10"
    "Quantize[mn,mx]": [-8.0, 8.0]
    "QuantizeBits": 8
    "ConstInputs": "/model/model_22_m_0_cv2_conv/WeightsSymmetricQuantizer:0"
    "ConstInputs": "Variable.model.model_22_m_0_cv2_conv.layer.bias.uid70:0"
    "RuntimeMemory": "6.25KB"
    
  }

}
layer {
  name: "Conv2D: /model/model_22_m_0_cv1_conv/layer/Conv"
  type: "Convolution"
  bottom: "transform-19-/model/Split_13sts1:0"
  top: "/model/model_0_act_50/Mul_smr:0"
    scale_param {
    "InputShapes": "128x10x10, 64x128x1x1, 64"
    "OutputShape": "64x10x10"
    "Quantize[mn,mx]": [-8.0, 8.0]
    "QuantizeBits": 16
    "ConstInputs": "/model/model_22_m_0_cv1_conv/WeightsSymmetricQuantizer:0"
    "ConstInputs": "Variable.model.model_22_m_0_cv1_conv.layer.bias.uid69:0"
    "RuntimeMemory": "6.25KB"
    "ScheduleId": "499"

  }
  blobs {
    shape {
      dim: 64
      dim: 128
      dim: 1
      dim: 1
    }
  }
  blobs {
    shape {
      dim: 64
    }
  }
}
layer {
  name: "Swish: /model/model_0_act_50/Mul_smr"
  type: "Swish"
  bottom: "/model/model_0_act_50/Mul_smr:0"
  top: "/model/model_0_act_50/Mul_smr:0"
    scale_param {
    "InputShapes": "64x10x10"
    "OutputShape": "64x10x10"
    "Quantize[mn,mx]": [-2.0, 2.0]
    "QuantizeBits": 8
    "ConstInputs": "/model/model_22_m_0_cv1_conv/WeightsSymmetricQuantizer:0"
    "ConstInputs": "Variable.model.model_22_m_0_cv1_conv.layer.bias.uid69:0"
    "RuntimeMemory": "6.25KB"
    
  }

}
layer {
  name: "Conv2D: /model/model_22_m_0_m_0_cv1_conv/layer/Conv"
  type: "Convolution"
  bottom: "/model/model_0_act_50/Mul_smr:0"
  top: "/model/model_0_act_51/Mul_smr:0"
    scale_param {
    "InputShapes": "64x10x10, 64x64x3x3, 64"
    "OutputShape": "64x10x10"
    "Quantize[mn,mx]": [-8.0, 8.0]
    "QuantizeBits": 16
    "ConstInputs": "/model/model_22_m_0_m_0_cv1_conv/WeightsSymmetricQuantizer:0"
    "ConstInputs": "Variable.model.model_22_m_0_m_0_cv1_conv.layer.bias.uid73:0"
    "RuntimeMemory": "6.25KB"
    "ScheduleId": "500"

  }
  blobs {
    shape {
      dim: 64
      dim: 64
      dim: 3
      dim: 3
    }
  }
  blobs {
    shape {
      dim: 64
    }
  }
}
layer {
  name: "Swish: /model/model_0_act_51/Mul_smr"
  type: "Swish"
  bottom: "/model/model_0_act_51/Mul_smr:0"
  top: "/model/model_0_act_51/Mul_smr:0"
    scale_param {
    "InputShapes": "64x10x10"
    "OutputShape": "64x10x10"
    "Quantize[mn,mx]": [-4.0, 4.0]
    "QuantizeBits": 8
    "ConstInputs": "/model/model_22_m_0_m_0_cv1_conv/WeightsSymmetricQuantizer:0"
    "ConstInputs": "Variable.model.model_22_m_0_m_0_cv1_conv.layer.bias.uid73:0"
    "RuntimeMemory": "6.25KB"
    
  }

}
layer {
  name: "Conv2D: /model/model_22_m_0_m_0_cv2_conv/layer/Conv"
  type: "Convolution"
  bottom: "/model/model_0_act_51/Mul_smr:0"
  top: "/model/model_0_act_52/Mul_smr:0"
    scale_param {
    "InputShapes": "64x10x10, 64x64x3x3, 64"
    "OutputShape": "64x10x10"
    "Quantize[mn,mx]": [-8.0, 8.0]
    "QuantizeBits": 16
    "ConstInputs": "/model/model_22_m_0_m_0_cv2_conv/WeightsSymmetricQuantizer:0"
    "ConstInputs": "Variable.model.model_22_m_0_m_0_cv2_conv.layer.bias.uid75:0"
    "RuntimeMemory": "6.25KB"
    "ScheduleId": "501"

  }
  blobs {
    shape {
      dim: 64
      dim: 64
      dim: 3
      dim: 3
    }
  }
  blobs {
    shape {
      dim: 64
    }
  }
}
layer {
  name: "Swish: /model/model_0_act_52/Mul_smr"
  type: "Swish"
  bottom: "/model/model_0_act_52/Mul_smr:0"
  top: "/model/model_0_act_52/Mul_smr:0"
    scale_param {
    "InputShapes": "64x10x10"
    "OutputShape": "64x10x10"
    "Quantize[mn,mx]": [-8.0, 8.0]
    "QuantizeBits": 8
    "ConstInputs": "/model/model_22_m_0_m_0_cv2_conv/WeightsSymmetricQuantizer:0"
    "ConstInputs": "Variable.model.model_22_m_0_m_0_cv2_conv.layer.bias.uid75:0"
    "RuntimeMemory": "6.25KB"
    
  }

}
layer {
  name: "Add: /model/Add_35"
  type: "Add"
  bottom: "/model/model_0_act_50/Mul_smr:0"
  bottom: "/model/model_0_act_52/Mul_smr:0"
  top: "/model/Add_35:0"
    scale_param {
    "InputShapes": "64x10x10, 64x10x10"
    "OutputShape": "64x10x10"
    "Quantize[mn,mx]": [-8.0, 8.0]
    "QuantizeBits": 8
    
    "RuntimeMemory": "6.25KB"
    "ScheduleId": "502"

  }

}
layer {
  name: "Conv2D: /model/model_22_m_0_m_1_cv1_conv/layer/Conv"
  type: "Convolution"
  bottom: "/model/Add_35:0"
  top: "/model/model_0_act_53/Mul_smr:0"
    scale_param {
    "InputShapes": "64x10x10, 64x64x3x3, 64"
    "OutputShape": "64x10x10"
    "Quantize[mn,mx]": [-8.0, 8.0]
    "QuantizeBits": 16
    "ConstInputs": "/model/model_22_m_0_m_1_cv1_conv/WeightsSymmetricQuantizer:0"
    "ConstInputs": "Variable.model.model_22_m_0_m_1_cv1_conv.layer.bias.uid77:0"
    "RuntimeMemory": "6.25KB"
    "ScheduleId": "503"

  }
  blobs {
    shape {
      dim: 64
      dim: 64
      dim: 3
      dim: 3
    }
  }
  blobs {
    shape {
      dim: 64
    }
  }
}
layer {
  name: "Swish: /model/model_0_act_53/Mul_smr"
  type: "Swish"
  bottom: "/model/model_0_act_53/Mul_smr:0"
  top: "/model/model_0_act_53/Mul_smr:0"
    scale_param {
    "InputShapes": "64x10x10"
    "OutputShape": "64x10x10"
    "Quantize[mn,mx]": [0, 8.0]
    "QuantizeBits": 8
    "ConstInputs": "/model/model_22_m_0_m_1_cv1_conv/WeightsSymmetricQuantizer:0"
    "ConstInputs": "Variable.model.model_22_m_0_m_1_cv1_conv.layer.bias.uid77:0"
    "RuntimeMemory": "6.25KB"
    
  }

}
layer {
  name: "Pad: /model/Pad_11_to1d_0"
  type: "Pad"
  bottom: "/model/model_0_act_53/Mul_smr:0"
  top: "/model/Pad_11_to1d_0:0"
    scale_param {
    "InputShapes": "64x10x10"
    "OutputShape": "64x12x10"
    "Quantize[mn,mx]": [0, 8.0]
    "QuantizeBits": 8
    "HasScratch": "true"
    
    "RuntimeMemory": "7.50KB"
    "ScheduleId": "504"

  }

}
layer {
  name: "Pad: /model/Pad_11_to1d_1"
  type: "Pad"
  bottom: "/model/Pad_11_to1d_0:0"
  top: "/model/Pad_11_to1d_1:0"
    scale_param {
    "InputShapes": "64x12x10"
    "OutputShape": "64x12x12"
    "Quantize[mn,mx]": [0, 8.0]
    "QuantizeBits": 8
    "HasScratch": "true"
    
    "RuntimeMemory": "9.00KB"
    "ScheduleId": "505"

  }

}
layer {
  name: "Conv2D: /model/model_22_m_0_m_1_cv2_conv/layer/Conv"
  type: "Convolution"
  bottom: "/model/Pad_11_to1d_1:0"
  top: "/model/model_0_act_54/Mul_smr:0"
    scale_param {
    "InputShapes": "64x12x12, 64x64x3x3, 64"
    "OutputShape": "64x10x10"
    "Quantize[mn,mx]": [-16.0, 16.0]
    "QuantizeBits": 16
    "ConstInputs": "/model/model_22_m_0_m_1_cv2_conv/WeightsSymmetricQuantizer:0"
    "ConstInputs": "Variable.model.model_22_m_0_m_1_cv2_conv.layer.bias.uid78:0"
    "RuntimeMemory": "6.25KB"
    "ScheduleId": "506"

  }
  blobs {
    shape {
      dim: 64
      dim: 64
      dim: 3
      dim: 3
    }
  }
  blobs {
    shape {
      dim: 64
    }
  }
}
layer {
  name: "Swish: /model/model_0_act_54/Mul_smr"
  type: "Swish"
  bottom: "/model/model_0_act_54/Mul_smr:0"
  top: "/model/model_0_act_54/Mul_smr:0"
    scale_param {
    "InputShapes": "64x10x10"
    "OutputShape": "64x10x10"
    "Quantize[mn,mx]": [-16.0, 16.0]
    "QuantizeBits": 8
    "ConstInputs": "/model/model_22_m_0_m_1_cv2_conv/WeightsSymmetricQuantizer:0"
    "ConstInputs": "Variable.model.model_22_m_0_m_1_cv2_conv.layer.bias.uid78:0"
    "RuntimeMemory": "6.25KB"
    
  }

}
layer {
  name: "Add: /model/Add_37"
  type: "Add"
  bottom: "/model/Add_35:0"
  bottom: "/model/model_0_act_54/Mul_smr:0"
  top: "/model/Add_37:0"
    scale_param {
    "InputShapes": "64x10x10, 64x10x10"
    "OutputShape": "64x10x10"
    "Quantize[mn,mx]": [-16.0, 16.0]
    "QuantizeBits": 8
    
    "RuntimeMemory": "6.25KB"
    "ScheduleId": "507"

  }

}
layer {
  name: "Concat: /model/Concat_29"
  type: "Concat"
  bottom: "/model/Add_37:0"
  bottom: "/model/model_0_act_55/Mul_smr:0"
  top: "/model/Concat_29:0"
    scale_param {
    "InputShapes": "64x10x10, 64x10x10"
    "OutputShape": "128x10x10"
    "Quantize[mn,mx]": [-16.0, 16.0]
    "QuantizeBits": 8
    
    "RuntimeMemory": "12.50KB"
    "ScheduleId": "508"

  }

}
layer {
  name: "Conv2D: /model/model_22_m_0_cv3_conv/layer/Conv"
  type: "Convolution"
  bottom: "/model/Concat_29:0"
  top: "/model/model_0_act_56/Mul_smr:0"
    scale_param {
    "InputShapes": "128x10x10, 128x128x1x1, 128"
    "OutputShape": "128x10x10"
    "Quantize[mn,mx]": [-16.0, 16.0]
    "QuantizeBits": 16
    "ConstInputs": "/model/model_22_m_0_cv3_conv/WeightsSymmetricQuantizer:0"
    "ConstInputs": "Variable.model.model_22_m_0_cv3_conv.layer.bias.uid79:0"
    "RuntimeMemory": "12.50KB"
    "ScheduleId": "509"

  }
  blobs {
    shape {
      dim: 128
      dim: 128
      dim: 1
      dim: 1
    }
  }
  blobs {
    shape {
      dim: 128
    }
  }
}
layer {
  name: "Swish: /model/model_0_act_56/Mul_smr"
  type: "Swish"
  bottom: "/model/model_0_act_56/Mul_smr:0"
  top: "/model/model_0_act_56/Mul_smr:0"
    scale_param {
    "InputShapes": "128x10x10"
    "OutputShape": "128x10x10"
    "Quantize[mn,mx]": [-16.0, 16.0]
    "QuantizeBits": 8
    "ConstInputs": "/model/model_22_m_0_cv3_conv/WeightsSymmetricQuantizer:0"
    "ConstInputs": "Variable.model.model_22_m_0_cv3_conv.layer.bias.uid79:0"
    "RuntimeMemory": "12.50KB"
    
  }

}
layer {
  name: "Concat: /model/Concat_30"
  type: "Concat"
  bottom: "/model/model_0_act_56/Mul_smr:0"
  bottom: "transform-16-/model/Split_13sts0:0"
  bottom: "transform-17-/model/Split_13sts1:0"
  top: "/model/Concat_30:0"
    scale_param {
    "InputShapes": "128x10x10, 128x10x10, 128x10x10"
    "OutputShape": "384x10x10"
    "Quantize[mn,mx]": [-16.0, 16.0]
    "QuantizeBits": 8
    
    "RuntimeMemory": "37.50KB"
    "ScheduleId": "510"

  }

}
layer {
  name: "Conv2D: /model/model_22_cv2_conv/layer/Conv"
  type: "Convolution"
  bottom: "/model/Concat_30:0"
  top: "/model/model_0_act_57/Mul_smr:0"
    scale_param {
    "InputShapes": "384x10x10, 256x384x1x1, 256"
    "OutputShape": "256x10x10"
    "Quantize[mn,mx]": [-16.0, 16.0]
    "QuantizeBits": 16
    "ConstInputs": "/model/model_22_cv2_conv/WeightsSymmetricQuantizer:0"
    "ConstInputs": "Variable.model.model_22_cv2_conv.layer.bias.uid80:0"
    "RuntimeMemory": "25.00KB"
    "ScheduleId": "511"

  }
  blobs {
    shape {
      dim: 256
      dim: 384
      dim: 1
      dim: 1
    }
  }
  blobs {
    shape {
      dim: 256
    }
  }
}
layer {
  name: "Swish: /model/model_0_act_57/Mul_smr"
  type: "Swish"
  bottom: "/model/model_0_act_57/Mul_smr:0"
  top: "/model/model_0_act_57/Mul_smr:0"
    scale_param {
    "InputShapes": "256x10x10"
    "OutputShape": "256x10x10"
    "Quantize[mn,mx]": [-16.0, 16.0]
    "QuantizeBits": 8
    "ConstInputs": "/model/model_22_cv2_conv/WeightsSymmetricQuantizer:0"
    "ConstInputs": "Variable.model.model_22_cv2_conv.layer.bias.uid80:0"
    "RuntimeMemory": "25.00KB"
    
  }

}
layer {
  name: "Conv2D: /model/model_23_cv3_2_0_0_conv/layer/Conv"
  type: "Convolution"
  bottom: "/model/model_0_act_57/Mul_smr:0"
  top: "/model/model_0_act_72/Mul_smr:0"
    scale_param {
    "InputShapes": "256x10x10, 256x1x3x3, 256"
    "OutputShape": "256x10x10"
    "Quantize[mn,mx]": [-16.0, 16.0]
    "QuantizeBits": 16
    "ConstInputs": "/model/model_23_cv3_2_0_0_conv/WeightsSymmetricQuantizer:0"
    "ConstInputs": "Variable.model.model_23_cv3_2_0_0_conv.layer.bias.uid82:0"
    "RuntimeMemory": "25.00KB"
    "ScheduleId": "513"

  }
  blobs {
    shape {
      dim: 256
      dim: 1
      dim: 3
      dim: 3
    }
  }
  blobs {
    shape {
      dim: 256
    }
  }
}
layer {
  name: "Swish: /model/model_0_act_72/Mul_smr"
  type: "Swish"
  bottom: "/model/model_0_act_72/Mul_smr:0"
  top: "/model/model_0_act_72/Mul_smr:0"
    scale_param {
    "InputShapes": "256x10x10"
    "OutputShape": "256x10x10"
    "Quantize[mn,mx]": [0, 16.0]
    "QuantizeBits": 8
    "ConstInputs": "/model/model_23_cv3_2_0_0_conv/WeightsSymmetricQuantizer:0"
    "ConstInputs": "Variable.model.model_23_cv3_2_0_0_conv.layer.bias.uid82:0"
    "RuntimeMemory": "25.00KB"
    
  }

}
layer {
  name: "Conv2D: /model/model_23_cv2_2_0_conv/layer/Conv"
  type: "Convolution"
  bottom: "/model/model_0_act_57/Mul_smr:0"
  top: "/model/model_0_act_62/Mul_smr:0"
    scale_param {
    "InputShapes": "256x10x10, 64x256x3x3, 64"
    "OutputShape": "64x10x10"
    "Quantize[mn,mx]": [-16.0, 16.0]
    "QuantizeBits": 16
    "ConstInputs": "/model/model_23_cv2_2_0_conv/WeightsSymmetricQuantizer:0"
    "ConstInputs": "Variable.model.model_23_cv2_2_0_conv.layer.bias.uid81:0"
    "RuntimeMemory": "6.25KB"
    "ScheduleId": "512"

  }
  blobs {
    shape {
      dim: 64
      dim: 256
      dim: 3
      dim: 3
    }
  }
  blobs {
    shape {
      dim: 64
    }
  }
}
layer {
  name: "Swish: /model/model_0_act_62/Mul_smr"
  type: "Swish"
  bottom: "/model/model_0_act_62/Mul_smr:0"
  top: "/model/model_0_act_62/Mul_smr:0"
    scale_param {
    "InputShapes": "64x10x10"
    "OutputShape": "64x10x10"
    "Quantize[mn,mx]": [0, 16.0]
    "QuantizeBits": 8
    "ConstInputs": "/model/model_23_cv2_2_0_conv/WeightsSymmetricQuantizer:0"
    "ConstInputs": "Variable.model.model_23_cv2_2_0_conv.layer.bias.uid81:0"
    "RuntimeMemory": "6.25KB"
    
  }

}
layer {
  name: "Conv2D: /model/model_23_cv3_2_0_1_conv/layer/Conv"
  type: "Convolution"
  bottom: "/model/model_0_act_72/Mul_smr:0"
  top: "/model/model_0_act_73/Mul_smr:0"
    scale_param {
    "InputShapes": "256x10x10, 64x256x1x1, 64"
    "OutputShape": "64x10x10"
    "Quantize[mn,mx]": [-16.0, 16.0]
    "QuantizeBits": 16
    "ConstInputs": "/model/model_23_cv3_2_0_1_conv/WeightsSymmetricQuantizer:0"
    "ConstInputs": "Variable.model.model_23_cv3_2_0_1_conv.layer.bias.uid83:0"
    "RuntimeMemory": "6.25KB"
    "ScheduleId": "514"

  }
  blobs {
    shape {
      dim: 64
      dim: 256
      dim: 1
      dim: 1
    }
  }
  blobs {
    shape {
      dim: 64
    }
  }
}
layer {
  name: "Swish: /model/model_0_act_73/Mul_smr"
  type: "Swish"
  bottom: "/model/model_0_act_73/Mul_smr:0"
  top: "/model/model_0_act_73/Mul_smr:0"
    scale_param {
    "InputShapes": "64x10x10"
    "OutputShape": "64x10x10"
    "Quantize[mn,mx]": [0, 16.0]
    "QuantizeBits": 8
    "ConstInputs": "/model/model_23_cv3_2_0_1_conv/WeightsSymmetricQuantizer:0"
    "ConstInputs": "Variable.model.model_23_cv3_2_0_1_conv.layer.bias.uid83:0"
    "RuntimeMemory": "6.25KB"
    
  }

}
layer {
  name: "Pad: /model/Pad_12_to1d_0"
  type: "Pad"
  bottom: "/model/model_0_act_62/Mul_smr:0"
  top: "/model/Pad_12_to1d_0:0"
    scale_param {
    "InputShapes": "64x10x10"
    "OutputShape": "64x12x10"
    "Quantize[mn,mx]": [0, 16.0]
    "QuantizeBits": 8
    "HasScratch": "true"
    
    "RuntimeMemory": "7.50KB"
    "ScheduleId": "515"

  }

}
layer {
  name: "Pad: /model/Pad_13_to1d_0"
  type: "Pad"
  bottom: "/model/model_0_act_73/Mul_smr:0"
  top: "/model/Pad_13_to1d_0:0"
    scale_param {
    "InputShapes": "64x10x10"
    "OutputShape": "64x12x10"
    "Quantize[mn,mx]": [0, 16.0]
    "QuantizeBits": 8
    "HasScratch": "true"
    
    "RuntimeMemory": "7.50KB"
    "ScheduleId": "518"

  }

}
layer {
  name: "Pad: /model/Pad_12_to1d_1"
  type: "Pad"
  bottom: "/model/Pad_12_to1d_0:0"
  top: "/model/Pad_12_to1d_1:0"
    scale_param {
    "InputShapes": "64x12x10"
    "OutputShape": "64x12x12"
    "Quantize[mn,mx]": [0, 16.0]
    "QuantizeBits": 8
    "HasScratch": "true"
    
    "RuntimeMemory": "9.00KB"
    "ScheduleId": "516"

  }

}
layer {
  name: "Pad: /model/Pad_13_to1d_1"
  type: "Pad"
  bottom: "/model/Pad_13_to1d_0:0"
  top: "/model/Pad_13_to1d_1:0"
    scale_param {
    "InputShapes": "64x12x10"
    "OutputShape": "64x12x12"
    "Quantize[mn,mx]": [0, 16.0]
    "QuantizeBits": 8
    "HasScratch": "true"
    
    "RuntimeMemory": "9.00KB"
    "ScheduleId": "519"

  }

}
layer {
  name: "Conv2D: /model/model_23_cv2_2_1_conv/layer/Conv"
  type: "Convolution"
  bottom: "/model/Pad_12_to1d_1:0"
  top: "/model/model_0_act_63/Mul_smr:0"
    scale_param {
    "InputShapes": "64x12x12, 64x64x3x3, 64"
    "OutputShape": "64x10x10"
    "Quantize[mn,mx]": [-32.0, 32.0]
    "QuantizeBits": 16
    "ConstInputs": "/model/model_23_cv2_2_1_conv/WeightsSymmetricQuantizer:0"
    "ConstInputs": "Variable.model.model_23_cv2_2_1_conv.layer.bias.uid84:0"
    "RuntimeMemory": "6.25KB"
    "ScheduleId": "517"

  }
  blobs {
    shape {
      dim: 64
      dim: 64
      dim: 3
      dim: 3
    }
  }
  blobs {
    shape {
      dim: 64
    }
  }
}
layer {
  name: "Swish: /model/model_0_act_63/Mul_smr"
  type: "Swish"
  bottom: "/model/model_0_act_63/Mul_smr:0"
  top: "/model/model_0_act_63/Mul_smr:0"
    scale_param {
    "InputShapes": "64x10x10"
    "OutputShape": "64x10x10"
    "Quantize[mn,mx]": [0, 32.0]
    "QuantizeBits": 8
    "ConstInputs": "/model/model_23_cv2_2_1_conv/WeightsSymmetricQuantizer:0"
    "ConstInputs": "Variable.model.model_23_cv2_2_1_conv.layer.bias.uid84:0"
    "RuntimeMemory": "6.25KB"
    
  }

}
layer {
  name: "Conv2D: /model/model_23_cv3_2_1_0_conv/layer/Conv"
  type: "Convolution"
  bottom: "/model/Pad_13_to1d_1:0"
  top: "/model/model_0_act_74/Mul_smr:0"
    scale_param {
    "InputShapes": "64x12x12, 64x1x3x3, 64"
    "OutputShape": "64x10x10"
    "Quantize[mn,mx]": [-16.0, 16.0]
    "QuantizeBits": 16
    "ConstInputs": "/model/model_23_cv3_2_1_0_conv/WeightsSymmetricQuantizer:0"
    "ConstInputs": "Variable.model.model_23_cv3_2_1_0_conv.layer.bias.uid86:0"
    "RuntimeMemory": "6.25KB"
    "ScheduleId": "520"

  }
  blobs {
    shape {
      dim: 64
      dim: 1
      dim: 3
      dim: 3
    }
  }
  blobs {
    shape {
      dim: 64
    }
  }
}
layer {
  name: "Swish: /model/model_0_act_74/Mul_smr"
  type: "Swish"
  bottom: "/model/model_0_act_74/Mul_smr:0"
  top: "/model/model_0_act_74/Mul_smr:0"
    scale_param {
    "InputShapes": "64x10x10"
    "OutputShape": "64x10x10"
    "Quantize[mn,mx]": [0, 16.0]
    "QuantizeBits": 8
    "ConstInputs": "/model/model_23_cv3_2_1_0_conv/WeightsSymmetricQuantizer:0"
    "ConstInputs": "Variable.model.model_23_cv3_2_1_0_conv.layer.bias.uid86:0"
    "RuntimeMemory": "6.25KB"
    
  }

}
layer {
  name: "Conv2D: /model/model_23_cv2_2_2/layer/Conv"
  type: "Convolution"
  bottom: "/model/model_0_act_63/Mul_smr:0"
  top: "/model/model_23_cv2_2_2/layer/Conv:0"
    scale_param {
    "InputShapes": "64x10x10, 64x64x1x1, 64"
    "OutputShape": "64x10x10"
    "Quantize[mn,mx]": [-32.0, 32.0]
    "QuantizeBits": 8
    "ConstInputs": "/model/model_23_cv2_2_2/WeightsSymmetricQuantizer:0"
    "ConstInputs": "Variable.model.model_23_cv2_2_2.layer.bias.uid85:0"
    "RuntimeMemory": "6.25KB"
    "ScheduleId": "522"

  }
  blobs {
    shape {
      dim: 64
      dim: 64
      dim: 1
      dim: 1
    }
  }
  blobs {
    shape {
      dim: 64
    }
  }
}
layer {
  name: "Conv2D: /model/model_23_cv3_2_1_1_conv/layer/Conv"
  type: "Convolution"
  bottom: "/model/model_0_act_74/Mul_smr:0"
  top: "/model/model_0_act_75/Mul_smr:0"
    scale_param {
    "InputShapes": "64x10x10, 64x64x1x1, 64"
    "OutputShape": "64x10x10"
    "Quantize[mn,mx]": [-16.0, 16.0]
    "QuantizeBits": 16
    "ConstInputs": "/model/model_23_cv3_2_1_1_conv/WeightsSymmetricQuantizer:0"
    "ConstInputs": "Variable.model.model_23_cv3_2_1_1_conv.layer.bias.uid87:0"
    "RuntimeMemory": "6.25KB"
    "ScheduleId": "521"

  }
  blobs {
    shape {
      dim: 64
      dim: 64
      dim: 1
      dim: 1
    }
  }
  blobs {
    shape {
      dim: 64
    }
  }
}
layer {
  name: "Swish: /model/model_0_act_75/Mul_smr"
  type: "Swish"
  bottom: "/model/model_0_act_75/Mul_smr:0"
  top: "/model/model_0_act_75/Mul_smr:0"
    scale_param {
    "InputShapes": "64x10x10"
    "OutputShape": "64x10x10"
    "Quantize[mn,mx]": [0, 16.0]
    "QuantizeBits": 8
    "ConstInputs": "/model/model_23_cv3_2_1_1_conv/WeightsSymmetricQuantizer:0"
    "ConstInputs": "Variable.model.model_23_cv3_2_1_1_conv.layer.bias.uid87:0"
    "RuntimeMemory": "6.25KB"
    
  }

}
layer {
  name: "Transform: transform-13-/model/model_23_cv2_2_2/layer/Conv"
  type: "Transform"
  bottom: "/model/model_23_cv2_2_2/layer/Conv:0"
  top: "transform-13-/model/model_23_cv2_2_2/layer/Conv:0"
    scale_param {
    "InputShapes": "64x10x10"
    "OutputShape": "64x10x10"
    "Quantize[mn,mx]": [-32.0, 32.0]
    "QuantizeBits": 8
    
    "RuntimeMemory": "6.25KB"
    "ScheduleId": "528"

  }

}
layer {
  name: "Conv2D: /model/model_23_cv3_2_2/layer/Conv"
  type: "Convolution"
  bottom: "/model/model_0_act_75/Mul_smr:0"
  top: "/model/model_23_cv3_2_2/layer/Conv:0"
    scale_param {
    "InputShapes": "64x10x10, 1x64x1x1, 1"
    "OutputShape": "1x10x10"
    "Quantize[mn,mx]": [-16.0, 16.0]
    "QuantizeBits": 8
    "ConstInputs": "/model/model_23_cv3_2_2/WeightsSymmetricQuantizer:0"
    "ConstInputs": "Variable.model.model_23_cv3_2_2.layer.bias.uid89:0"
    "RuntimeMemory": "320B"
    "ScheduleId": "523"

  }
  blobs {
    shape {
      dim: 1
      dim: 64
      dim: 1
      dim: 1
    }
  }
  blobs {
    shape {
      dim: 1
    }
  }
}
layer {
  name: "Reshape: /model/Reshape_35"
  type: "Reshape"
  bottom: "transform-13-/model/model_23_cv2_2_2/layer/Conv:0"
  top: "/model/Reshape_35:0"
    scale_param {
    "InputShapes": "64x10x10"
    "OutputShape": "64x100"
    "Quantize[mn,mx]": [-32.0, 32.0]
    "QuantizeBits": 8
    "HasScratch": "true"
    
    "RuntimeMemory": "8.00KB"
    "ScheduleId": "529"

  }

}
layer {
  name: "Reshape: /model/Reshape_38"
  type: "Reshape"
  bottom: "/model/model_23_cv3_2_2/layer/Conv:0"
  top: "/model/Reshape_38:0"
    scale_param {
    "InputShapes": "1x10x10"
    "OutputShape": "1x100"
    "Quantize[mn,mx]": [-16.0, 16.0]
    "QuantizeBits": 8
    "HasScratch": "true"
    
    "RuntimeMemory": "128B"
    "ScheduleId": "524"

  }

}
layer {
  name: "Cast: Cast_to_/model/Concat_33_2"
  type: "Cast"
  bottom: "/model/Reshape_35:0"
  top: "Cast_to_/model/Concat_33_2:0"
    scale_param {
    "InputShapes": "64x100"
    "OutputShape": "64x100"
    "Quantize[mn,mx]": [-16.0, 16.0]
    "QuantizeBits": 8
    
    "RuntimeMemory": "6.25KB"
    "ScheduleId": "530"

  }

}
layer {
  name: "Concat: /model/Concat_34"
  type: "Concat"
  bottom: "/model/Reshape_22:0"
  bottom: "/model/Reshape_28:0"
  bottom: "/model/Reshape_38:0"
  top: "/model/Concat_34:0"
    scale_param {
    "InputShapes": "1x1600, 1x400, 1x100"
    "OutputShape": "1x2100"
    "Quantize[mn,mx]": [-32.0, 32.0]
    "QuantizeBits": 8
    
    "RuntimeMemory": "2.06KB"
    "ScheduleId": "525"

  }

}
layer {
  name: "Concat: /model/Concat_33"
  type: "Concat"
  bottom: "/model/Reshape_17:0"
  bottom: "/model/Reshape_27:0"
  bottom: "Cast_to_/model/Concat_33_2:0"
  top: "/model/Concat_33:0"
    scale_param {
    "InputShapes": "64x1600, 64x400, 64x100"
    "OutputShape": "64x2100"
    "Quantize[mn,mx]": [-16.0, 16.0]
    "QuantizeBits": 8
    
    "RuntimeMemory": "131.25KB"
    "ScheduleId": "531"

  }

}
layer {
  name: "Sigmoid: /model/Sigmoid"
  type: "Sigmoid"
  bottom: "/model/Concat_34:0"
  top: "/model/Sigmoid:0"
    scale_param {
    "InputShapes": "1x2100"
    "OutputShape": "1x2100"
    "Quantize[mn,mx]": [0, 1.0]
    "QuantizeBits": 8
    
    "RuntimeMemory": "2.06KB"
    "ScheduleId": "526"

  }

}
layer {
  name: "Transform: transform-12-/model/Concat_33"
  type: "Transform"
  bottom: "/model/Concat_33:0"
  top: "transform-12-/model/Concat_33:0"
    scale_param {
    "InputShapes": "64x2100"
    "OutputShape": "64x2100"
    "Quantize[mn,mx]": [-16.0, 16.0]
    "QuantizeBits": 8
    
    "RuntimeMemory": "132.00KB"
    "ScheduleId": "532"

  }

}
layer {
  name: "Transpose: /model/Transpose_17"
  type: "Transpose"
  bottom: "/model/Sigmoid:0"
  top: "/model/Transpose_17:0"
    scale_param {
    "InputShapes": "1x2100"
    "OutputShape": "2100x1"
    "Quantize[mn,mx]": [0, 1.0]
    "QuantizeBits": 8
    
    "RuntimeMemory": "2.06KB"
    "ScheduleId": "527"

  }

}
layer {
  name: "Reshape: /model/Reshape_36"
  type: "Reshape"
  bottom: "transform-12-/model/Concat_33:0"
  top: "/model/Reshape_36:0"
    scale_param {
    "InputShapes": "64x2100"
    "OutputShape": "4x16x2100"
    "Quantize[mn,mx]": [-16.0, 16.0]
    "QuantizeBits": 8
    "HasScratch": "true"
    
    "RuntimeMemory": "132.00KB"
    "ScheduleId": "533"

  }

}
layer {
  name: "Transform: transform-11-/model/Reshape_36"
  type: "Transform"
  bottom: "/model/Reshape_36:0"
  top: "transform-11-/model/Reshape_36:0"
    scale_param {
    "InputShapes": "4x16x2100"
    "OutputShape": "4x16x2100"
    "Quantize[mn,mx]": [-16.0, 16.0]
    "QuantizeBits": 8
    
    "RuntimeMemory": "132.00KB"
    "ScheduleId": "534"

  }

}
layer {
  name: "Transpose: /model/Transpose_16"
  type: "Transpose"
  bottom: "transform-11-/model/Reshape_36:0"
  top: "/model/Transpose_16:0"
    scale_param {
    "InputShapes": "4x16x2100"
    "OutputShape": "16x4x2100"
    "Quantize[mn,mx]": [-16.0, 16.0]
    "QuantizeBits": 8
    
    "RuntimeMemory": "132.00KB"
    "ScheduleId": "535"

  }

}
layer {
  name: "Transform: transform-10-/model/Transpose_16"
  type: "Transform"
  bottom: "/model/Transpose_16:0"
  top: "transform-10-/model/Transpose_16:0"
    scale_param {
    "InputShapes": "16x4x2100"
    "OutputShape": "16x4x2100"
    "Quantize[mn,mx]": [-16.0, 16.0]
    "QuantizeBits": 8
    
    "RuntimeMemory": "132.00KB"
    "ScheduleId": "536"

  }

}
layer {
  name: "Transpose: /model/Softmax_1_saitr"
  type: "Transpose"
  bottom: "transform-10-/model/Transpose_16:0"
  top: "/model/Softmax_1_saitr:0"
    scale_param {
    "InputShapes": "16x4x2100"
    "OutputShape": "2100x4x16"
    "Quantize[mn,mx]": [-16.0, 16.0]
    "QuantizeBits": 8
    
    "RuntimeMemory": "132.00KB"
    "ScheduleId": "537"

  }

}
layer {
  name: "Softmax: /model/Softmax_1_sa"
  type: "Softmax"
  bottom: "/model/Softmax_1_saitr:0"
  top: "/model/Softmax_1_sa:0"
    scale_param {
    "InputShapes": "2100x4x16"
    "OutputShape": "2100x4x16"
    "Quantize[mn,mx]": [0, 1.0]
    "QuantizeBits": 8
    
    "RuntimeMemory": "132.00KB"
    "ScheduleId": "538"

  }

}
layer {
  name: "Transform: transform-9-/model/Softmax_1_sa"
  type: "Transform"
  bottom: "/model/Softmax_1_sa:0"
  top: "transform-9-/model/Softmax_1_sa:0"
    scale_param {
    "InputShapes": "2100x4x16"
    "OutputShape": "2100x4x16"
    "Quantize[mn,mx]": [0, 1.0]
    "QuantizeBits": 8
    
    "RuntimeMemory": "132.00KB"
    "ScheduleId": "539"

  }

}
layer {
  name: "Transpose: /model/Softmax_1_saotr"
  type: "Transpose"
  bottom: "transform-9-/model/Softmax_1_sa:0"
  top: "/model/Softmax_1_saotr:0"
    scale_param {
    "InputShapes": "2100x4x16"
    "OutputShape": "16x4x2100"
    "Quantize[mn,mx]": [0, 1.0]
    "QuantizeBits": 8
    
    "RuntimeMemory": "132.00KB"
    "ScheduleId": "540"

  }

}
layer {
  name: "Transform: transform-8-/model/Softmax_1_saotr"
  type: "Transform"
  bottom: "/model/Softmax_1_saotr:0"
  top: "transform-8-/model/Softmax_1_saotr:0"
    scale_param {
    "InputShapes": "16x4x2100"
    "OutputShape": "16x4x2100"
    "Quantize[mn,mx]": [0, 1.0]
    "QuantizeBits": 8
    
    "RuntimeMemory": "132.00KB"
    "ScheduleId": "541"

  }

}
layer {
  name: "Conv2D: /model/model_23_dfl_conv/layer/Conv"
  type: "Convolution"
  bottom: "transform-8-/model/Softmax_1_saotr:0"
  top: "/model/model_23_dfl_conv/layer/Conv:0"
    scale_param {
    "InputShapes": "16x4x2100, 1x16x1x1, 1"
    "OutputShape": "1x4x2100"
    "Quantize[mn,mx]": [0, 16.0]
    "QuantizeBits": 8
    "ConstInputs": "/model/model_23_dfl_conv/WeightsSymmetricQuantizer:0"
    "ConstInputs": "Variable.model.model_23_dfl_conv.layer.bias.uid88:0"
    "RuntimeMemory": "8.25KB"
    "ScheduleId": "542"

  }
  blobs {
    shape {
      dim: 1
      dim: 16
      dim: 1
      dim: 1
    }
  }
  blobs {
    shape {
      dim: 1
    }
  }
}
layer {
  name: "Reshape: /model/Reshape_37"
  type: "Reshape"
  bottom: "/model/model_23_dfl_conv/layer/Conv:0"
  top: "/model/Reshape_37:0"
    scale_param {
    "InputShapes": "1x4x2100"
    "OutputShape": "4x2100"
    "Quantize[mn,mx]": [0, 16.0]
    "QuantizeBits": 8
    "HasScratch": "true"
    
    "RuntimeMemory": "8.25KB"
    "ScheduleId": "543"

  }

}
layer {
  name: "StrideSlice: /model/Slice_14"
  type: "StrideSlice"
  bottom: "/model/Reshape_37:0"
  top: "/model/Slice_14:0"
    scale_param {
    "InputShapes": "4x2100"
    "OutputShape": "2x2100"
    "Quantize[mn,mx]": [0, 16.0]
    "QuantizeBits": 8
    
    "RuntimeMemory": "4.13KB"
    "ScheduleId": "544"

  }

}
layer {
  name: "StrideSlice: /model/Slice_15"
  type: "StrideSlice"
  bottom: "/model/Reshape_37:0"
  top: "/model/Slice_15:0"
    scale_param {
    "InputShapes": "4x2100"
    "OutputShape": "2x2100"
    "Quantize[mn,mx]": [0, 16.0]
    "QuantizeBits": 8
    
    "RuntimeMemory": "4.13KB"
    "ScheduleId": "545"

  }

}
layer {
  name: "Cast: Cast_to_/model/sub/Sub_1"
  type: "Cast"
  bottom: "/model/Slice_14:0"
  top: "Cast_to_/model/sub/Sub_1:0"
    scale_param {
    "InputShapes": "2x2100"
    "OutputShape": "2x2100"
    "Quantize[mn,mx]": [-16.0, 16.0]
    "QuantizeBits": 16
    
    "RuntimeMemory": "8.25KB"
    "ScheduleId": "547"

  }

}
layer {
  name: "Cast: Cast_to_/model/add_14/Add_1"
  type: "Cast"
  bottom: "/model/Slice_15:0"
  top: "Cast_to_/model/add_14/Add_1:0"
    scale_param {
    "InputShapes": "2x2100"
    "OutputShape": "2x2100"
    "Quantize[mn,mx]": [-16.0, 16.0]
    "QuantizeBits": 16
    
    "RuntimeMemory": "8.25KB"
    "ScheduleId": "546"

  }

}
layer {
  name: "Transform: transform-6-Cast_to_/model/sub/Sub_1"
  type: "Transform"
  bottom: "Cast_to_/model/sub/Sub_1:0"
  top: "transform-6-Cast_to_/model/sub/Sub_1:0"
    scale_param {
    "InputShapes": "2x2100"
    "OutputShape": "2x2100"
    "Quantize[mn,mx]": [-16.0, 16.0]
    "QuantizeBits": 16
    
    "RuntimeMemory": "8.25KB"
    "ScheduleId": "548"

  }

}
layer {
  name: "Transform: transform-7-Cast_to_/model/add_14/Add_1"
  type: "Transform"
  bottom: "Cast_to_/model/add_14/Add_1:0"
  top: "transform-7-Cast_to_/model/add_14/Add_1:0"
    scale_param {
    "InputShapes": "2x2100"
    "OutputShape": "2x2100"
    "Quantize[mn,mx]": [-16.0, 16.0]
    "QuantizeBits": 16
    
    "RuntimeMemory": "8.25KB"
    "ScheduleId": "551"

  }

}
layer {
  name: "Sub: /model/sub/Sub"
  type: "Sub"
  bottom: "Cast_to_/model/sub/Sub_0:0"
  bottom: "transform-6-Cast_to_/model/sub/Sub_1:0"
  top: "/model/sub/Sub:0"
    scale_param {
    "InputShapes": "2x2100, 2x2100"
    "OutputShape": "2x2100"
    "Quantize[mn,mx]": [-64.0, 64.0]
    "QuantizeBits": 16
    
    "RuntimeMemory": "8.25KB"
    "ScheduleId": "550"

  }

}
layer {
  name: "Add: /model/add_14/Add"
  type: "Add"
  bottom: "Cast_to_/model/add_14/Add_0:0"
  bottom: "transform-7-Cast_to_/model/add_14/Add_1:0"
  top: "/model/add_14/Add:0"
    scale_param {
    "InputShapes": "2x2100, 2x2100"
    "OutputShape": "2x2100"
    "Quantize[mn,mx]": [-64.0, 64.0]
    "QuantizeBits": 16
    
    "RuntimeMemory": "8.25KB"
    "ScheduleId": "553"

  }

}
layer {
  name: "Concat: /model/Concat_35"
  type: "Concat"
  bottom: "/model/add_14/Add:0"
  bottom: "/model/sub/Sub:0"
  top: "/model/Concat_35:0"
    scale_param {
    "InputShapes": "2x2100, 2x2100"
    "OutputShape": "4x2100"
    "Quantize[mn,mx]": [-64.0, 64.0]
    "QuantizeBits": 16
    
    "RuntimeMemory": "16.50KB"
    "ScheduleId": "554"

  }

}
layer {
  name: "Mul: /model/mul_2/Mul"
  type: "Mul"
  bottom: "/model/Concat_35:0"
  bottom: "Cast_to_/model/mul_2/Mul_1:0"
  top: "/model/mul_2/Mul:0"
    scale_param {
    "InputShapes": "4x2100, 1x2100"
    "OutputShape": "4x2100"
    "Quantize[mn,mx]": [-512.0, 512.0]
    "QuantizeBits": 16
    
    "RuntimeMemory": "16.50KB"
    "ScheduleId": "556"

  }

}
layer {
  name: "Transform: transform-5-/model/mul_2/Mul"
  type: "Transform"
  bottom: "/model/mul_2/Mul:0"
  top: "transform-5-/model/mul_2/Mul:0"
    scale_param {
    "InputShapes": "4x2100"
    "OutputShape": "4x2100"
    "Quantize[mn,mx]": [-512.0, 512.0]
    "QuantizeBits": 16
    
    "RuntimeMemory": "16.50KB"
    "ScheduleId": "557"

  }

}
layer {
  name: "Transpose: /model/Transpose_18"
  type: "Transpose"
  bottom: "transform-5-/model/mul_2/Mul:0"
  top: "/model/Transpose_18:0"
    scale_param {
    "InputShapes": "4x2100"
    "OutputShape": "2100x4"
    "Quantize[mn,mx]": [-512.0, 512.0]
    "QuantizeBits": 16
    
    "RuntimeMemory": "16.50KB"
    "ScheduleId": "558"

  }

}
layer {
  name: "Reshape: /MultiClassNMSWithIndices_expand_dims_reshaped"
  type: "Reshape"
  bottom: "/model/Transpose_18:0"
  top: "/MultiClassNMSWithIndices_expand_dims_reshaped:0"
    scale_param {
    "InputShapes": "2100x4"
    "OutputShape": "2100x1x4"
    "Quantize[mn,mx]": [-512.0, 512.0]
    "QuantizeBits": 16
    "HasScratch": "true"
    
    "RuntimeMemory": "16.50KB"
    "ScheduleId": "559"

  }

}
layer {
  name: "Transform: transform-4-/MultiClassNMSWithIndices_expand_dims_reshaped"
  type: "Transform"
  bottom: "/MultiClassNMSWithIndices_expand_dims_reshaped:0"
  top: "transform-4-/MultiClassNMSWithIndices_expand_dims_reshaped:0"
    scale_param {
    "InputShapes": "2100x1x4"
    "OutputShape": "2100x1x4"
    "Quantize[mn,mx]": [-512.0, 512.0]
    "QuantizeBits": 16
    
    "RuntimeMemory": "16.50KB"
    "ScheduleId": "560"

  }

}
layer {
  name: "MultiClassNms: /MultiClassNMSWithIndices"
  type: "MultiClassNms"
  bottom: "/model/Transpose_17:0"
  bottom: "transform-4-/MultiClassNMSWithIndices_expand_dims_reshaped:0"
  top: "/MultiClassNMSWithIndices:0"
  top: "/MultiClassNMSWithIndices:1:1"
  top: "/MultiClassNMSWithIndices:2:2"
  top: "/MultiClassNMSWithIndices:4:4"
    scale_param {
    "InputShapes": "2100x1x4, 2100x1"
    "OutputShape": "300x4"
    "Quantize[mn,mx]": [-512.0, 512.0]
    "QuantizeBits": 16
    "HasScratch": "true"
    
    "RuntimeMemory": "3.31KB"
    "ScheduleId": "561"

  }

}
layer {
  name: "Transform: transform-0-/MultiClassNMSWithIndices"
  type: "Transform"
  bottom: "/MultiClassNMSWithIndices:4:4"
  top: "transform-0-/MultiClassNMSWithIndices:0"
    scale_param {
    "InputShapes": "1"
    "OutputShape": "1"
    "Quantize[mn,mx]": [-32768.0, 32768.0]
    "QuantizeBits": 16
    
    "RuntimeMemory": "32B"
    "ScheduleId": "563"

  }

}
layer {
  name: "Transform: transform-1-/MultiClassNMSWithIndices"
  type: "Transform"
  bottom: "/MultiClassNMSWithIndices:2:2"
  top: "transform-1-/MultiClassNMSWithIndices:0"
    scale_param {
    "InputShapes": "300"
    "OutputShape": "300"
    "Quantize[mn,mx]": [-32768.0, 32768.0]
    "QuantizeBits": 16
    
    "RuntimeMemory": "608B"
    "ScheduleId": "565"

  }

}
layer {
  name: "Transform: transform-2-/MultiClassNMSWithIndices"
  type: "Transform"
  bottom: "/MultiClassNMSWithIndices:1:1"
  top: "transform-2-/MultiClassNMSWithIndices:0"
    scale_param {
    "InputShapes": "300"
    "OutputShape": "300"
    "Quantize[mn,mx]": [0, 1.0]
    "QuantizeBits": 8
    
    "RuntimeMemory": "320B"
    "ScheduleId": "567"

  }

}
layer {
  name: "Transform: transform-3-/MultiClassNMSWithIndices"
  type: "Transform"
  bottom: "/MultiClassNMSWithIndices:0"
  top: "transform-3-/MultiClassNMSWithIndices:0"
    scale_param {
    "InputShapes": "300x4"
    "OutputShape": "300x4"
    "Quantize[mn,mx]": [-512.0, 512.0]
    "QuantizeBits": 16
    
    "RuntimeMemory": "18.75KB"
    "ScheduleId": "569"

  }

}
layer {
  name: "Output: Output.output_3.uid93"
  type: "Output"
  bottom: "transform-0-/MultiClassNMSWithIndices:0"
  
    scale_param {
    "InputShapes": "1"
    
    
    
    "RuntimeMemory": "0B"
    "ScheduleId": "564"

  }

}
layer {
  name: "Output: Output.output_2.uid92"
  type: "Output"
  bottom: "transform-1-/MultiClassNMSWithIndices:0"
  
    scale_param {
    "InputShapes": "300"
    
    
    
    "RuntimeMemory": "0B"
    "ScheduleId": "566"

  }

}
layer {
  name: "Output: Output.output_1.uid91"
  type: "Output"
  bottom: "transform-2-/MultiClassNMSWithIndices:0"
  
    scale_param {
    "InputShapes": "300"
    
    
    
    "RuntimeMemory": "0B"
    "ScheduleId": "568"

  }

}
layer {
  name: "Output: Output.output_0.uid90"
  type: "Output"
  bottom: "transform-3-/MultiClassNMSWithIndices:0"
  
    scale_param {
    "InputShapes": "300x4"
    
    
    
    "RuntimeMemory": "0B"
    "ScheduleId": "570"

  }

}
layer{
  name: "model_imx"
  type: "MemoryReport"
  scale_param {
   
    RuntimeMemoryPhysicalSize: "1.19MB"
    ModelMemoryPhysicalSize: "2.61MB"
    ReservedMemory: "1.00KB"
    MemoryUsage: "3.80MB"
    TotalMemoryAvailableOnChip: "8.00MB"
    MemoryUtilization: "48%"
    FitInChip: "true"
    InputPersistent: "false"
    Hash: "model_imx"
    InputPersistenceCost: "0B"
      
   LargestLayer: "/model/Pad_to1d_1,/model/model_1_conv/layer/Conv_concat"
  }
}
