name: "Sony"
layer {
  name: "Placeholder: Placeholder.input.uid1"
  type: "Placeholder"
  
  top: "Placeholder.input.uid1:0"
    scale_param {
    "InputShapes": ""
    "OutputShape": "3x512x512"
    "Quantize[mn,mx]": [0, 1.0]
    "QuantizeBits": 8
    
    "RuntimeMemory": "772.00KB"
    "ScheduleId": "180"

  }

}
layer {
  name: "Cast: Cast_to_/model/mul_2/Mul_1"
  type: "Cast"
  
  top: "Cast_to_/model/mul_2/Mul_1:0"
    scale_param {
    "InputShapes": "1x5376"
    "OutputShape": "1x5376"
    "Quantize[mn,mx]": [-128.0, 128.0]
    "QuantizeBits": 16
    "ConstInputs": "/model/mul_2/WeightsPOTQuantizer:0"
    "RuntimeMemory": "10.50KB"
    "ScheduleId": "549"

  }
  blobs {
    shape {
      dim: 1
      dim: 5376
    }
  }
}
layer {
  name: "Cast: Cast_to_/model/sub/Sub_0"
  type: "Cast"
  
  top: "Cast_to_/model/sub/Sub_0:0"
    scale_param {
    "InputShapes": "2x5376"
    "OutputShape": "2x5376"
    "Quantize[mn,mx]": [-64.0, 64.0]
    "QuantizeBits": 16
    "ConstInputs": "/model/sub/WeightsPOTQuantizer:0"
    "RuntimeMemory": "21.00KB"
    "ScheduleId": "543"

  }
  blobs {
    shape {
      dim: 2
      dim: 5376
    }
  }
}
layer {
  name: "Cast: Cast_to_/model/add_14/Add_0"
  type: "Cast"
  
  top: "Cast_to_/model/add_14/Add_0:0"
    scale_param {
    "InputShapes": "2x5376"
    "OutputShape": "2x5376"
    "Quantize[mn,mx]": [-64.0, 64.0]
    "QuantizeBits": 16
    "ConstInputs": "/model/add_14/WeightsPOTQuantizer:0"
    "RuntimeMemory": "21.00KB"
    "ScheduleId": "546"

  }
  blobs {
    shape {
      dim: 2
      dim: 5376
    }
  }
}
layer {
  name: "Pad: /model/model_0_conv/layer/Conv_pad_to1d_0"
  type: "Pad"
  bottom: "Placeholder.input.uid1:0"
  top: "/model/model_0_conv/layer/Conv_pad_to1d_0:0"
    scale_param {
    "InputShapes": "3x512x512"
    "OutputShape": "3x514x512"
    "Quantize[mn,mx]": [0, 1.0]
    "QuantizeBits": 8
    "HasScratch": "true"
    
    "RuntimeMemory": "771.00KB"
    "ScheduleId": "181"

  }

}
layer {
  name: "Transform: transform-117-/model/model_0_conv/layer/Conv_pad_to1d_0"
  type: "Transform"
  bottom: "/model/model_0_conv/layer/Conv_pad_to1d_0:0"
  top: "transform-117-/model/model_0_conv/layer/Conv_pad_to1d_0:0"
    scale_param {
    "InputShapes": "3x514x512"
    "OutputShape": "3x514x512"
    "Quantize[mn,mx]": [0, 1.0]
    "QuantizeBits": 8
    
    "RuntimeMemory": "816.00KB"
    "ScheduleId": "182"

  }

}
layer {
  name: "Pad: /model/model_0_conv/layer/Conv_pad_to1d_1"
  type: "Pad"
  bottom: "transform-117-/model/model_0_conv/layer/Conv_pad_to1d_0:0"
  top: "/model/model_0_conv/layer/Conv_pad_to1d_1:0"
    scale_param {
    "InputShapes": "3x514x512"
    "OutputShape": "3x514x514"
    "Quantize[mn,mx]": [0, 1.0]
    "QuantizeBits": 8
    "HasScratch": "true"
    
    "RuntimeMemory": "819.19KB"
    "ScheduleId": "183"

  }

}
layer {
  name: "StrideSlice: /model/model_0_conv/layer/Conv_pf(1;1)_dim_2"
  type: "StrideSlice"
  bottom: "/model/model_0_conv/layer/Conv_pad_to1d_1:0"
  top: "/model/model_0_conv/layer/Conv_pf(1;1)_dim_2:0"
    scale_param {
    "InputShapes": "3x514x514"
    "OutputShape": "3x514x257"
    "Quantize[mn,mx]": [0, 1.0]
    "QuantizeBits": 8
    
    "RuntimeMemory": "409.59KB"
    "ScheduleId": "196"

  }

}
layer {
  name: "StrideSlice: /model/model_0_conv/layer/Conv_pf(1;0)_dim_2"
  type: "StrideSlice"
  bottom: "/model/model_0_conv/layer/Conv_pad_to1d_1:0"
  top: "/model/model_0_conv/layer/Conv_pf(1;0)_dim_2:0"
    scale_param {
    "InputShapes": "3x514x514"
    "OutputShape": "3x514x257"
    "Quantize[mn,mx]": [0, 1.0]
    "QuantizeBits": 8
    
    "RuntimeMemory": "409.59KB"
    "ScheduleId": "192"

  }

}
layer {
  name: "StrideSlice: /model/model_0_conv/layer/Conv_pf(0;1)_dim_2"
  type: "StrideSlice"
  bottom: "/model/model_0_conv/layer/Conv_pad_to1d_1:0"
  top: "/model/model_0_conv/layer/Conv_pf(0;1)_dim_2:0"
    scale_param {
    "InputShapes": "3x514x514"
    "OutputShape": "3x514x257"
    "Quantize[mn,mx]": [0, 1.0]
    "QuantizeBits": 8
    
    "RuntimeMemory": "409.59KB"
    "ScheduleId": "188"

  }

}
layer {
  name: "StrideSlice: /model/model_0_conv/layer/Conv_pf(0;0)_dim_2"
  type: "StrideSlice"
  bottom: "/model/model_0_conv/layer/Conv_pad_to1d_1:0"
  top: "/model/model_0_conv/layer/Conv_pf(0;0)_dim_2:0"
    scale_param {
    "InputShapes": "3x514x514"
    "OutputShape": "3x514x257"
    "Quantize[mn,mx]": [0, 1.0]
    "QuantizeBits": 8
    
    "RuntimeMemory": "409.59KB"
    "ScheduleId": "184"

  }

}
layer {
  name: "Transform: transform-113-/model/model_0_conv/layer/Conv_pf(1;1)_dim_2"
  type: "Transform"
  bottom: "/model/model_0_conv/layer/Conv_pf(1;1)_dim_2:0"
  top: "transform-113-/model/model_0_conv/layer/Conv_pf(1;1)_dim_2:0"
    scale_param {
    "InputShapes": "3x514x257"
    "OutputShape": "3x514x257"
    "Quantize[mn,mx]": [0, 1.0]
    "QuantizeBits": 8
    
    "RuntimeMemory": "433.69KB"
    "ScheduleId": "197"

  }

}
layer {
  name: "Transform: transform-114-/model/model_0_conv/layer/Conv_pf(1;0)_dim_2"
  type: "Transform"
  bottom: "/model/model_0_conv/layer/Conv_pf(1;0)_dim_2:0"
  top: "transform-114-/model/model_0_conv/layer/Conv_pf(1;0)_dim_2:0"
    scale_param {
    "InputShapes": "3x514x257"
    "OutputShape": "3x514x257"
    "Quantize[mn,mx]": [0, 1.0]
    "QuantizeBits": 8
    
    "RuntimeMemory": "433.69KB"
    "ScheduleId": "193"

  }

}
layer {
  name: "Transform: transform-115-/model/model_0_conv/layer/Conv_pf(0;1)_dim_2"
  type: "Transform"
  bottom: "/model/model_0_conv/layer/Conv_pf(0;1)_dim_2:0"
  top: "transform-115-/model/model_0_conv/layer/Conv_pf(0;1)_dim_2:0"
    scale_param {
    "InputShapes": "3x514x257"
    "OutputShape": "3x514x257"
    "Quantize[mn,mx]": [0, 1.0]
    "QuantizeBits": 8
    
    "RuntimeMemory": "433.69KB"
    "ScheduleId": "189"

  }

}
layer {
  name: "Transform: transform-116-/model/model_0_conv/layer/Conv_pf(0;0)_dim_2"
  type: "Transform"
  bottom: "/model/model_0_conv/layer/Conv_pf(0;0)_dim_2:0"
  top: "transform-116-/model/model_0_conv/layer/Conv_pf(0;0)_dim_2:0"
    scale_param {
    "InputShapes": "3x514x257"
    "OutputShape": "3x514x257"
    "Quantize[mn,mx]": [0, 1.0]
    "QuantizeBits": 8
    
    "RuntimeMemory": "433.69KB"
    "ScheduleId": "185"

  }

}
layer {
  name: "StrideSlice: /model/model_0_conv/layer/Conv_pf(1;1)"
  type: "StrideSlice"
  bottom: "transform-113-/model/model_0_conv/layer/Conv_pf(1;1)_dim_2:0"
  top: "/model/model_0_conv/layer/Conv_pf(1;1):0"
    scale_param {
    "InputShapes": "3x514x257"
    "OutputShape": "3x257x257"
    "Quantize[mn,mx]": [0, 1.0]
    "QuantizeBits": 8
    
    "RuntimeMemory": "216.84KB"
    "ScheduleId": "198"

  }

}
layer {
  name: "StrideSlice: /model/model_0_conv/layer/Conv_pf(1;0)"
  type: "StrideSlice"
  bottom: "transform-114-/model/model_0_conv/layer/Conv_pf(1;0)_dim_2:0"
  top: "/model/model_0_conv/layer/Conv_pf(1;0):0"
    scale_param {
    "InputShapes": "3x514x257"
    "OutputShape": "3x257x257"
    "Quantize[mn,mx]": [0, 1.0]
    "QuantizeBits": 8
    
    "RuntimeMemory": "216.84KB"
    "ScheduleId": "194"

  }

}
layer {
  name: "StrideSlice: /model/model_0_conv/layer/Conv_pf(0;1)"
  type: "StrideSlice"
  bottom: "transform-115-/model/model_0_conv/layer/Conv_pf(0;1)_dim_2:0"
  top: "/model/model_0_conv/layer/Conv_pf(0;1):0"
    scale_param {
    "InputShapes": "3x514x257"
    "OutputShape": "3x257x257"
    "Quantize[mn,mx]": [0, 1.0]
    "QuantizeBits": 8
    
    "RuntimeMemory": "216.84KB"
    "ScheduleId": "190"

  }

}
layer {
  name: "StrideSlice: /model/model_0_conv/layer/Conv_pf(0;0)"
  type: "StrideSlice"
  bottom: "transform-116-/model/model_0_conv/layer/Conv_pf(0;0)_dim_2:0"
  top: "/model/model_0_conv/layer/Conv_pf(0;0):0"
    scale_param {
    "InputShapes": "3x514x257"
    "OutputShape": "3x257x257"
    "Quantize[mn,mx]": [0, 1.0]
    "QuantizeBits": 8
    
    "RuntimeMemory": "216.84KB"
    "ScheduleId": "186"

  }

}
layer {
  name: "Transform: transform-112-/model/model_0_conv/layer/Conv_pf(1;1)"
  type: "Transform"
  bottom: "/model/model_0_conv/layer/Conv_pf(1;1):0"
  top: "transform-112-/model/model_0_conv/layer/Conv_pf(1;1):0"
    scale_param {
    "InputShapes": "3x257x257"
    "OutputShape": "3x257x257"
    "Quantize[mn,mx]": [0, 1.0]
    "QuantizeBits": 8
    
    "RuntimeMemory": "216.84KB"
    "ScheduleId": "199"

  }

}
layer {
  name: "Transform: transform-111-/model/model_0_conv/layer/Conv_pf(1;0)"
  type: "Transform"
  bottom: "/model/model_0_conv/layer/Conv_pf(1;0):0"
  top: "transform-111-/model/model_0_conv/layer/Conv_pf(1;0):0"
    scale_param {
    "InputShapes": "3x257x257"
    "OutputShape": "3x257x257"
    "Quantize[mn,mx]": [0, 1.0]
    "QuantizeBits": 8
    
    "RuntimeMemory": "216.84KB"
    "ScheduleId": "195"

  }

}
layer {
  name: "Transform: transform-110-/model/model_0_conv/layer/Conv_pf(0;1)"
  type: "Transform"
  bottom: "/model/model_0_conv/layer/Conv_pf(0;1):0"
  top: "transform-110-/model/model_0_conv/layer/Conv_pf(0;1):0"
    scale_param {
    "InputShapes": "3x257x257"
    "OutputShape": "3x257x257"
    "Quantize[mn,mx]": [0, 1.0]
    "QuantizeBits": 8
    
    "RuntimeMemory": "216.84KB"
    "ScheduleId": "191"

  }

}
layer {
  name: "Transform: transform-109-/model/model_0_conv/layer/Conv_pf(0;0)"
  type: "Transform"
  bottom: "/model/model_0_conv/layer/Conv_pf(0;0):0"
  top: "transform-109-/model/model_0_conv/layer/Conv_pf(0;0):0"
    scale_param {
    "InputShapes": "3x257x257"
    "OutputShape": "3x257x257"
    "Quantize[mn,mx]": [0, 1.0]
    "QuantizeBits": 8
    
    "RuntimeMemory": "216.84KB"
    "ScheduleId": "187"

  }

}
layer {
  name: "Concat: /model/model_0_conv/layer/Conv_concat"
  type: "Concat"
  bottom: "transform-109-/model/model_0_conv/layer/Conv_pf(0;0):0"
  bottom: "transform-110-/model/model_0_conv/layer/Conv_pf(0;1):0"
  bottom: "transform-111-/model/model_0_conv/layer/Conv_pf(1;0):0"
  bottom: "transform-112-/model/model_0_conv/layer/Conv_pf(1;1):0"
  top: "/model/model_0_conv/layer/Conv_concat:0"
    scale_param {
    "InputShapes": "3x257x257, 3x257x257, 3x257x257, 3x257x257"
    "OutputShape": "12x257x257"
    "Quantize[mn,mx]": [0, 1.0]
    "QuantizeBits": 8
    
    "RuntimeMemory": "867.38KB"
    "ScheduleId": "200"

  }

}
layer {
  name: "Transform: transform-108-/model/model_0_conv/layer/Conv_concat"
  type: "Transform"
  bottom: "/model/model_0_conv/layer/Conv_concat:0"
  top: "transform-108-/model/model_0_conv/layer/Conv_concat:0"
    scale_param {
    "InputShapes": "12x257x257"
    "OutputShape": "12x257x257"
    "Quantize[mn,mx]": [0, 1.0]
    "QuantizeBits": 8
    
    "RuntimeMemory": "867.38KB"
    "ScheduleId": "201"

  }

}
layer {
  name: "Conv2D: /model/model_0_conv/layer/Conv"
  type: "Convolution"
  bottom: "transform-108-/model/model_0_conv/layer/Conv_concat:0"
  top: "/model/model_0_act/Mul_smr:0"
    scale_param {
    "InputShapes": "12x257x257, 32x12x2x2, 32"
    "OutputShape": "32x256x256"
    "Quantize[mn,mx]": [-64.0, 64.0]
    "QuantizeBits": 16
    "ConstInputs": "/model/model_0_conv/WeightsSymmetricQuantizer_pf:0"
    "ConstInputs": "Variable.model.model_0_conv.layer.bias.uid2:0"
    "RuntimeMemory": "2.00MB"
    "ScheduleId": "202"

  }
  blobs {
    shape {
      dim: 32
      dim: 12
      dim: 2
      dim: 2
    }
  }
  blobs {
    shape {
      dim: 32
    }
  }
}
layer {
  name: "Swish: /model/model_0_act/Mul_smr"
  type: "Swish"
  bottom: "/model/model_0_act/Mul_smr:0"
  top: "/model/model_0_act/Mul_smr:0"
    scale_param {
    "InputShapes": "32x256x256"
    "OutputShape": "32x256x256"
    "Quantize[mn,mx]": [0, 64.0]
    "QuantizeBits": 8
    "ConstInputs": "/model/model_0_conv/WeightsSymmetricQuantizer_pf:0"
    "ConstInputs": "Variable.model.model_0_conv.layer.bias.uid2:0"
    "RuntimeMemory": "2.00MB"
    
  }

}
layer {
  name: "Pad: /model/Pad_to1d_0"
  type: "Pad"
  bottom: "/model/model_0_act/Mul_smr:0"
  top: "/model/Pad_to1d_0:0"
    scale_param {
    "InputShapes": "32x256x256"
    "OutputShape": "32x258x256"
    "Quantize[mn,mx]": [0, 64.0]
    "QuantizeBits": 8
    "HasScratch": "true"
    
    "RuntimeMemory": "2.02MB"
    "ScheduleId": "203"

  }

}
layer {
  name: "Pad: /model/Pad_to1d_1"
  type: "Pad"
  bottom: "/model/Pad_to1d_0:0"
  top: "/model/Pad_to1d_1:0"
    scale_param {
    "InputShapes": "32x258x256"
    "OutputShape": "32x258x258"
    "Quantize[mn,mx]": [0, 64.0]
    "QuantizeBits": 8
    "HasScratch": "true"
    
    "RuntimeMemory": "2.03MB"
    "ScheduleId": "204"

  }

}
layer {
  name: "Conv2D: /model/model_1_conv/layer/Conv"
  type: "Convolution"
  bottom: "/model/Pad_to1d_1:0"
  top: "/model/model_0_act_1/Mul_smr:0"
    scale_param {
    "InputShapes": "32x258x258, 64x32x3x3, 64"
    "OutputShape": "64x128x128"
    "Quantize[mn,mx]": [-64.0, 64.0]
    "QuantizeBits": 16
    "ConstInputs": "/model/model_1_conv/WeightsSymmetricQuantizer:0"
    "ConstInputs": "Variable.model.model_1_conv.layer.bias.uid3:0"
    "RuntimeMemory": "1.00MB"
    "ScheduleId": "205"

  }
  blobs {
    shape {
      dim: 64
      dim: 32
      dim: 3
      dim: 3
    }
  }
  blobs {
    shape {
      dim: 64
    }
  }
}
layer {
  name: "Swish: /model/model_0_act_1/Mul_smr"
  type: "Swish"
  bottom: "/model/model_0_act_1/Mul_smr:0"
  top: "/model/model_0_act_1/Mul_smr:0"
    scale_param {
    "InputShapes": "64x128x128"
    "OutputShape": "64x128x128"
    "Quantize[mn,mx]": [0, 64.0]
    "QuantizeBits": 8
    "ConstInputs": "/model/model_1_conv/WeightsSymmetricQuantizer:0"
    "ConstInputs": "Variable.model.model_1_conv.layer.bias.uid3:0"
    "RuntimeMemory": "1.00MB"
    
  }

}
layer {
  name: "Conv2D: /model/model_2_cv1_conv/layer/Conv"
  type: "Convolution"
  bottom: "/model/model_0_act_1/Mul_smr:0"
  top: "/model/model_0_act_2/Mul_smr:0"
    scale_param {
    "InputShapes": "64x128x128, 64x64x1x1, 64"
    "OutputShape": "64x128x128"
    "Quantize[mn,mx]": [-16.0, 16.0]
    "QuantizeBits": 16
    "ConstInputs": "/model/model_2_cv1_conv/WeightsSymmetricQuantizer:0"
    "ConstInputs": "Variable.model.model_2_cv1_conv.layer.bias.uid4:0"
    "RuntimeMemory": "1.00MB"
    "ScheduleId": "206"

  }
  blobs {
    shape {
      dim: 64
      dim: 64
      dim: 1
      dim: 1
    }
  }
  blobs {
    shape {
      dim: 64
    }
  }
}
layer {
  name: "Swish: /model/model_0_act_2/Mul_smr"
  type: "Swish"
  bottom: "/model/model_0_act_2/Mul_smr:0"
  top: "/model/model_0_act_2/Mul_smr:0"
    scale_param {
    "InputShapes": "64x128x128"
    "OutputShape": "64x128x128"
    "Quantize[mn,mx]": [-16.0, 16.0]
    "QuantizeBits": 8
    "ConstInputs": "/model/model_2_cv1_conv/WeightsSymmetricQuantizer:0"
    "ConstInputs": "Variable.model.model_2_cv1_conv.layer.bias.uid4:0"
    "RuntimeMemory": "1.00MB"
    
  }

}
layer {
  name: "Transform: transform-106-(F)/model/model_2_cv1_conv/layer/Conv"
  type: "Transform"
  bottom: "/model/model_0_act_2/Mul_smr:0"
  top: "transform-106-(F)/model/model_2_cv1_conv/layer/Conv:0"
    scale_param {
    "InputShapes": "64x128x128"
    "OutputShape": "64x128x128"
    "Quantize[mn,mx]": [-16.0, 16.0]
    "QuantizeBits": 8
    
    "RuntimeMemory": "1.00MB"
    "ScheduleId": "207"

  }

}
layer {
  name: "Transform: transform-107-(F)/model/model_2_cv1_conv/layer/Conv"
  type: "Transform"
  bottom: "/model/model_0_act_2/Mul_smr:0"
  top: "transform-107-(F)/model/model_2_cv1_conv/layer/Conv:0"
    scale_param {
    "InputShapes": "64x128x128"
    "OutputShape": "64x128x128"
    "Quantize[mn,mx]": [-16.0, 16.0]
    "QuantizeBits": 8
    
    "RuntimeMemory": "1.00MB"
    "ScheduleId": "209"

  }

}
layer {
  name: "StrideSlice: /model/Splitsts0"
  type: "StrideSlice"
  bottom: "transform-106-(F)/model/model_2_cv1_conv/layer/Conv:0"
  top: "/model/Splitsts0:0"
    scale_param {
    "InputShapes": "64x128x128"
    "OutputShape": "32x128x128"
    "Quantize[mn,mx]": [-16.0, 16.0]
    "QuantizeBits": 8
    
    "RuntimeMemory": "512.00KB"
    "ScheduleId": "208"

  }

}
layer {
  name: "StrideSlice: /model/Splitsts1"
  type: "StrideSlice"
  bottom: "transform-107-(F)/model/model_2_cv1_conv/layer/Conv:0"
  top: "/model/Splitsts1:0"
    scale_param {
    "InputShapes": "64x128x128"
    "OutputShape": "32x128x128"
    "Quantize[mn,mx]": [-16.0, 16.0]
    "QuantizeBits": 8
    
    "RuntimeMemory": "512.00KB"
    "ScheduleId": "210"

  }

}
layer {
  name: "Transform: transform-99-/model/Splitsts0"
  type: "Transform"
  bottom: "/model/Splitsts0:0"
  top: "transform-99-/model/Splitsts0:0"
    scale_param {
    "InputShapes": "32x128x128"
    "OutputShape": "32x128x128"
    "Quantize[mn,mx]": [-16.0, 16.0]
    "QuantizeBits": 8
    
    "RuntimeMemory": "512.00KB"
    "ScheduleId": "222"

  }

}
layer {
  name: "Transform: transform-100-/model/Splitsts1"
  type: "Transform"
  bottom: "/model/Splitsts1:0"
  top: "transform-100-/model/Splitsts1:0"
    scale_param {
    "InputShapes": "32x128x128"
    "OutputShape": "32x128x128"
    "Quantize[mn,mx]": [-16.0, 16.0]
    "QuantizeBits": 8
    
    "RuntimeMemory": "512.00KB"
    "ScheduleId": "211"

  }

}
layer {
  name: "Transform: transform-105-/model/Splitsts1"
  type: "Transform"
  bottom: "/model/Splitsts1:0"
  top: "transform-105-/model/Splitsts1:0"
    scale_param {
    "InputShapes": "32x128x128"
    "OutputShape": "32x128x128"
    "Quantize[mn,mx]": [-16.0, 16.0]
    "QuantizeBits": 8
    
    "RuntimeMemory": "512.00KB"
    "ScheduleId": "212"

  }

}
layer {
  name: "Conv2D: /model/model_2_m_0_cv1_conv/layer/Conv"
  type: "Convolution"
  bottom: "transform-105-/model/Splitsts1:0"
  top: "/model/model_0_act_3/Mul_smr:0"
    scale_param {
    "InputShapes": "32x128x128, 16x32x3x3, 16"
    "OutputShape": "16x128x128"
    "Quantize[mn,mx]": [-8.0, 8.0]
    "QuantizeBits": 16
    "ConstInputs": "/model/model_2_m_0_cv1_conv/WeightsSymmetricQuantizer:0"
    "ConstInputs": "Variable.model.model_2_m_0_cv1_conv.layer.bias.uid5:0"
    "RuntimeMemory": "256.00KB"
    "ScheduleId": "213"

  }
  blobs {
    shape {
      dim: 16
      dim: 32
      dim: 3
      dim: 3
    }
  }
  blobs {
    shape {
      dim: 16
    }
  }
}
layer {
  name: "Swish: /model/model_0_act_3/Mul_smr"
  type: "Swish"
  bottom: "/model/model_0_act_3/Mul_smr:0"
  top: "/model/model_0_act_3/Mul_smr:0"
    scale_param {
    "InputShapes": "16x128x128"
    "OutputShape": "16x128x128"
    "Quantize[mn,mx]": [0, 8.0]
    "QuantizeBits": 8
    "ConstInputs": "/model/model_2_m_0_cv1_conv/WeightsSymmetricQuantizer:0"
    "ConstInputs": "Variable.model.model_2_m_0_cv1_conv.layer.bias.uid5:0"
    "RuntimeMemory": "256.00KB"
    
  }

}
layer {
  name: "Pad: /model/Pad_1_to1d_0"
  type: "Pad"
  bottom: "/model/model_0_act_3/Mul_smr:0"
  top: "/model/Pad_1_to1d_0:0"
    scale_param {
    "InputShapes": "16x128x128"
    "OutputShape": "16x130x128"
    "Quantize[mn,mx]": [0, 8.0]
    "QuantizeBits": 8
    "HasScratch": "true"
    
    "RuntimeMemory": "260.00KB"
    "ScheduleId": "214"

  }

}
layer {
  name: "Transform: transform-104-/model/Pad_1_to1d_0"
  type: "Transform"
  bottom: "/model/Pad_1_to1d_0:0"
  top: "transform-104-/model/Pad_1_to1d_0:0"
    scale_param {
    "InputShapes": "16x130x128"
    "OutputShape": "16x130x128"
    "Quantize[mn,mx]": [0, 8.0]
    "QuantizeBits": 8
    
    "RuntimeMemory": "320.00KB"
    "ScheduleId": "215"

  }

}
layer {
  name: "Pad: /model/Pad_1_to1d_1"
  type: "Pad"
  bottom: "transform-104-/model/Pad_1_to1d_0:0"
  top: "/model/Pad_1_to1d_1:0"
    scale_param {
    "InputShapes": "16x130x128"
    "OutputShape": "16x130x130"
    "Quantize[mn,mx]": [0, 8.0]
    "QuantizeBits": 8
    "HasScratch": "true"
    
    "RuntimeMemory": "325.00KB"
    "ScheduleId": "216"

  }

}
layer {
  name: "Transform: transform-103-/model/Pad_1_to1d_1"
  type: "Transform"
  bottom: "/model/Pad_1_to1d_1:0"
  top: "transform-103-/model/Pad_1_to1d_1:0"
    scale_param {
    "InputShapes": "16x130x130"
    "OutputShape": "16x130x130"
    "Quantize[mn,mx]": [0, 8.0]
    "QuantizeBits": 8
    
    "RuntimeMemory": "325.00KB"
    "ScheduleId": "217"

  }

}
layer {
  name: "Conv2D: /model/model_2_m_0_cv2_conv/layer/Conv"
  type: "Convolution"
  bottom: "transform-103-/model/Pad_1_to1d_1:0"
  top: "/model/model_0_act_4/Mul_smr:0"
    scale_param {
    "InputShapes": "16x130x130, 32x16x3x3, 32"
    "OutputShape": "32x128x128"
    "Quantize[mn,mx]": [-16.0, 16.0]
    "QuantizeBits": 16
    "ConstInputs": "/model/model_2_m_0_cv2_conv/WeightsSymmetricQuantizer:0"
    "ConstInputs": "Variable.model.model_2_m_0_cv2_conv.layer.bias.uid6:0"
    "RuntimeMemory": "512.00KB"
    "ScheduleId": "218"

  }
  blobs {
    shape {
      dim: 32
      dim: 16
      dim: 3
      dim: 3
    }
  }
  blobs {
    shape {
      dim: 32
    }
  }
}
layer {
  name: "Swish: /model/model_0_act_4/Mul_smr"
  type: "Swish"
  bottom: "/model/model_0_act_4/Mul_smr:0"
  top: "/model/model_0_act_4/Mul_smr:0"
    scale_param {
    "InputShapes": "32x128x128"
    "OutputShape": "32x128x128"
    "Quantize[mn,mx]": [-16.0, 16.0]
    "QuantizeBits": 8
    "ConstInputs": "/model/model_2_m_0_cv2_conv/WeightsSymmetricQuantizer:0"
    "ConstInputs": "Variable.model.model_2_m_0_cv2_conv.layer.bias.uid6:0"
    "RuntimeMemory": "512.00KB"
    
  }

}
layer {
  name: "Transform: transform-102-(F)/model/model_2_m_0_cv2_conv/layer/Conv"
  type: "Transform"
  bottom: "/model/model_0_act_4/Mul_smr:0"
  top: "transform-102-(F)/model/model_2_m_0_cv2_conv/layer/Conv:0"
    scale_param {
    "InputShapes": "32x128x128"
    "OutputShape": "32x128x128"
    "Quantize[mn,mx]": [-16.0, 16.0]
    "QuantizeBits": 8
    
    "RuntimeMemory": "512.00KB"
    "ScheduleId": "219"

  }

}
layer {
  name: "Add: /model/Add_3"
  type: "Add"
  bottom: "/model/Splitsts1:0"
  bottom: "transform-102-(F)/model/model_2_m_0_cv2_conv/layer/Conv:0"
  top: "/model/Add_3:0"
    scale_param {
    "InputShapes": "32x128x128, 32x128x128"
    "OutputShape": "32x128x128"
    "Quantize[mn,mx]": [-16.0, 16.0]
    "QuantizeBits": 8
    
    "RuntimeMemory": "512.00KB"
    "ScheduleId": "220"

  }

}
layer {
  name: "Transform: transform-101-/model/Add_3"
  type: "Transform"
  bottom: "/model/Add_3:0"
  top: "transform-101-/model/Add_3:0"
    scale_param {
    "InputShapes": "32x128x128"
    "OutputShape": "32x128x128"
    "Quantize[mn,mx]": [-16.0, 16.0]
    "QuantizeBits": 8
    
    "RuntimeMemory": "512.00KB"
    "ScheduleId": "221"

  }

}
layer {
  name: "Concat: /model/Concat_2"
  type: "Concat"
  bottom: "transform-100-/model/Splitsts1:0"
  bottom: "transform-101-/model/Add_3:0"
  bottom: "transform-99-/model/Splitsts0:0"
  top: "/model/Concat_2:0"
    scale_param {
    "InputShapes": "32x128x128, 32x128x128, 32x128x128"
    "OutputShape": "96x128x128"
    "Quantize[mn,mx]": [-16.0, 16.0]
    "QuantizeBits": 8
    
    "RuntimeMemory": "1.50MB"
    "ScheduleId": "223"

  }

}
layer {
  name: "Transform: transform-98-/model/Concat_2"
  type: "Transform"
  bottom: "/model/Concat_2:0"
  top: "transform-98-/model/Concat_2:0"
    scale_param {
    "InputShapes": "96x128x128"
    "OutputShape": "96x128x128"
    "Quantize[mn,mx]": [-16.0, 16.0]
    "QuantizeBits": 8
    
    "RuntimeMemory": "1.50MB"
    "ScheduleId": "224"

  }

}
layer {
  name: "Conv2D: /model/model_2_cv2_conv/layer/Conv"
  type: "Convolution"
  bottom: "transform-98-/model/Concat_2:0"
  top: "/model/model_0_act_5/Mul_smr:0"
    scale_param {
    "InputShapes": "96x128x128, 128x96x1x1, 128"
    "OutputShape": "128x128x128"
    "Quantize[mn,mx]": [-8.0, 8.0]
    "QuantizeBits": 16
    "ConstInputs": "/model/model_2_cv2_conv/WeightsSymmetricQuantizer:0"
    "ConstInputs": "Variable.model.model_2_cv2_conv.layer.bias.uid7:0"
    "RuntimeMemory": "2.00MB"
    "ScheduleId": "225"

  }
  blobs {
    shape {
      dim: 128
      dim: 96
      dim: 1
      dim: 1
    }
  }
  blobs {
    shape {
      dim: 128
    }
  }
}
layer {
  name: "Swish: /model/model_0_act_5/Mul_smr"
  type: "Swish"
  bottom: "/model/model_0_act_5/Mul_smr:0"
  top: "/model/model_0_act_5/Mul_smr:0"
    scale_param {
    "InputShapes": "128x128x128"
    "OutputShape": "128x128x128"
    "Quantize[mn,mx]": [0, 8.0]
    "QuantizeBits": 8
    "ConstInputs": "/model/model_2_cv2_conv/WeightsSymmetricQuantizer:0"
    "ConstInputs": "Variable.model.model_2_cv2_conv.layer.bias.uid7:0"
    "RuntimeMemory": "2.00MB"
    
  }

}
layer {
  name: "Pad: /model/Pad_2_to1d_0"
  type: "Pad"
  bottom: "/model/model_0_act_5/Mul_smr:0"
  top: "/model/Pad_2_to1d_0:0"
    scale_param {
    "InputShapes": "128x128x128"
    "OutputShape": "128x130x128"
    "Quantize[mn,mx]": [0, 8.0]
    "QuantizeBits": 8
    "HasScratch": "true"
    
    "RuntimeMemory": "2.03MB"
    "ScheduleId": "226"

  }

}
layer {
  name: "Pad: /model/Pad_2_to1d_1"
  type: "Pad"
  bottom: "/model/Pad_2_to1d_0:0"
  top: "/model/Pad_2_to1d_1:0"
    scale_param {
    "InputShapes": "128x130x128"
    "OutputShape": "128x130x130"
    "Quantize[mn,mx]": [0, 8.0]
    "QuantizeBits": 8
    "HasScratch": "true"
    
    "RuntimeMemory": "2.06MB"
    "ScheduleId": "227"

  }

}
layer {
  name: "Conv2D: /model/model_3_conv/layer/Conv"
  type: "Convolution"
  bottom: "/model/Pad_2_to1d_1:0"
  top: "/model/model_0_act_6/Mul_smr:0"
    scale_param {
    "InputShapes": "128x130x130, 128x128x3x3, 128"
    "OutputShape": "128x64x64"
    "Quantize[mn,mx]": [-8.0, 8.0]
    "QuantizeBits": 16
    "ConstInputs": "/model/model_3_conv/WeightsSymmetricQuantizer:0"
    "ConstInputs": "Variable.model.model_3_conv.layer.bias.uid8:0"
    "RuntimeMemory": "512.00KB"
    "ScheduleId": "228"

  }
  blobs {
    shape {
      dim: 128
      dim: 128
      dim: 3
      dim: 3
    }
  }
  blobs {
    shape {
      dim: 128
    }
  }
}
layer {
  name: "Swish: /model/model_0_act_6/Mul_smr"
  type: "Swish"
  bottom: "/model/model_0_act_6/Mul_smr:0"
  top: "/model/model_0_act_6/Mul_smr:0"
    scale_param {
    "InputShapes": "128x64x64"
    "OutputShape": "128x64x64"
    "Quantize[mn,mx]": [0, 8.0]
    "QuantizeBits": 8
    "ConstInputs": "/model/model_3_conv/WeightsSymmetricQuantizer:0"
    "ConstInputs": "Variable.model.model_3_conv.layer.bias.uid8:0"
    "RuntimeMemory": "512.00KB"
    
  }

}
layer {
  name: "Conv2D: /model/model_4_cv1_conv/layer/Conv"
  type: "Convolution"
  bottom: "/model/model_0_act_6/Mul_smr:0"
  top: "/model/model_0_act_7/Mul_smr:0"
    scale_param {
    "InputShapes": "128x64x64, 128x128x1x1, 128"
    "OutputShape": "128x64x64"
    "Quantize[mn,mx]": [-8.0, 8.0]
    "QuantizeBits": 16
    "ConstInputs": "/model/model_4_cv1_conv/WeightsSymmetricQuantizer:0"
    "ConstInputs": "Variable.model.model_4_cv1_conv.layer.bias.uid9:0"
    "RuntimeMemory": "512.00KB"
    "ScheduleId": "229"

  }
  blobs {
    shape {
      dim: 128
      dim: 128
      dim: 1
      dim: 1
    }
  }
  blobs {
    shape {
      dim: 128
    }
  }
}
layer {
  name: "Swish: /model/model_0_act_7/Mul_smr"
  type: "Swish"
  bottom: "/model/model_0_act_7/Mul_smr:0"
  top: "/model/model_0_act_7/Mul_smr:0"
    scale_param {
    "InputShapes": "128x64x64"
    "OutputShape": "128x64x64"
    "Quantize[mn,mx]": [-8.0, 8.0]
    "QuantizeBits": 8
    "ConstInputs": "/model/model_4_cv1_conv/WeightsSymmetricQuantizer:0"
    "ConstInputs": "Variable.model.model_4_cv1_conv.layer.bias.uid9:0"
    "RuntimeMemory": "512.00KB"
    
  }

}
layer {
  name: "Transform: transform-96-(F)/model/model_4_cv1_conv/layer/Conv"
  type: "Transform"
  bottom: "/model/model_0_act_7/Mul_smr:0"
  top: "transform-96-(F)/model/model_4_cv1_conv/layer/Conv:0"
    scale_param {
    "InputShapes": "128x64x64"
    "OutputShape": "128x64x64"
    "Quantize[mn,mx]": [-8.0, 8.0]
    "QuantizeBits": 8
    
    "RuntimeMemory": "512.00KB"
    "ScheduleId": "230"

  }

}
layer {
  name: "Transform: transform-97-(F)/model/model_4_cv1_conv/layer/Conv"
  type: "Transform"
  bottom: "/model/model_0_act_7/Mul_smr:0"
  top: "transform-97-(F)/model/model_4_cv1_conv/layer/Conv:0"
    scale_param {
    "InputShapes": "128x64x64"
    "OutputShape": "128x64x64"
    "Quantize[mn,mx]": [-8.0, 8.0]
    "QuantizeBits": 8
    
    "RuntimeMemory": "512.00KB"
    "ScheduleId": "233"

  }

}
layer {
  name: "StrideSlice: /model/Split_1sts0"
  type: "StrideSlice"
  bottom: "transform-96-(F)/model/model_4_cv1_conv/layer/Conv:0"
  top: "/model/Split_1sts0:0"
    scale_param {
    "InputShapes": "128x64x64"
    "OutputShape": "64x64x64"
    "Quantize[mn,mx]": [-8.0, 8.0]
    "QuantizeBits": 8
    
    "RuntimeMemory": "256.00KB"
    "ScheduleId": "231"

  }

}
layer {
  name: "StrideSlice: /model/Split_1sts1"
  type: "StrideSlice"
  bottom: "transform-97-(F)/model/model_4_cv1_conv/layer/Conv:0"
  top: "/model/Split_1sts1:0"
    scale_param {
    "InputShapes": "128x64x64"
    "OutputShape": "64x64x64"
    "Quantize[mn,mx]": [-8.0, 8.0]
    "QuantizeBits": 8
    
    "RuntimeMemory": "256.00KB"
    "ScheduleId": "234"

  }

}
layer {
  name: "Transform: transform-91-/model/Split_1sts0"
  type: "Transform"
  bottom: "/model/Split_1sts0:0"
  top: "transform-91-/model/Split_1sts0:0"
    scale_param {
    "InputShapes": "64x64x64"
    "OutputShape": "64x64x64"
    "Quantize[mn,mx]": [-8.0, 8.0]
    "QuantizeBits": 8
    
    "RuntimeMemory": "256.00KB"
    "ScheduleId": "232"

  }

}
layer {
  name: "Transform: transform-92-/model/Split_1sts1"
  type: "Transform"
  bottom: "/model/Split_1sts1:0"
  top: "transform-92-/model/Split_1sts1:0"
    scale_param {
    "InputShapes": "64x64x64"
    "OutputShape": "64x64x64"
    "Quantize[mn,mx]": [-8.0, 8.0]
    "QuantizeBits": 8
    
    "RuntimeMemory": "256.00KB"
    "ScheduleId": "235"

  }

}
layer {
  name: "Transform: transform-95-/model/Split_1sts1"
  type: "Transform"
  bottom: "/model/Split_1sts1:0"
  top: "transform-95-/model/Split_1sts1:0"
    scale_param {
    "InputShapes": "64x64x64"
    "OutputShape": "64x64x64"
    "Quantize[mn,mx]": [-8.0, 8.0]
    "QuantizeBits": 8
    
    "RuntimeMemory": "256.00KB"
    "ScheduleId": "236"

  }

}
layer {
  name: "Conv2D: /model/model_4_m_0_cv1_conv/layer/Conv"
  type: "Convolution"
  bottom: "transform-95-/model/Split_1sts1:0"
  top: "/model/model_0_act_8/Mul_smr:0"
    scale_param {
    "InputShapes": "64x64x64, 32x64x3x3, 32"
    "OutputShape": "32x64x64"
    "Quantize[mn,mx]": [-8.0, 8.0]
    "QuantizeBits": 16
    "ConstInputs": "/model/model_4_m_0_cv1_conv/WeightsSymmetricQuantizer:0"
    "ConstInputs": "Variable.model.model_4_m_0_cv1_conv.layer.bias.uid10:0"
    "RuntimeMemory": "128.00KB"
    "ScheduleId": "237"

  }
  blobs {
    shape {
      dim: 32
      dim: 64
      dim: 3
      dim: 3
    }
  }
  blobs {
    shape {
      dim: 32
    }
  }
}
layer {
  name: "Swish: /model/model_0_act_8/Mul_smr"
  type: "Swish"
  bottom: "/model/model_0_act_8/Mul_smr:0"
  top: "/model/model_0_act_8/Mul_smr:0"
    scale_param {
    "InputShapes": "32x64x64"
    "OutputShape": "32x64x64"
    "Quantize[mn,mx]": [-4.0, 4.0]
    "QuantizeBits": 8
    "ConstInputs": "/model/model_4_m_0_cv1_conv/WeightsSymmetricQuantizer:0"
    "ConstInputs": "Variable.model.model_4_m_0_cv1_conv.layer.bias.uid10:0"
    "RuntimeMemory": "128.00KB"
    
  }

}
layer {
  name: "Conv2D: /model/model_4_m_0_cv2_conv/layer/Conv"
  type: "Convolution"
  bottom: "/model/model_0_act_8/Mul_smr:0"
  top: "/model/model_0_act_9/Mul_smr:0"
    scale_param {
    "InputShapes": "32x64x64, 64x32x3x3, 64"
    "OutputShape": "64x64x64"
    "Quantize[mn,mx]": [-8.0, 8.0]
    "QuantizeBits": 16
    "ConstInputs": "/model/model_4_m_0_cv2_conv/WeightsSymmetricQuantizer:0"
    "ConstInputs": "Variable.model.model_4_m_0_cv2_conv.layer.bias.uid11:0"
    "RuntimeMemory": "256.00KB"
    "ScheduleId": "238"

  }
  blobs {
    shape {
      dim: 64
      dim: 32
      dim: 3
      dim: 3
    }
  }
  blobs {
    shape {
      dim: 64
    }
  }
}
layer {
  name: "Swish: /model/model_0_act_9/Mul_smr"
  type: "Swish"
  bottom: "/model/model_0_act_9/Mul_smr:0"
  top: "/model/model_0_act_9/Mul_smr:0"
    scale_param {
    "InputShapes": "64x64x64"
    "OutputShape": "64x64x64"
    "Quantize[mn,mx]": [-8.0, 8.0]
    "QuantizeBits": 8
    "ConstInputs": "/model/model_4_m_0_cv2_conv/WeightsSymmetricQuantizer:0"
    "ConstInputs": "Variable.model.model_4_m_0_cv2_conv.layer.bias.uid11:0"
    "RuntimeMemory": "256.00KB"
    
  }

}
layer {
  name: "Transform: transform-94-(F)/model/model_4_m_0_cv2_conv/layer/Conv"
  type: "Transform"
  bottom: "/model/model_0_act_9/Mul_smr:0"
  top: "transform-94-(F)/model/model_4_m_0_cv2_conv/layer/Conv:0"
    scale_param {
    "InputShapes": "64x64x64"
    "OutputShape": "64x64x64"
    "Quantize[mn,mx]": [-8.0, 8.0]
    "QuantizeBits": 8
    
    "RuntimeMemory": "256.00KB"
    "ScheduleId": "239"

  }

}
layer {
  name: "Add: /model/Add_6"
  type: "Add"
  bottom: "/model/Split_1sts1:0"
  bottom: "transform-94-(F)/model/model_4_m_0_cv2_conv/layer/Conv:0"
  top: "/model/Add_6:0"
    scale_param {
    "InputShapes": "64x64x64, 64x64x64"
    "OutputShape": "64x64x64"
    "Quantize[mn,mx]": [-8.0, 8.0]
    "QuantizeBits": 8
    
    "RuntimeMemory": "256.00KB"
    "ScheduleId": "240"

  }

}
layer {
  name: "Transform: transform-93-/model/Add_6"
  type: "Transform"
  bottom: "/model/Add_6:0"
  top: "transform-93-/model/Add_6:0"
    scale_param {
    "InputShapes": "64x64x64"
    "OutputShape": "64x64x64"
    "Quantize[mn,mx]": [-8.0, 8.0]
    "QuantizeBits": 8
    
    "RuntimeMemory": "256.00KB"
    "ScheduleId": "241"

  }

}
layer {
  name: "Concat: /model/Concat_4"
  type: "Concat"
  bottom: "transform-91-/model/Split_1sts0:0"
  bottom: "transform-92-/model/Split_1sts1:0"
  bottom: "transform-93-/model/Add_6:0"
  top: "/model/Concat_4:0"
    scale_param {
    "InputShapes": "64x64x64, 64x64x64, 64x64x64"
    "OutputShape": "192x64x64"
    "Quantize[mn,mx]": [-8.0, 8.0]
    "QuantizeBits": 8
    
    "RuntimeMemory": "768.00KB"
    "ScheduleId": "242"

  }

}
layer {
  name: "Conv2D: /model/model_4_cv2_conv/layer/Conv"
  type: "Convolution"
  bottom: "/model/Concat_4:0"
  top: "/model/model_0_act_10/Mul_smr:0"
    scale_param {
    "InputShapes": "192x64x64, 256x192x1x1, 256"
    "OutputShape": "256x64x64"
    "Quantize[mn,mx]": [-8.0, 8.0]
    "QuantizeBits": 16
    "ConstInputs": "/model/model_4_cv2_conv/WeightsSymmetricQuantizer:0"
    "ConstInputs": "Variable.model.model_4_cv2_conv.layer.bias.uid12:0"
    "RuntimeMemory": "1.00MB"
    "ScheduleId": "243"

  }
  blobs {
    shape {
      dim: 256
      dim: 192
      dim: 1
      dim: 1
    }
  }
  blobs {
    shape {
      dim: 256
    }
  }
}
layer {
  name: "Swish: /model/model_0_act_10/Mul_smr"
  type: "Swish"
  bottom: "/model/model_0_act_10/Mul_smr:0"
  top: "/model/model_0_act_10/Mul_smr:0"
    scale_param {
    "InputShapes": "256x64x64"
    "OutputShape": "256x64x64"
    "Quantize[mn,mx]": [-4.0, 4.0]
    "QuantizeBits": 8
    "ConstInputs": "/model/model_4_cv2_conv/WeightsSymmetricQuantizer:0"
    "ConstInputs": "Variable.model.model_4_cv2_conv.layer.bias.uid12:0"
    "RuntimeMemory": "1.00MB"
    
  }

}
layer {
  name: "Conv2D: /model/model_5_conv/layer/Conv"
  type: "Convolution"
  bottom: "/model/model_0_act_10/Mul_smr:0"
  top: "/model/model_0_act_11/Mul_smr:0"
    scale_param {
    "InputShapes": "256x64x64, 256x256x3x3, 256"
    "OutputShape": "256x32x32"
    "Quantize[mn,mx]": [-8.0, 8.0]
    "QuantizeBits": 16
    "ConstInputs": "/model/model_5_conv/WeightsSymmetricQuantizer:0"
    "ConstInputs": "Variable.model.model_5_conv.layer.bias.uid13:0"
    "RuntimeMemory": "256.00KB"
    "ScheduleId": "244"

  }
  blobs {
    shape {
      dim: 256
      dim: 256
      dim: 3
      dim: 3
    }
  }
  blobs {
    shape {
      dim: 256
    }
  }
}
layer {
  name: "Swish: /model/model_0_act_11/Mul_smr"
  type: "Swish"
  bottom: "/model/model_0_act_11/Mul_smr:0"
  top: "/model/model_0_act_11/Mul_smr:0"
    scale_param {
    "InputShapes": "256x32x32"
    "OutputShape": "256x32x32"
    "Quantize[mn,mx]": [0, 8.0]
    "QuantizeBits": 8
    "ConstInputs": "/model/model_5_conv/WeightsSymmetricQuantizer:0"
    "ConstInputs": "Variable.model.model_5_conv.layer.bias.uid13:0"
    "RuntimeMemory": "256.00KB"
    
  }

}
layer {
  name: "Conv2D: /model/model_6_cv1_conv/layer/Conv"
  type: "Convolution"
  bottom: "/model/model_0_act_11/Mul_smr:0"
  top: "/model/model_0_act_12/Mul_smr:0"
    scale_param {
    "InputShapes": "256x32x32, 256x256x1x1, 256"
    "OutputShape": "256x32x32"
    "Quantize[mn,mx]": [-8.0, 8.0]
    "QuantizeBits": 16
    "ConstInputs": "/model/model_6_cv1_conv/WeightsSymmetricQuantizer:0"
    "ConstInputs": "Variable.model.model_6_cv1_conv.layer.bias.uid14:0"
    "RuntimeMemory": "256.00KB"
    "ScheduleId": "245"

  }
  blobs {
    shape {
      dim: 256
      dim: 256
      dim: 1
      dim: 1
    }
  }
  blobs {
    shape {
      dim: 256
    }
  }
}
layer {
  name: "Swish: /model/model_0_act_12/Mul_smr"
  type: "Swish"
  bottom: "/model/model_0_act_12/Mul_smr:0"
  top: "/model/model_0_act_12/Mul_smr:0"
    scale_param {
    "InputShapes": "256x32x32"
    "OutputShape": "256x32x32"
    "Quantize[mn,mx]": [-8.0, 8.0]
    "QuantizeBits": 8
    "ConstInputs": "/model/model_6_cv1_conv/WeightsSymmetricQuantizer:0"
    "ConstInputs": "Variable.model.model_6_cv1_conv.layer.bias.uid14:0"
    "RuntimeMemory": "256.00KB"
    
  }

}
layer {
  name: "Transform: transform-89-(F)/model/model_6_cv1_conv/layer/Conv"
  type: "Transform"
  bottom: "/model/model_0_act_12/Mul_smr:0"
  top: "transform-89-(F)/model/model_6_cv1_conv/layer/Conv:0"
    scale_param {
    "InputShapes": "256x32x32"
    "OutputShape": "256x32x32"
    "Quantize[mn,mx]": [-8.0, 8.0]
    "QuantizeBits": 8
    
    "RuntimeMemory": "256.00KB"
    "ScheduleId": "246"

  }

}
layer {
  name: "Transform: transform-90-(F)/model/model_6_cv1_conv/layer/Conv"
  type: "Transform"
  bottom: "/model/model_0_act_12/Mul_smr:0"
  top: "transform-90-(F)/model/model_6_cv1_conv/layer/Conv:0"
    scale_param {
    "InputShapes": "256x32x32"
    "OutputShape": "256x32x32"
    "Quantize[mn,mx]": [-8.0, 8.0]
    "QuantizeBits": 8
    
    "RuntimeMemory": "256.00KB"
    "ScheduleId": "249"

  }

}
layer {
  name: "StrideSlice: /model/Split_2sts0"
  type: "StrideSlice"
  bottom: "transform-89-(F)/model/model_6_cv1_conv/layer/Conv:0"
  top: "/model/Split_2sts0:0"
    scale_param {
    "InputShapes": "256x32x32"
    "OutputShape": "128x32x32"
    "Quantize[mn,mx]": [-8.0, 8.0]
    "QuantizeBits": 8
    
    "RuntimeMemory": "128.00KB"
    "ScheduleId": "247"

  }

}
layer {
  name: "StrideSlice: /model/Split_2sts1"
  type: "StrideSlice"
  bottom: "transform-90-(F)/model/model_6_cv1_conv/layer/Conv:0"
  top: "/model/Split_2sts1:0"
    scale_param {
    "InputShapes": "256x32x32"
    "OutputShape": "128x32x32"
    "Quantize[mn,mx]": [-8.0, 8.0]
    "QuantizeBits": 8
    
    "RuntimeMemory": "128.00KB"
    "ScheduleId": "250"

  }

}
layer {
  name: "Transform: transform-85-/model/Split_2sts0"
  type: "Transform"
  bottom: "/model/Split_2sts0:0"
  top: "transform-85-/model/Split_2sts0:0"
    scale_param {
    "InputShapes": "128x32x32"
    "OutputShape": "128x32x32"
    "Quantize[mn,mx]": [-8.0, 8.0]
    "QuantizeBits": 8
    
    "RuntimeMemory": "128.00KB"
    "ScheduleId": "248"

  }

}
layer {
  name: "Transform: transform-86-/model/Split_2sts1"
  type: "Transform"
  bottom: "/model/Split_2sts1:0"
  top: "transform-86-/model/Split_2sts1:0"
    scale_param {
    "InputShapes": "128x32x32"
    "OutputShape": "128x32x32"
    "Quantize[mn,mx]": [-8.0, 8.0]
    "QuantizeBits": 8
    
    "RuntimeMemory": "128.00KB"
    "ScheduleId": "251"

  }

}
layer {
  name: "Transform: transform-87-/model/Split_2sts1"
  type: "Transform"
  bottom: "/model/Split_2sts1:0"
  top: "transform-87-/model/Split_2sts1:0"
    scale_param {
    "InputShapes": "128x32x32"
    "OutputShape": "128x32x32"
    "Quantize[mn,mx]": [-8.0, 8.0]
    "QuantizeBits": 8
    
    "RuntimeMemory": "128.00KB"
    "ScheduleId": "252"

  }

}
layer {
  name: "Transform: transform-88-/model/Split_2sts1"
  type: "Transform"
  bottom: "/model/Split_2sts1:0"
  top: "transform-88-/model/Split_2sts1:0"
    scale_param {
    "InputShapes": "128x32x32"
    "OutputShape": "128x32x32"
    "Quantize[mn,mx]": [-8.0, 8.0]
    "QuantizeBits": 8
    
    "RuntimeMemory": "128.00KB"
    "ScheduleId": "254"

  }

}
layer {
  name: "Conv2D: /model/model_6_m_0_cv2_conv/layer/Conv"
  type: "Convolution"
  bottom: "transform-87-/model/Split_2sts1:0"
  top: "/model/model_0_act_18/Mul_smr:0"
    scale_param {
    "InputShapes": "128x32x32, 64x128x1x1, 64"
    "OutputShape": "64x32x32"
    "Quantize[mn,mx]": [-8.0, 8.0]
    "QuantizeBits": 16
    "ConstInputs": "/model/model_6_m_0_cv2_conv/WeightsSymmetricQuantizer:0"
    "ConstInputs": "Variable.model.model_6_m_0_cv2_conv.layer.bias.uid16:0"
    "RuntimeMemory": "64.00KB"
    "ScheduleId": "253"

  }
  blobs {
    shape {
      dim: 64
      dim: 128
      dim: 1
      dim: 1
    }
  }
  blobs {
    shape {
      dim: 64
    }
  }
}
layer {
  name: "Swish: /model/model_0_act_18/Mul_smr"
  type: "Swish"
  bottom: "/model/model_0_act_18/Mul_smr:0"
  top: "/model/model_0_act_18/Mul_smr:0"
    scale_param {
    "InputShapes": "64x32x32"
    "OutputShape": "64x32x32"
    "Quantize[mn,mx]": [-8.0, 8.0]
    "QuantizeBits": 8
    "ConstInputs": "/model/model_6_m_0_cv2_conv/WeightsSymmetricQuantizer:0"
    "ConstInputs": "Variable.model.model_6_m_0_cv2_conv.layer.bias.uid16:0"
    "RuntimeMemory": "64.00KB"
    
  }

}
layer {
  name: "Conv2D: /model/model_6_m_0_cv1_conv/layer/Conv"
  type: "Convolution"
  bottom: "transform-88-/model/Split_2sts1:0"
  top: "/model/model_0_act_13/Mul_smr:0"
    scale_param {
    "InputShapes": "128x32x32, 64x128x1x1, 64"
    "OutputShape": "64x32x32"
    "Quantize[mn,mx]": [-8.0, 8.0]
    "QuantizeBits": 16
    "ConstInputs": "/model/model_6_m_0_cv1_conv/WeightsSymmetricQuantizer:0"
    "ConstInputs": "Variable.model.model_6_m_0_cv1_conv.layer.bias.uid15:0"
    "RuntimeMemory": "64.00KB"
    "ScheduleId": "255"

  }
  blobs {
    shape {
      dim: 64
      dim: 128
      dim: 1
      dim: 1
    }
  }
  blobs {
    shape {
      dim: 64
    }
  }
}
layer {
  name: "Swish: /model/model_0_act_13/Mul_smr"
  type: "Swish"
  bottom: "/model/model_0_act_13/Mul_smr:0"
  top: "/model/model_0_act_13/Mul_smr:0"
    scale_param {
    "InputShapes": "64x32x32"
    "OutputShape": "64x32x32"
    "Quantize[mn,mx]": [-8.0, 8.0]
    "QuantizeBits": 8
    "ConstInputs": "/model/model_6_m_0_cv1_conv/WeightsSymmetricQuantizer:0"
    "ConstInputs": "Variable.model.model_6_m_0_cv1_conv.layer.bias.uid15:0"
    "RuntimeMemory": "64.00KB"
    
  }

}
layer {
  name: "Conv2D: /model/model_6_m_0_m_0_cv1_conv/layer/Conv"
  type: "Convolution"
  bottom: "/model/model_0_act_13/Mul_smr:0"
  top: "/model/model_0_act_14/Mul_smr:0"
    scale_param {
    "InputShapes": "64x32x32, 64x64x3x3, 64"
    "OutputShape": "64x32x32"
    "Quantize[mn,mx]": [-8.0, 8.0]
    "QuantizeBits": 16
    "ConstInputs": "/model/model_6_m_0_m_0_cv1_conv/WeightsSymmetricQuantizer:0"
    "ConstInputs": "Variable.model.model_6_m_0_m_0_cv1_conv.layer.bias.uid17:0"
    "RuntimeMemory": "64.00KB"
    "ScheduleId": "256"

  }
  blobs {
    shape {
      dim: 64
      dim: 64
      dim: 3
      dim: 3
    }
  }
  blobs {
    shape {
      dim: 64
    }
  }
}
layer {
  name: "Swish: /model/model_0_act_14/Mul_smr"
  type: "Swish"
  bottom: "/model/model_0_act_14/Mul_smr:0"
  top: "/model/model_0_act_14/Mul_smr:0"
    scale_param {
    "InputShapes": "64x32x32"
    "OutputShape": "64x32x32"
    "Quantize[mn,mx]": [-4.0, 4.0]
    "QuantizeBits": 8
    "ConstInputs": "/model/model_6_m_0_m_0_cv1_conv/WeightsSymmetricQuantizer:0"
    "ConstInputs": "Variable.model.model_6_m_0_m_0_cv1_conv.layer.bias.uid17:0"
    "RuntimeMemory": "64.00KB"
    
  }

}
layer {
  name: "Conv2D: /model/model_6_m_0_m_0_cv2_conv/layer/Conv"
  type: "Convolution"
  bottom: "/model/model_0_act_14/Mul_smr:0"
  top: "/model/model_0_act_15/Mul_smr:0"
    scale_param {
    "InputShapes": "64x32x32, 64x64x3x3, 64"
    "OutputShape": "64x32x32"
    "Quantize[mn,mx]": [-8.0, 8.0]
    "QuantizeBits": 16
    "ConstInputs": "/model/model_6_m_0_m_0_cv2_conv/WeightsSymmetricQuantizer:0"
    "ConstInputs": "Variable.model.model_6_m_0_m_0_cv2_conv.layer.bias.uid18:0"
    "RuntimeMemory": "64.00KB"
    "ScheduleId": "257"

  }
  blobs {
    shape {
      dim: 64
      dim: 64
      dim: 3
      dim: 3
    }
  }
  blobs {
    shape {
      dim: 64
    }
  }
}
layer {
  name: "Swish: /model/model_0_act_15/Mul_smr"
  type: "Swish"
  bottom: "/model/model_0_act_15/Mul_smr:0"
  top: "/model/model_0_act_15/Mul_smr:0"
    scale_param {
    "InputShapes": "64x32x32"
    "OutputShape": "64x32x32"
    "Quantize[mn,mx]": [-4.0, 4.0]
    "QuantizeBits": 8
    "ConstInputs": "/model/model_6_m_0_m_0_cv2_conv/WeightsSymmetricQuantizer:0"
    "ConstInputs": "Variable.model.model_6_m_0_m_0_cv2_conv.layer.bias.uid18:0"
    "RuntimeMemory": "64.00KB"
    
  }

}
layer {
  name: "Add: /model/Add_8"
  type: "Add"
  bottom: "/model/model_0_act_13/Mul_smr:0"
  bottom: "/model/model_0_act_15/Mul_smr:0"
  top: "/model/Add_8:0"
    scale_param {
    "InputShapes": "64x32x32, 64x32x32"
    "OutputShape": "64x32x32"
    "Quantize[mn,mx]": [-8.0, 8.0]
    "QuantizeBits": 8
    
    "RuntimeMemory": "64.00KB"
    "ScheduleId": "258"

  }

}
layer {
  name: "Conv2D: /model/model_6_m_0_m_1_cv1_conv/layer/Conv"
  type: "Convolution"
  bottom: "/model/Add_8:0"
  top: "/model/model_0_act_16/Mul_smr:0"
    scale_param {
    "InputShapes": "64x32x32, 64x64x3x3, 64"
    "OutputShape": "64x32x32"
    "Quantize[mn,mx]": [-8.0, 8.0]
    "QuantizeBits": 16
    "ConstInputs": "/model/model_6_m_0_m_1_cv1_conv/WeightsSymmetricQuantizer:0"
    "ConstInputs": "Variable.model.model_6_m_0_m_1_cv1_conv.layer.bias.uid19:0"
    "RuntimeMemory": "64.00KB"
    "ScheduleId": "259"

  }
  blobs {
    shape {
      dim: 64
      dim: 64
      dim: 3
      dim: 3
    }
  }
  blobs {
    shape {
      dim: 64
    }
  }
}
layer {
  name: "Swish: /model/model_0_act_16/Mul_smr"
  type: "Swish"
  bottom: "/model/model_0_act_16/Mul_smr:0"
  top: "/model/model_0_act_16/Mul_smr:0"
    scale_param {
    "InputShapes": "64x32x32"
    "OutputShape": "64x32x32"
    "Quantize[mn,mx]": [-4.0, 4.0]
    "QuantizeBits": 8
    "ConstInputs": "/model/model_6_m_0_m_1_cv1_conv/WeightsSymmetricQuantizer:0"
    "ConstInputs": "Variable.model.model_6_m_0_m_1_cv1_conv.layer.bias.uid19:0"
    "RuntimeMemory": "64.00KB"
    
  }

}
layer {
  name: "Conv2D: /model/model_6_m_0_m_1_cv2_conv/layer/Conv"
  type: "Convolution"
  bottom: "/model/model_0_act_16/Mul_smr:0"
  top: "/model/model_0_act_17/Mul_smr:0"
    scale_param {
    "InputShapes": "64x32x32, 64x64x3x3, 64"
    "OutputShape": "64x32x32"
    "Quantize[mn,mx]": [-16.0, 16.0]
    "QuantizeBits": 16
    "ConstInputs": "/model/model_6_m_0_m_1_cv2_conv/WeightsSymmetricQuantizer:0"
    "ConstInputs": "Variable.model.model_6_m_0_m_1_cv2_conv.layer.bias.uid20:0"
    "RuntimeMemory": "64.00KB"
    "ScheduleId": "260"

  }
  blobs {
    shape {
      dim: 64
      dim: 64
      dim: 3
      dim: 3
    }
  }
  blobs {
    shape {
      dim: 64
    }
  }
}
layer {
  name: "Swish: /model/model_0_act_17/Mul_smr"
  type: "Swish"
  bottom: "/model/model_0_act_17/Mul_smr:0"
  top: "/model/model_0_act_17/Mul_smr:0"
    scale_param {
    "InputShapes": "64x32x32"
    "OutputShape": "64x32x32"
    "Quantize[mn,mx]": [-16.0, 16.0]
    "QuantizeBits": 8
    "ConstInputs": "/model/model_6_m_0_m_1_cv2_conv/WeightsSymmetricQuantizer:0"
    "ConstInputs": "Variable.model.model_6_m_0_m_1_cv2_conv.layer.bias.uid20:0"
    "RuntimeMemory": "64.00KB"
    
  }

}
layer {
  name: "Add: /model/Add_9"
  type: "Add"
  bottom: "/model/Add_8:0"
  bottom: "/model/model_0_act_17/Mul_smr:0"
  top: "/model/Add_9:0"
    scale_param {
    "InputShapes": "64x32x32, 64x32x32"
    "OutputShape": "64x32x32"
    "Quantize[mn,mx]": [-16.0, 16.0]
    "QuantizeBits": 8
    
    "RuntimeMemory": "64.00KB"
    "ScheduleId": "261"

  }

}
layer {
  name: "Concat: /model/Concat_5"
  type: "Concat"
  bottom: "/model/Add_9:0"
  bottom: "/model/model_0_act_18/Mul_smr:0"
  top: "/model/Concat_5:0"
    scale_param {
    "InputShapes": "64x32x32, 64x32x32"
    "OutputShape": "128x32x32"
    "Quantize[mn,mx]": [-16.0, 16.0]
    "QuantizeBits": 8
    
    "RuntimeMemory": "128.00KB"
    "ScheduleId": "262"

  }

}
layer {
  name: "Conv2D: /model/model_6_m_0_cv3_conv/layer/Conv"
  type: "Convolution"
  bottom: "/model/Concat_5:0"
  top: "/model/model_0_act_19/Mul_smr:0"
    scale_param {
    "InputShapes": "128x32x32, 128x128x1x1, 128"
    "OutputShape": "128x32x32"
    "Quantize[mn,mx]": [-8.0, 8.0]
    "QuantizeBits": 16
    "ConstInputs": "/model/model_6_m_0_cv3_conv/WeightsSymmetricQuantizer:0"
    "ConstInputs": "Variable.model.model_6_m_0_cv3_conv.layer.bias.uid21:0"
    "RuntimeMemory": "128.00KB"
    "ScheduleId": "263"

  }
  blobs {
    shape {
      dim: 128
      dim: 128
      dim: 1
      dim: 1
    }
  }
  blobs {
    shape {
      dim: 128
    }
  }
}
layer {
  name: "Swish: /model/model_0_act_19/Mul_smr"
  type: "Swish"
  bottom: "/model/model_0_act_19/Mul_smr:0"
  top: "/model/model_0_act_19/Mul_smr:0"
    scale_param {
    "InputShapes": "128x32x32"
    "OutputShape": "128x32x32"
    "Quantize[mn,mx]": [-8.0, 8.0]
    "QuantizeBits": 8
    "ConstInputs": "/model/model_6_m_0_cv3_conv/WeightsSymmetricQuantizer:0"
    "ConstInputs": "Variable.model.model_6_m_0_cv3_conv.layer.bias.uid21:0"
    "RuntimeMemory": "128.00KB"
    
  }

}
layer {
  name: "Concat: /model/Concat_6"
  type: "Concat"
  bottom: "/model/model_0_act_19/Mul_smr:0"
  bottom: "transform-85-/model/Split_2sts0:0"
  bottom: "transform-86-/model/Split_2sts1:0"
  top: "/model/Concat_6:0"
    scale_param {
    "InputShapes": "128x32x32, 128x32x32, 128x32x32"
    "OutputShape": "384x32x32"
    "Quantize[mn,mx]": [-8.0, 8.0]
    "QuantizeBits": 8
    
    "RuntimeMemory": "384.00KB"
    "ScheduleId": "264"

  }

}
layer {
  name: "Conv2D: /model/model_6_cv2_conv/layer/Conv"
  type: "Convolution"
  bottom: "/model/Concat_6:0"
  top: "/model/model_0_act_20/Mul_smr:0"
    scale_param {
    "InputShapes": "384x32x32, 256x384x1x1, 256"
    "OutputShape": "256x32x32"
    "Quantize[mn,mx]": [-8.0, 8.0]
    "QuantizeBits": 16
    "ConstInputs": "/model/model_6_cv2_conv/WeightsSymmetricQuantizer:0"
    "ConstInputs": "Variable.model.model_6_cv2_conv.layer.bias.uid22:0"
    "RuntimeMemory": "256.00KB"
    "ScheduleId": "265"

  }
  blobs {
    shape {
      dim: 256
      dim: 384
      dim: 1
      dim: 1
    }
  }
  blobs {
    shape {
      dim: 256
    }
  }
}
layer {
  name: "Swish: /model/model_0_act_20/Mul_smr"
  type: "Swish"
  bottom: "/model/model_0_act_20/Mul_smr:0"
  top: "/model/model_0_act_20/Mul_smr:0"
    scale_param {
    "InputShapes": "256x32x32"
    "OutputShape": "256x32x32"
    "Quantize[mn,mx]": [-8.0, 8.0]
    "QuantizeBits": 8
    "ConstInputs": "/model/model_6_cv2_conv/WeightsSymmetricQuantizer:0"
    "ConstInputs": "Variable.model.model_6_cv2_conv.layer.bias.uid22:0"
    "RuntimeMemory": "256.00KB"
    
  }

}
layer {
  name: "Conv2D: /model/model_7_conv/layer/Conv"
  type: "Convolution"
  bottom: "/model/model_0_act_20/Mul_smr:0"
  top: "/model/model_0_act_21/Mul_smr:0"
    scale_param {
    "InputShapes": "256x32x32, 512x256x3x3, 512"
    "OutputShape": "512x16x16"
    "Quantize[mn,mx]": [-8.0, 8.0]
    "QuantizeBits": 16
    "ConstInputs": "/model/model_7_conv/WeightsSymmetricQuantizer:0"
    "ConstInputs": "Variable.model.model_7_conv.layer.bias.uid23:0"
    "RuntimeMemory": "128.00KB"
    "ScheduleId": "266"

  }
  blobs {
    shape {
      dim: 512
      dim: 256
      dim: 3
      dim: 3
    }
  }
  blobs {
    shape {
      dim: 512
    }
  }
}
layer {
  name: "Swish: /model/model_0_act_21/Mul_smr"
  type: "Swish"
  bottom: "/model/model_0_act_21/Mul_smr:0"
  top: "/model/model_0_act_21/Mul_smr:0"
    scale_param {
    "InputShapes": "512x16x16"
    "OutputShape": "512x16x16"
    "Quantize[mn,mx]": [0, 8.0]
    "QuantizeBits": 8
    "ConstInputs": "/model/model_7_conv/WeightsSymmetricQuantizer:0"
    "ConstInputs": "Variable.model.model_7_conv.layer.bias.uid23:0"
    "RuntimeMemory": "128.00KB"
    
  }

}
layer {
  name: "Conv2D: /model/model_8_cv1_conv/layer/Conv"
  type: "Convolution"
  bottom: "/model/model_0_act_21/Mul_smr:0"
  top: "/model/model_0_act_22/Mul_smr:0"
    scale_param {
    "InputShapes": "512x16x16, 512x512x1x1, 512"
    "OutputShape": "512x16x16"
    "Quantize[mn,mx]": [-8.0, 8.0]
    "QuantizeBits": 16
    "ConstInputs": "/model/model_8_cv1_conv/WeightsSymmetricQuantizer:0"
    "ConstInputs": "Variable.model.model_8_cv1_conv.layer.bias.uid24:0"
    "RuntimeMemory": "128.00KB"
    "ScheduleId": "267"

  }
  blobs {
    shape {
      dim: 512
      dim: 512
      dim: 1
      dim: 1
    }
  }
  blobs {
    shape {
      dim: 512
    }
  }
}
layer {
  name: "Swish: /model/model_0_act_22/Mul_smr"
  type: "Swish"
  bottom: "/model/model_0_act_22/Mul_smr:0"
  top: "/model/model_0_act_22/Mul_smr:0"
    scale_param {
    "InputShapes": "512x16x16"
    "OutputShape": "512x16x16"
    "Quantize[mn,mx]": [-8.0, 8.0]
    "QuantizeBits": 8
    "ConstInputs": "/model/model_8_cv1_conv/WeightsSymmetricQuantizer:0"
    "ConstInputs": "Variable.model.model_8_cv1_conv.layer.bias.uid24:0"
    "RuntimeMemory": "128.00KB"
    
  }

}
layer {
  name: "Transform: transform-83-(F)/model/model_8_cv1_conv/layer/Conv"
  type: "Transform"
  bottom: "/model/model_0_act_22/Mul_smr:0"
  top: "transform-83-(F)/model/model_8_cv1_conv/layer/Conv:0"
    scale_param {
    "InputShapes": "512x16x16"
    "OutputShape": "512x16x16"
    "Quantize[mn,mx]": [-8.0, 8.0]
    "QuantizeBits": 8
    
    "RuntimeMemory": "256.00KB"
    "ScheduleId": "268"

  }

}
layer {
  name: "Transform: transform-84-(F)/model/model_8_cv1_conv/layer/Conv"
  type: "Transform"
  bottom: "/model/model_0_act_22/Mul_smr:0"
  top: "transform-84-(F)/model/model_8_cv1_conv/layer/Conv:0"
    scale_param {
    "InputShapes": "512x16x16"
    "OutputShape": "512x16x16"
    "Quantize[mn,mx]": [-8.0, 8.0]
    "QuantizeBits": 8
    
    "RuntimeMemory": "256.00KB"
    "ScheduleId": "271"

  }

}
layer {
  name: "StrideSlice: /model/Split_3sts0"
  type: "StrideSlice"
  bottom: "transform-83-(F)/model/model_8_cv1_conv/layer/Conv:0"
  top: "/model/Split_3sts0:0"
    scale_param {
    "InputShapes": "512x16x16"
    "OutputShape": "256x16x16"
    "Quantize[mn,mx]": [-8.0, 8.0]
    "QuantizeBits": 8
    
    "RuntimeMemory": "128.00KB"
    "ScheduleId": "269"

  }

}
layer {
  name: "StrideSlice: /model/Split_3sts1"
  type: "StrideSlice"
  bottom: "transform-84-(F)/model/model_8_cv1_conv/layer/Conv:0"
  top: "/model/Split_3sts1:0"
    scale_param {
    "InputShapes": "512x16x16"
    "OutputShape": "256x16x16"
    "Quantize[mn,mx]": [-8.0, 8.0]
    "QuantizeBits": 8
    
    "RuntimeMemory": "128.00KB"
    "ScheduleId": "272"

  }

}
layer {
  name: "Transform: transform-79-/model/Split_3sts0"
  type: "Transform"
  bottom: "/model/Split_3sts0:0"
  top: "transform-79-/model/Split_3sts0:0"
    scale_param {
    "InputShapes": "256x16x16"
    "OutputShape": "256x16x16"
    "Quantize[mn,mx]": [-8.0, 8.0]
    "QuantizeBits": 8
    
    "RuntimeMemory": "64.00KB"
    "ScheduleId": "270"

  }

}
layer {
  name: "Transform: transform-80-/model/Split_3sts1"
  type: "Transform"
  bottom: "/model/Split_3sts1:0"
  top: "transform-80-/model/Split_3sts1:0"
    scale_param {
    "InputShapes": "256x16x16"
    "OutputShape": "256x16x16"
    "Quantize[mn,mx]": [-8.0, 8.0]
    "QuantizeBits": 8
    
    "RuntimeMemory": "64.00KB"
    "ScheduleId": "273"

  }

}
layer {
  name: "Transform: transform-81-/model/Split_3sts1"
  type: "Transform"
  bottom: "/model/Split_3sts1:0"
  top: "transform-81-/model/Split_3sts1:0"
    scale_param {
    "InputShapes": "256x16x16"
    "OutputShape": "256x16x16"
    "Quantize[mn,mx]": [-8.0, 8.0]
    "QuantizeBits": 8
    
    "RuntimeMemory": "64.00KB"
    "ScheduleId": "274"

  }

}
layer {
  name: "Transform: transform-82-/model/Split_3sts1"
  type: "Transform"
  bottom: "/model/Split_3sts1:0"
  top: "transform-82-/model/Split_3sts1:0"
    scale_param {
    "InputShapes": "256x16x16"
    "OutputShape": "256x16x16"
    "Quantize[mn,mx]": [-8.0, 8.0]
    "QuantizeBits": 8
    
    "RuntimeMemory": "64.00KB"
    "ScheduleId": "276"

  }

}
layer {
  name: "Conv2D: /model/model_8_m_0_cv2_conv/layer/Conv"
  type: "Convolution"
  bottom: "transform-81-/model/Split_3sts1:0"
  top: "/model/model_0_act_28/Mul_smr:0"
    scale_param {
    "InputShapes": "256x16x16, 128x256x1x1, 128"
    "OutputShape": "128x16x16"
    "Quantize[mn,mx]": [-16.0, 16.0]
    "QuantizeBits": 16
    "ConstInputs": "/model/model_8_m_0_cv2_conv/WeightsSymmetricQuantizer:0"
    "ConstInputs": "Variable.model.model_8_m_0_cv2_conv.layer.bias.uid26:0"
    "RuntimeMemory": "32.00KB"
    "ScheduleId": "275"

  }
  blobs {
    shape {
      dim: 128
      dim: 256
      dim: 1
      dim: 1
    }
  }
  blobs {
    shape {
      dim: 128
    }
  }
}
layer {
  name: "Swish: /model/model_0_act_28/Mul_smr"
  type: "Swish"
  bottom: "/model/model_0_act_28/Mul_smr:0"
  top: "/model/model_0_act_28/Mul_smr:0"
    scale_param {
    "InputShapes": "128x16x16"
    "OutputShape": "128x16x16"
    "Quantize[mn,mx]": [-16.0, 16.0]
    "QuantizeBits": 8
    "ConstInputs": "/model/model_8_m_0_cv2_conv/WeightsSymmetricQuantizer:0"
    "ConstInputs": "Variable.model.model_8_m_0_cv2_conv.layer.bias.uid26:0"
    "RuntimeMemory": "32.00KB"
    
  }

}
layer {
  name: "Conv2D: /model/model_8_m_0_cv1_conv/layer/Conv"
  type: "Convolution"
  bottom: "transform-82-/model/Split_3sts1:0"
  top: "/model/model_0_act_23/Mul_smr:0"
    scale_param {
    "InputShapes": "256x16x16, 128x256x1x1, 128"
    "OutputShape": "128x16x16"
    "Quantize[mn,mx]": [-8.0, 8.0]
    "QuantizeBits": 16
    "ConstInputs": "/model/model_8_m_0_cv1_conv/WeightsSymmetricQuantizer:0"
    "ConstInputs": "Variable.model.model_8_m_0_cv1_conv.layer.bias.uid25:0"
    "RuntimeMemory": "32.00KB"
    "ScheduleId": "277"

  }
  blobs {
    shape {
      dim: 128
      dim: 256
      dim: 1
      dim: 1
    }
  }
  blobs {
    shape {
      dim: 128
    }
  }
}
layer {
  name: "Swish: /model/model_0_act_23/Mul_smr"
  type: "Swish"
  bottom: "/model/model_0_act_23/Mul_smr:0"
  top: "/model/model_0_act_23/Mul_smr:0"
    scale_param {
    "InputShapes": "128x16x16"
    "OutputShape": "128x16x16"
    "Quantize[mn,mx]": [-8.0, 8.0]
    "QuantizeBits": 8
    "ConstInputs": "/model/model_8_m_0_cv1_conv/WeightsSymmetricQuantizer:0"
    "ConstInputs": "Variable.model.model_8_m_0_cv1_conv.layer.bias.uid25:0"
    "RuntimeMemory": "32.00KB"
    
  }

}
layer {
  name: "Conv2D: /model/model_8_m_0_m_0_cv1_conv/layer/Conv"
  type: "Convolution"
  bottom: "/model/model_0_act_23/Mul_smr:0"
  top: "/model/model_0_act_24/Mul_smr:0"
    scale_param {
    "InputShapes": "128x16x16, 128x128x3x3, 128"
    "OutputShape": "128x16x16"
    "Quantize[mn,mx]": [-16.0, 16.0]
    "QuantizeBits": 16
    "ConstInputs": "/model/model_8_m_0_m_0_cv1_conv/WeightsSymmetricQuantizer:0"
    "ConstInputs": "Variable.model.model_8_m_0_m_0_cv1_conv.layer.bias.uid27:0"
    "RuntimeMemory": "32.00KB"
    "ScheduleId": "278"

  }
  blobs {
    shape {
      dim: 128
      dim: 128
      dim: 3
      dim: 3
    }
  }
  blobs {
    shape {
      dim: 128
    }
  }
}
layer {
  name: "Swish: /model/model_0_act_24/Mul_smr"
  type: "Swish"
  bottom: "/model/model_0_act_24/Mul_smr:0"
  top: "/model/model_0_act_24/Mul_smr:0"
    scale_param {
    "InputShapes": "128x16x16"
    "OutputShape": "128x16x16"
    "Quantize[mn,mx]": [0, 16.0]
    "QuantizeBits": 8
    "ConstInputs": "/model/model_8_m_0_m_0_cv1_conv/WeightsSymmetricQuantizer:0"
    "ConstInputs": "Variable.model.model_8_m_0_m_0_cv1_conv.layer.bias.uid27:0"
    "RuntimeMemory": "32.00KB"
    
  }

}
layer {
  name: "Pad: /model/Pad_3_to1d_0"
  type: "Pad"
  bottom: "/model/model_0_act_24/Mul_smr:0"
  top: "/model/Pad_3_to1d_0:0"
    scale_param {
    "InputShapes": "128x16x16"
    "OutputShape": "128x18x16"
    "Quantize[mn,mx]": [0, 16.0]
    "QuantizeBits": 8
    "HasScratch": "true"
    
    "RuntimeMemory": "36.00KB"
    "ScheduleId": "279"

  }

}
layer {
  name: "Pad: /model/Pad_3_to1d_1"
  type: "Pad"
  bottom: "/model/Pad_3_to1d_0:0"
  top: "/model/Pad_3_to1d_1:0"
    scale_param {
    "InputShapes": "128x18x16"
    "OutputShape": "128x18x18"
    "Quantize[mn,mx]": [0, 16.0]
    "QuantizeBits": 8
    "HasScratch": "true"
    
    "RuntimeMemory": "40.50KB"
    "ScheduleId": "280"

  }

}
layer {
  name: "Conv2D: /model/model_8_m_0_m_0_cv2_conv/layer/Conv"
  type: "Convolution"
  bottom: "/model/Pad_3_to1d_1:0"
  top: "/model/model_0_act_25/Mul_smr:0"
    scale_param {
    "InputShapes": "128x18x18, 128x128x3x3, 128"
    "OutputShape": "128x16x16"
    "Quantize[mn,mx]": [-16.0, 16.0]
    "QuantizeBits": 16
    "ConstInputs": "/model/model_8_m_0_m_0_cv2_conv/WeightsSymmetricQuantizer:0"
    "ConstInputs": "Variable.model.model_8_m_0_m_0_cv2_conv.layer.bias.uid28:0"
    "RuntimeMemory": "32.00KB"
    "ScheduleId": "281"

  }
  blobs {
    shape {
      dim: 128
      dim: 128
      dim: 3
      dim: 3
    }
  }
  blobs {
    shape {
      dim: 128
    }
  }
}
layer {
  name: "Swish: /model/model_0_act_25/Mul_smr"
  type: "Swish"
  bottom: "/model/model_0_act_25/Mul_smr:0"
  top: "/model/model_0_act_25/Mul_smr:0"
    scale_param {
    "InputShapes": "128x16x16"
    "OutputShape": "128x16x16"
    "Quantize[mn,mx]": [-16.0, 16.0]
    "QuantizeBits": 8
    "ConstInputs": "/model/model_8_m_0_m_0_cv2_conv/WeightsSymmetricQuantizer:0"
    "ConstInputs": "Variable.model.model_8_m_0_m_0_cv2_conv.layer.bias.uid28:0"
    "RuntimeMemory": "32.00KB"
    
  }

}
layer {
  name: "Add: /model/Add_12"
  type: "Add"
  bottom: "/model/model_0_act_23/Mul_smr:0"
  bottom: "/model/model_0_act_25/Mul_smr:0"
  top: "/model/Add_12:0"
    scale_param {
    "InputShapes": "128x16x16, 128x16x16"
    "OutputShape": "128x16x16"
    "Quantize[mn,mx]": [-16.0, 16.0]
    "QuantizeBits": 8
    
    "RuntimeMemory": "32.00KB"
    "ScheduleId": "282"

  }

}
layer {
  name: "Conv2D: /model/model_8_m_0_m_1_cv1_conv/layer/Conv"
  type: "Convolution"
  bottom: "/model/Add_12:0"
  top: "/model/model_0_act_26/Mul_smr:0"
    scale_param {
    "InputShapes": "128x16x16, 128x128x3x3, 128"
    "OutputShape": "128x16x16"
    "Quantize[mn,mx]": [-8.0, 8.0]
    "QuantizeBits": 16
    "ConstInputs": "/model/model_8_m_0_m_1_cv1_conv/WeightsSymmetricQuantizer:0"
    "ConstInputs": "Variable.model.model_8_m_0_m_1_cv1_conv.layer.bias.uid29:0"
    "RuntimeMemory": "32.00KB"
    "ScheduleId": "283"

  }
  blobs {
    shape {
      dim: 128
      dim: 128
      dim: 3
      dim: 3
    }
  }
  blobs {
    shape {
      dim: 128
    }
  }
}
layer {
  name: "Swish: /model/model_0_act_26/Mul_smr"
  type: "Swish"
  bottom: "/model/model_0_act_26/Mul_smr:0"
  top: "/model/model_0_act_26/Mul_smr:0"
    scale_param {
    "InputShapes": "128x16x16"
    "OutputShape": "128x16x16"
    "Quantize[mn,mx]": [0, 8.0]
    "QuantizeBits": 8
    "ConstInputs": "/model/model_8_m_0_m_1_cv1_conv/WeightsSymmetricQuantizer:0"
    "ConstInputs": "Variable.model.model_8_m_0_m_1_cv1_conv.layer.bias.uid29:0"
    "RuntimeMemory": "32.00KB"
    
  }

}
layer {
  name: "Pad: /model/Pad_4_to1d_0"
  type: "Pad"
  bottom: "/model/model_0_act_26/Mul_smr:0"
  top: "/model/Pad_4_to1d_0:0"
    scale_param {
    "InputShapes": "128x16x16"
    "OutputShape": "128x18x16"
    "Quantize[mn,mx]": [0, 8.0]
    "QuantizeBits": 8
    "HasScratch": "true"
    
    "RuntimeMemory": "36.00KB"
    "ScheduleId": "284"

  }

}
layer {
  name: "Pad: /model/Pad_4_to1d_1"
  type: "Pad"
  bottom: "/model/Pad_4_to1d_0:0"
  top: "/model/Pad_4_to1d_1:0"
    scale_param {
    "InputShapes": "128x18x16"
    "OutputShape": "128x18x18"
    "Quantize[mn,mx]": [0, 8.0]
    "QuantizeBits": 8
    "HasScratch": "true"
    
    "RuntimeMemory": "40.50KB"
    "ScheduleId": "285"

  }

}
layer {
  name: "Conv2D: /model/model_8_m_0_m_1_cv2_conv/layer/Conv"
  type: "Convolution"
  bottom: "/model/Pad_4_to1d_1:0"
  top: "/model/model_0_act_27/Mul_smr:0"
    scale_param {
    "InputShapes": "128x18x18, 128x128x3x3, 128"
    "OutputShape": "128x16x16"
    "Quantize[mn,mx]": [-16.0, 16.0]
    "QuantizeBits": 16
    "ConstInputs": "/model/model_8_m_0_m_1_cv2_conv/WeightsSymmetricQuantizer:0"
    "ConstInputs": "Variable.model.model_8_m_0_m_1_cv2_conv.layer.bias.uid30:0"
    "RuntimeMemory": "32.00KB"
    "ScheduleId": "286"

  }
  blobs {
    shape {
      dim: 128
      dim: 128
      dim: 3
      dim: 3
    }
  }
  blobs {
    shape {
      dim: 128
    }
  }
}
layer {
  name: "Swish: /model/model_0_act_27/Mul_smr"
  type: "Swish"
  bottom: "/model/model_0_act_27/Mul_smr:0"
  top: "/model/model_0_act_27/Mul_smr:0"
    scale_param {
    "InputShapes": "128x16x16"
    "OutputShape": "128x16x16"
    "Quantize[mn,mx]": [-16.0, 16.0]
    "QuantizeBits": 8
    "ConstInputs": "/model/model_8_m_0_m_1_cv2_conv/WeightsSymmetricQuantizer:0"
    "ConstInputs": "Variable.model.model_8_m_0_m_1_cv2_conv.layer.bias.uid30:0"
    "RuntimeMemory": "32.00KB"
    
  }

}
layer {
  name: "Add: /model/Add_14"
  type: "Add"
  bottom: "/model/Add_12:0"
  bottom: "/model/model_0_act_27/Mul_smr:0"
  top: "/model/Add_14:0"
    scale_param {
    "InputShapes": "128x16x16, 128x16x16"
    "OutputShape": "128x16x16"
    "Quantize[mn,mx]": [-16.0, 16.0]
    "QuantizeBits": 8
    
    "RuntimeMemory": "32.00KB"
    "ScheduleId": "287"

  }

}
layer {
  name: "Concat: /model/Concat_9"
  type: "Concat"
  bottom: "/model/Add_14:0"
  bottom: "/model/model_0_act_28/Mul_smr:0"
  top: "/model/Concat_9:0"
    scale_param {
    "InputShapes": "128x16x16, 128x16x16"
    "OutputShape": "256x16x16"
    "Quantize[mn,mx]": [-16.0, 16.0]
    "QuantizeBits": 8
    
    "RuntimeMemory": "64.00KB"
    "ScheduleId": "288"

  }

}
layer {
  name: "Conv2D: /model/model_8_m_0_cv3_conv/layer/Conv"
  type: "Convolution"
  bottom: "/model/Concat_9:0"
  top: "/model/model_0_act_29/Mul_smr:0"
    scale_param {
    "InputShapes": "256x16x16, 256x256x1x1, 256"
    "OutputShape": "256x16x16"
    "Quantize[mn,mx]": [-16.0, 16.0]
    "QuantizeBits": 16
    "ConstInputs": "/model/model_8_m_0_cv3_conv/WeightsSymmetricQuantizer:0"
    "ConstInputs": "Variable.model.model_8_m_0_cv3_conv.layer.bias.uid31:0"
    "RuntimeMemory": "64.00KB"
    "ScheduleId": "289"

  }
  blobs {
    shape {
      dim: 256
      dim: 256
      dim: 1
      dim: 1
    }
  }
  blobs {
    shape {
      dim: 256
    }
  }
}
layer {
  name: "Swish: /model/model_0_act_29/Mul_smr"
  type: "Swish"
  bottom: "/model/model_0_act_29/Mul_smr:0"
  top: "/model/model_0_act_29/Mul_smr:0"
    scale_param {
    "InputShapes": "256x16x16"
    "OutputShape": "256x16x16"
    "Quantize[mn,mx]": [-16.0, 16.0]
    "QuantizeBits": 8
    "ConstInputs": "/model/model_8_m_0_cv3_conv/WeightsSymmetricQuantizer:0"
    "ConstInputs": "Variable.model.model_8_m_0_cv3_conv.layer.bias.uid31:0"
    "RuntimeMemory": "64.00KB"
    
  }

}
layer {
  name: "Concat: /model/Concat_10"
  type: "Concat"
  bottom: "/model/model_0_act_29/Mul_smr:0"
  bottom: "transform-79-/model/Split_3sts0:0"
  bottom: "transform-80-/model/Split_3sts1:0"
  top: "/model/Concat_10:0"
    scale_param {
    "InputShapes": "256x16x16, 256x16x16, 256x16x16"
    "OutputShape": "768x16x16"
    "Quantize[mn,mx]": [-16.0, 16.0]
    "QuantizeBits": 8
    
    "RuntimeMemory": "192.00KB"
    "ScheduleId": "290"

  }

}
layer {
  name: "Conv2D: /model/model_8_cv2_conv/layer/Conv"
  type: "Convolution"
  bottom: "/model/Concat_10:0"
  top: "/model/model_0_act_30/Mul_smr:0"
    scale_param {
    "InputShapes": "768x16x16, 512x768x1x1, 512"
    "OutputShape": "512x16x16"
    "Quantize[mn,mx]": [-16.0, 16.0]
    "QuantizeBits": 16
    "ConstInputs": "/model/model_8_cv2_conv/WeightsSymmetricQuantizer:0"
    "ConstInputs": "Variable.model.model_8_cv2_conv.layer.bias.uid32:0"
    "RuntimeMemory": "128.00KB"
    "ScheduleId": "291"

  }
  blobs {
    shape {
      dim: 512
      dim: 768
      dim: 1
      dim: 1
    }
  }
  blobs {
    shape {
      dim: 512
    }
  }
}
layer {
  name: "Swish: /model/model_0_act_30/Mul_smr"
  type: "Swish"
  bottom: "/model/model_0_act_30/Mul_smr:0"
  top: "/model/model_0_act_30/Mul_smr:0"
    scale_param {
    "InputShapes": "512x16x16"
    "OutputShape": "512x16x16"
    "Quantize[mn,mx]": [0, 16.0]
    "QuantizeBits": 8
    "ConstInputs": "/model/model_8_cv2_conv/WeightsSymmetricQuantizer:0"
    "ConstInputs": "Variable.model.model_8_cv2_conv.layer.bias.uid32:0"
    "RuntimeMemory": "128.00KB"
    
  }

}
layer {
  name: "Conv2D: /model/model_9_cv1_conv/layer/Conv"
  type: "Convolution"
  bottom: "/model/model_0_act_30/Mul_smr:0"
  top: "/model/model_9_cv1_conv/layer/Conv:0"
    scale_param {
    "InputShapes": "512x16x16, 256x512x1x1, 256"
    "OutputShape": "256x16x16"
    "Quantize[mn,mx]": [-16.0, 16.0]
    "QuantizeBits": 8
    "ConstInputs": "/model/model_9_cv1_conv/WeightsSymmetricQuantizer:0"
    "ConstInputs": "Variable.model.model_9_cv1_conv.layer.bias.uid33:0"
    "RuntimeMemory": "64.00KB"
    "ScheduleId": "292"

  }
  blobs {
    shape {
      dim: 256
      dim: 512
      dim: 1
      dim: 1
    }
  }
  blobs {
    shape {
      dim: 256
    }
  }
}
layer {
  name: "MaxPool: /model/model_9_m/MaxPool"
  type: "MaxPool"
  bottom: "/model/model_9_cv1_conv/layer/Conv:0"
  top: "/model/model_9_m/MaxPool:0"
    scale_param {
    "InputShapes": "256x16x16"
    "OutputShape": "256x16x16"
    "Quantize[mn,mx]": [-16.0, 16.0]
    "QuantizeBits": 8
    
    "RuntimeMemory": "64.00KB"
    "ScheduleId": "293"

  }

}
layer {
  name: "MaxPool: /model/model_9_m_1/MaxPool"
  type: "MaxPool"
  bottom: "/model/model_9_m/MaxPool:0"
  top: "/model/model_9_m_1/MaxPool:0"
    scale_param {
    "InputShapes": "256x16x16"
    "OutputShape": "256x16x16"
    "Quantize[mn,mx]": [-16.0, 16.0]
    "QuantizeBits": 8
    
    "RuntimeMemory": "64.00KB"
    "ScheduleId": "294"

  }

}
layer {
  name: "MaxPool: /model/model_9_m_2/MaxPool"
  type: "MaxPool"
  bottom: "/model/model_9_m_1/MaxPool:0"
  top: "/model/model_9_m_2/MaxPool:0"
    scale_param {
    "InputShapes": "256x16x16"
    "OutputShape": "256x16x16"
    "Quantize[mn,mx]": [-16.0, 16.0]
    "QuantizeBits": 8
    
    "RuntimeMemory": "64.00KB"
    "ScheduleId": "295"

  }

}
layer {
  name: "Concat: /model/Concat_11"
  type: "Concat"
  bottom: "/model/model_9_cv1_conv/layer/Conv:0"
  bottom: "/model/model_9_m/MaxPool:0"
  bottom: "/model/model_9_m_1/MaxPool:0"
  bottom: "/model/model_9_m_2/MaxPool:0"
  top: "/model/Concat_11:0"
    scale_param {
    "InputShapes": "256x16x16, 256x16x16, 256x16x16, 256x16x16"
    "OutputShape": "1024x16x16"
    "Quantize[mn,mx]": [-16.0, 16.0]
    "QuantizeBits": 8
    
    "RuntimeMemory": "256.00KB"
    "ScheduleId": "296"

  }

}
layer {
  name: "Conv2D: /model/model_9_cv2_conv/layer/Conv"
  type: "Convolution"
  bottom: "/model/Concat_11:0"
  top: "/model/model_0_act_31/Mul_smr:0"
    scale_param {
    "InputShapes": "1024x16x16, 512x1024x1x1, 512"
    "OutputShape": "512x16x16"
    "Quantize[mn,mx]": [-8.0, 8.0]
    "QuantizeBits": 16
    "ConstInputs": "/model/model_9_cv2_conv/WeightsSymmetricQuantizer:0"
    "ConstInputs": "Variable.model.model_9_cv2_conv.layer.bias.uid34:0"
    "RuntimeMemory": "128.00KB"
    "ScheduleId": "297"

  }
  blobs {
    shape {
      dim: 512
      dim: 1024
      dim: 1
      dim: 1
    }
  }
  blobs {
    shape {
      dim: 512
    }
  }
}
layer {
  name: "Swish: /model/model_0_act_31/Mul_smr"
  type: "Swish"
  bottom: "/model/model_0_act_31/Mul_smr:0"
  top: "/model/model_0_act_31/Mul_smr:0"
    scale_param {
    "InputShapes": "512x16x16"
    "OutputShape": "512x16x16"
    "Quantize[mn,mx]": [-2.0, 2.0]
    "QuantizeBits": 8
    "ConstInputs": "/model/model_9_cv2_conv/WeightsSymmetricQuantizer:0"
    "ConstInputs": "Variable.model.model_9_cv2_conv.layer.bias.uid34:0"
    "RuntimeMemory": "128.00KB"
    
  }

}
layer {
  name: "Conv2D: /model/model_10_cv1_conv/layer/Conv"
  type: "Convolution"
  bottom: "/model/model_0_act_31/Mul_smr:0"
  top: "/model/model_0_act_32/Mul_smr:0"
    scale_param {
    "InputShapes": "512x16x16, 512x512x1x1, 512"
    "OutputShape": "512x16x16"
    "Quantize[mn,mx]": [-8.0, 8.0]
    "QuantizeBits": 16
    "ConstInputs": "/model/model_10_cv1_conv/WeightsSymmetricQuantizer:0"
    "ConstInputs": "Variable.model.model_10_cv1_conv.layer.bias.uid35:0"
    "RuntimeMemory": "128.00KB"
    "ScheduleId": "298"

  }
  blobs {
    shape {
      dim: 512
      dim: 512
      dim: 1
      dim: 1
    }
  }
  blobs {
    shape {
      dim: 512
    }
  }
}
layer {
  name: "Swish: /model/model_0_act_32/Mul_smr"
  type: "Swish"
  bottom: "/model/model_0_act_32/Mul_smr:0"
  top: "/model/model_0_act_32/Mul_smr:0"
    scale_param {
    "InputShapes": "512x16x16"
    "OutputShape": "512x16x16"
    "Quantize[mn,mx]": [-4.0, 4.0]
    "QuantizeBits": 8
    "ConstInputs": "/model/model_10_cv1_conv/WeightsSymmetricQuantizer:0"
    "ConstInputs": "Variable.model.model_10_cv1_conv.layer.bias.uid35:0"
    "RuntimeMemory": "128.00KB"
    
  }

}
layer {
  name: "Transform: transform-77-(F)/model/model_10_cv1_conv/layer/Conv"
  type: "Transform"
  bottom: "/model/model_0_act_32/Mul_smr:0"
  top: "transform-77-(F)/model/model_10_cv1_conv/layer/Conv:0"
    scale_param {
    "InputShapes": "512x16x16"
    "OutputShape": "512x16x16"
    "Quantize[mn,mx]": [-4.0, 4.0]
    "QuantizeBits": 8
    
    "RuntimeMemory": "256.00KB"
    "ScheduleId": "299"

  }

}
layer {
  name: "Transform: transform-78-(F)/model/model_10_cv1_conv/layer/Conv"
  type: "Transform"
  bottom: "/model/model_0_act_32/Mul_smr:0"
  top: "transform-78-(F)/model/model_10_cv1_conv/layer/Conv:0"
    scale_param {
    "InputShapes": "512x16x16"
    "OutputShape": "512x16x16"
    "Quantize[mn,mx]": [-4.0, 4.0]
    "QuantizeBits": 8
    
    "RuntimeMemory": "256.00KB"
    "ScheduleId": "302"

  }

}
layer {
  name: "StrideSlice: /model/Split_4sts0"
  type: "StrideSlice"
  bottom: "transform-77-(F)/model/model_10_cv1_conv/layer/Conv:0"
  top: "/model/Split_4sts0:0"
    scale_param {
    "InputShapes": "512x16x16"
    "OutputShape": "256x16x16"
    "Quantize[mn,mx]": [-4.0, 4.0]
    "QuantizeBits": 8
    
    "RuntimeMemory": "128.00KB"
    "ScheduleId": "300"

  }

}
layer {
  name: "StrideSlice: /model/Split_4sts1"
  type: "StrideSlice"
  bottom: "transform-78-(F)/model/model_10_cv1_conv/layer/Conv:0"
  top: "/model/Split_4sts1:0"
    scale_param {
    "InputShapes": "512x16x16"
    "OutputShape": "256x16x16"
    "Quantize[mn,mx]": [-4.0, 4.0]
    "QuantizeBits": 8
    
    "RuntimeMemory": "128.00KB"
    "ScheduleId": "303"

  }

}
layer {
  name: "Transform: transform-43-/model/Split_4sts0"
  type: "Transform"
  bottom: "/model/Split_4sts0:0"
  top: "transform-43-/model/Split_4sts0:0"
    scale_param {
    "InputShapes": "256x16x16"
    "OutputShape": "256x16x16"
    "Quantize[mn,mx]": [-4.0, 4.0]
    "QuantizeBits": 8
    
    "RuntimeMemory": "64.00KB"
    "ScheduleId": "301"

  }

}
layer {
  name: "Transform: transform-44-/model/Split_4sts1"
  type: "Transform"
  bottom: "/model/Split_4sts1:0"
  top: "transform-44-/model/Split_4sts1:0"
    scale_param {
    "InputShapes": "256x16x16"
    "OutputShape": "256x16x16"
    "Quantize[mn,mx]": [-4.0, 4.0]
    "QuantizeBits": 8
    
    "RuntimeMemory": "64.00KB"
    "ScheduleId": "304"

  }

}
layer {
  name: "Transform: transform-76-/model/Split_4sts1"
  type: "Transform"
  bottom: "/model/Split_4sts1:0"
  top: "transform-76-/model/Split_4sts1:0"
    scale_param {
    "InputShapes": "256x16x16"
    "OutputShape": "256x16x16"
    "Quantize[mn,mx]": [-4.0, 4.0]
    "QuantizeBits": 8
    
    "RuntimeMemory": "64.00KB"
    "ScheduleId": "305"

  }

}
layer {
  name: "Conv2D: /model/model_10_m_0_attn_qkv_conv/layer/Conv"
  type: "Convolution"
  bottom: "transform-76-/model/Split_4sts1:0"
  top: "/model/model_10_m_0_attn_qkv_conv/layer/Conv:0"
    scale_param {
    "InputShapes": "256x16x16, 512x256x1x1, 512"
    "OutputShape": "512x16x16"
    "Quantize[mn,mx]": [-4.0, 4.0]
    "QuantizeBits": 8
    "ConstInputs": "/model/model_10_m_0_attn_qkv_conv/WeightsSymmetricQuantizer:0"
    "ConstInputs": "Variable.model.model_10_m_0_attn_qkv_conv.layer.bias.uid36:0"
    "RuntimeMemory": "128.00KB"
    "ScheduleId": "306"

  }
  blobs {
    shape {
      dim: 512
      dim: 256
      dim: 1
      dim: 1
    }
  }
  blobs {
    shape {
      dim: 512
    }
  }
}
layer {
  name: "Transform: transform-75-/model/model_10_m_0_attn_qkv_conv/layer/Conv"
  type: "Transform"
  bottom: "/model/model_10_m_0_attn_qkv_conv/layer/Conv:0"
  top: "transform-75-/model/model_10_m_0_attn_qkv_conv/layer/Conv:0"
    scale_param {
    "InputShapes": "512x16x16"
    "OutputShape": "512x16x16"
    "Quantize[mn,mx]": [-4.0, 4.0]
    "QuantizeBits": 8
    
    "RuntimeMemory": "256.00KB"
    "ScheduleId": "307"

  }

}
layer {
  name: "Reshape: /model/Reshape_10"
  type: "Reshape"
  bottom: "transform-75-/model/model_10_m_0_attn_qkv_conv/layer/Conv:0"
  top: "/model/Reshape_10:0"
    scale_param {
    "InputShapes": "512x16x16"
    "OutputShape": "4x128x256"
    "Quantize[mn,mx]": [-4.0, 4.0]
    "QuantizeBits": 8
    "HasScratch": "true"
    
    "RuntimeMemory": "128.00KB"
    "ScheduleId": "308"

  }

}
layer {
  name: "StrideSlice: /model/Split_5sts2"
  type: "StrideSlice"
  bottom: "/model/Reshape_10:0"
  top: "/model/Split_5sts2:0"
    scale_param {
    "InputShapes": "4x128x256"
    "OutputShape": "4x64x256"
    "Quantize[mn,mx]": [-4.0, 4.0]
    "QuantizeBits": 8
    
    "RuntimeMemory": "64.00KB"
    "ScheduleId": "311"

  }

}
layer {
  name: "StrideSlice: /model/Split_5sts1"
  type: "StrideSlice"
  bottom: "/model/Reshape_10:0"
  top: "/model/Split_5sts1:0"
    scale_param {
    "InputShapes": "4x128x256"
    "OutputShape": "4x32x256"
    "Quantize[mn,mx]": [-4.0, 4.0]
    "QuantizeBits": 8
    
    "RuntimeMemory": "32.00KB"
    "ScheduleId": "310"

  }

}
layer {
  name: "StrideSlice: /model/Split_5sts0"
  type: "StrideSlice"
  bottom: "/model/Reshape_10:0"
  top: "/model/Split_5sts0:0"
    scale_param {
    "InputShapes": "4x128x256"
    "OutputShape": "4x32x256"
    "Quantize[mn,mx]": [-4.0, 4.0]
    "QuantizeBits": 8
    
    "RuntimeMemory": "32.00KB"
    "ScheduleId": "309"

  }

}
layer {
  name: "Reshape: /model/Reshape_11"
  type: "Reshape"
  bottom: "/model/Split_5sts2:0"
  top: "/model/Reshape_11:0"
    scale_param {
    "InputShapes": "4x64x256"
    "OutputShape": "256x16x16"
    "Quantize[mn,mx]": [-4.0, 4.0]
    "QuantizeBits": 8
    "HasScratch": "true"
    
    "RuntimeMemory": "128.00KB"
    "ScheduleId": "312"

  }

}
layer {
  name: "StrideSlice: /model/Split_7sts3"
  type: "StrideSlice"
  bottom: "/model/Split_5sts2:0"
  top: "/model/Split_7sts3:0"
    scale_param {
    "InputShapes": "4x64x256"
    "OutputShape": "1x64x256"
    "Quantize[mn,mx]": [-4.0, 4.0]
    "QuantizeBits": 8
    
    "RuntimeMemory": "16.00KB"
    "ScheduleId": "320"

  }

}
layer {
  name: "StrideSlice: /model/Split_7sts2"
  type: "StrideSlice"
  bottom: "/model/Split_5sts2:0"
  top: "/model/Split_7sts2:0"
    scale_param {
    "InputShapes": "4x64x256"
    "OutputShape": "1x64x256"
    "Quantize[mn,mx]": [-4.0, 4.0]
    "QuantizeBits": 8
    
    "RuntimeMemory": "16.00KB"
    "ScheduleId": "319"

  }

}
layer {
  name: "StrideSlice: /model/Split_7sts1"
  type: "StrideSlice"
  bottom: "/model/Split_5sts2:0"
  top: "/model/Split_7sts1:0"
    scale_param {
    "InputShapes": "4x64x256"
    "OutputShape": "1x64x256"
    "Quantize[mn,mx]": [-4.0, 4.0]
    "QuantizeBits": 8
    
    "RuntimeMemory": "16.00KB"
    "ScheduleId": "318"

  }

}
layer {
  name: "StrideSlice: /model/Split_7sts0"
  type: "StrideSlice"
  bottom: "/model/Split_5sts2:0"
  top: "/model/Split_7sts0:0"
    scale_param {
    "InputShapes": "4x64x256"
    "OutputShape": "1x64x256"
    "Quantize[mn,mx]": [-4.0, 4.0]
    "QuantizeBits": 8
    
    "RuntimeMemory": "16.00KB"
    "ScheduleId": "317"

  }

}
layer {
  name: "StrideSlice: /model/Split_6sts3"
  type: "StrideSlice"
  bottom: "/model/Split_5sts1:0"
  top: "/model/Split_6sts3:0"
    scale_param {
    "InputShapes": "4x32x256"
    "OutputShape": "1x32x256"
    "Quantize[mn,mx]": [-4.0, 4.0]
    "QuantizeBits": 8
    
    "RuntimeMemory": "8.00KB"
    "ScheduleId": "316"

  }

}
layer {
  name: "StrideSlice: /model/Split_6sts2"
  type: "StrideSlice"
  bottom: "/model/Split_5sts1:0"
  top: "/model/Split_6sts2:0"
    scale_param {
    "InputShapes": "4x32x256"
    "OutputShape": "1x32x256"
    "Quantize[mn,mx]": [-4.0, 4.0]
    "QuantizeBits": 8
    
    "RuntimeMemory": "8.00KB"
    "ScheduleId": "315"

  }

}
layer {
  name: "StrideSlice: /model/Split_6sts1"
  type: "StrideSlice"
  bottom: "/model/Split_5sts1:0"
  top: "/model/Split_6sts1:0"
    scale_param {
    "InputShapes": "4x32x256"
    "OutputShape": "1x32x256"
    "Quantize[mn,mx]": [-4.0, 4.0]
    "QuantizeBits": 8
    
    "RuntimeMemory": "8.00KB"
    "ScheduleId": "314"

  }

}
layer {
  name: "StrideSlice: /model/Split_6sts0"
  type: "StrideSlice"
  bottom: "/model/Split_5sts1:0"
  top: "/model/Split_6sts0:0"
    scale_param {
    "InputShapes": "4x32x256"
    "OutputShape": "1x32x256"
    "Quantize[mn,mx]": [-4.0, 4.0]
    "QuantizeBits": 8
    
    "RuntimeMemory": "8.00KB"
    "ScheduleId": "313"

  }

}
layer {
  name: "Transform: transform-74-/model/Split_5sts0"
  type: "Transform"
  bottom: "/model/Split_5sts0:0"
  top: "transform-74-/model/Split_5sts0:0"
    scale_param {
    "InputShapes": "4x32x256"
    "OutputShape": "4x32x256"
    "Quantize[mn,mx]": [-4.0, 4.0]
    "QuantizeBits": 8
    
    "RuntimeMemory": "32.00KB"
    "ScheduleId": "338"

  }

}
layer {
  name: "Transform: transform-45-/model/Reshape_11"
  type: "Transform"
  bottom: "/model/Reshape_11:0"
  top: "transform-45-/model/Reshape_11:0"
    scale_param {
    "InputShapes": "256x16x16"
    "OutputShape": "256x16x16"
    "Quantize[mn,mx]": [-4.0, 4.0]
    "QuantizeBits": 8
    
    "RuntimeMemory": "64.00KB"
    "ScheduleId": "329"

  }

}
layer {
  name: "Squeeze: /model/Squeeze_7"
  type: "Squeeze"
  bottom: "/model/Split_7sts3:0"
  top: "/model/Squeeze_7:0"
    scale_param {
    "InputShapes": "1x64x256"
    "OutputShape": "64x256"
    "Quantize[mn,mx]": [-4.0, 4.0]
    "QuantizeBits": 8
    
    "RuntimeMemory": "16.00KB"
    "ScheduleId": "328"

  }

}
layer {
  name: "Squeeze: /model/Squeeze_6"
  type: "Squeeze"
  bottom: "/model/Split_7sts2:0"
  top: "/model/Squeeze_6:0"
    scale_param {
    "InputShapes": "1x64x256"
    "OutputShape": "64x256"
    "Quantize[mn,mx]": [-4.0, 4.0]
    "QuantizeBits": 8
    
    "RuntimeMemory": "16.00KB"
    "ScheduleId": "327"

  }

}
layer {
  name: "Squeeze: /model/Squeeze_5"
  type: "Squeeze"
  bottom: "/model/Split_7sts1:0"
  top: "/model/Squeeze_5:0"
    scale_param {
    "InputShapes": "1x64x256"
    "OutputShape": "64x256"
    "Quantize[mn,mx]": [-4.0, 4.0]
    "QuantizeBits": 8
    
    "RuntimeMemory": "16.00KB"
    "ScheduleId": "326"

  }

}
layer {
  name: "Squeeze: /model/Squeeze_4"
  type: "Squeeze"
  bottom: "/model/Split_7sts0:0"
  top: "/model/Squeeze_4:0"
    scale_param {
    "InputShapes": "1x64x256"
    "OutputShape": "64x256"
    "Quantize[mn,mx]": [-4.0, 4.0]
    "QuantizeBits": 8
    
    "RuntimeMemory": "16.00KB"
    "ScheduleId": "325"

  }

}
layer {
  name: "Squeeze: /model/Squeeze_3"
  type: "Squeeze"
  bottom: "/model/Split_6sts3:0"
  top: "/model/Squeeze_3:0"
    scale_param {
    "InputShapes": "1x32x256"
    "OutputShape": "32x256"
    "Quantize[mn,mx]": [-4.0, 4.0]
    "QuantizeBits": 8
    
    "RuntimeMemory": "8.00KB"
    "ScheduleId": "324"

  }

}
layer {
  name: "Squeeze: /model/Squeeze_2"
  type: "Squeeze"
  bottom: "/model/Split_6sts2:0"
  top: "/model/Squeeze_2:0"
    scale_param {
    "InputShapes": "1x32x256"
    "OutputShape": "32x256"
    "Quantize[mn,mx]": [-4.0, 4.0]
    "QuantizeBits": 8
    
    "RuntimeMemory": "8.00KB"
    "ScheduleId": "323"

  }

}
layer {
  name: "Squeeze: /model/Squeeze_1"
  type: "Squeeze"
  bottom: "/model/Split_6sts1:0"
  top: "/model/Squeeze_1:0"
    scale_param {
    "InputShapes": "1x32x256"
    "OutputShape": "32x256"
    "Quantize[mn,mx]": [-4.0, 4.0]
    "QuantizeBits": 8
    
    "RuntimeMemory": "8.00KB"
    "ScheduleId": "322"

  }

}
layer {
  name: "Squeeze: /model/Squeeze"
  type: "Squeeze"
  bottom: "/model/Split_6sts0:0"
  top: "/model/Squeeze:0"
    scale_param {
    "InputShapes": "1x32x256"
    "OutputShape": "32x256"
    "Quantize[mn,mx]": [-4.0, 4.0]
    "QuantizeBits": 8
    
    "RuntimeMemory": "8.00KB"
    "ScheduleId": "321"

  }

}
layer {
  name: "Transpose: /model/Transpose_5"
  type: "Transpose"
  bottom: "transform-74-/model/Split_5sts0:0"
  top: "/model/Transpose_5:0"
    scale_param {
    "InputShapes": "4x32x256"
    "OutputShape": "4x256x32"
    "Quantize[mn,mx]": [-4.0, 4.0]
    "QuantizeBits": 8
    
    "RuntimeMemory": "32.00KB"
    "ScheduleId": "339"

  }

}
layer {
  name: "Transform: transform-52-/model/Squeeze_7"
  type: "Transform"
  bottom: "/model/Squeeze_7:0"
  top: "transform-52-/model/Squeeze_7:0"
    scale_param {
    "InputShapes": "64x256"
    "OutputShape": "64x256"
    "Quantize[mn,mx]": [-4.0, 4.0]
    "QuantizeBits": 8
    
    "RuntimeMemory": "16.00KB"
    "ScheduleId": "330"

  }

}
layer {
  name: "Transform: transform-54-/model/Squeeze_6"
  type: "Transform"
  bottom: "/model/Squeeze_6:0"
  top: "transform-54-/model/Squeeze_6:0"
    scale_param {
    "InputShapes": "64x256"
    "OutputShape": "64x256"
    "Quantize[mn,mx]": [-4.0, 4.0]
    "QuantizeBits": 8
    
    "RuntimeMemory": "16.00KB"
    "ScheduleId": "331"

  }

}
layer {
  name: "Transform: transform-56-/model/Squeeze_5"
  type: "Transform"
  bottom: "/model/Squeeze_5:0"
  top: "transform-56-/model/Squeeze_5:0"
    scale_param {
    "InputShapes": "64x256"
    "OutputShape": "64x256"
    "Quantize[mn,mx]": [-4.0, 4.0]
    "QuantizeBits": 8
    
    "RuntimeMemory": "16.00KB"
    "ScheduleId": "332"

  }

}
layer {
  name: "Transform: transform-58-/model/Squeeze_4"
  type: "Transform"
  bottom: "/model/Squeeze_4:0"
  top: "transform-58-/model/Squeeze_4:0"
    scale_param {
    "InputShapes": "64x256"
    "OutputShape": "64x256"
    "Quantize[mn,mx]": [-4.0, 4.0]
    "QuantizeBits": 8
    
    "RuntimeMemory": "16.00KB"
    "ScheduleId": "333"

  }

}
layer {
  name: "Transform: transform-67-/model/Squeeze_3"
  type: "Transform"
  bottom: "/model/Squeeze_3:0"
  top: "transform-67-/model/Squeeze_3:0"
    scale_param {
    "InputShapes": "32x256"
    "OutputShape": "32x256"
    "Quantize[mn,mx]": [-4.0, 4.0]
    "QuantizeBits": 8
    
    "RuntimeMemory": "8.00KB"
    "ScheduleId": "334"

  }

}
layer {
  name: "Transform: transform-69-/model/Squeeze_2"
  type: "Transform"
  bottom: "/model/Squeeze_2:0"
  top: "transform-69-/model/Squeeze_2:0"
    scale_param {
    "InputShapes": "32x256"
    "OutputShape": "32x256"
    "Quantize[mn,mx]": [-4.0, 4.0]
    "QuantizeBits": 8
    
    "RuntimeMemory": "8.00KB"
    "ScheduleId": "335"

  }

}
layer {
  name: "Transform: transform-71-/model/Squeeze_1"
  type: "Transform"
  bottom: "/model/Squeeze_1:0"
  top: "transform-71-/model/Squeeze_1:0"
    scale_param {
    "InputShapes": "32x256"
    "OutputShape": "32x256"
    "Quantize[mn,mx]": [-4.0, 4.0]
    "QuantizeBits": 8
    
    "RuntimeMemory": "8.00KB"
    "ScheduleId": "336"

  }

}
layer {
  name: "Transform: transform-73-/model/Squeeze"
  type: "Transform"
  bottom: "/model/Squeeze:0"
  top: "transform-73-/model/Squeeze:0"
    scale_param {
    "InputShapes": "32x256"
    "OutputShape": "32x256"
    "Quantize[mn,mx]": [-4.0, 4.0]
    "QuantizeBits": 8
    
    "RuntimeMemory": "8.00KB"
    "ScheduleId": "337"

  }

}
layer {
  name: "StrideSlice: /model/Split_8sts3"
  type: "StrideSlice"
  bottom: "/model/Transpose_5:0"
  top: "/model/Split_8sts3:0"
    scale_param {
    "InputShapes": "4x256x32"
    "OutputShape": "1x256x32"
    "Quantize[mn,mx]": [-4.0, 4.0]
    "QuantizeBits": 8
    
    "RuntimeMemory": "8.00KB"
    "ScheduleId": "343"

  }

}
layer {
  name: "StrideSlice: /model/Split_8sts2"
  type: "StrideSlice"
  bottom: "/model/Transpose_5:0"
  top: "/model/Split_8sts2:0"
    scale_param {
    "InputShapes": "4x256x32"
    "OutputShape": "1x256x32"
    "Quantize[mn,mx]": [-4.0, 4.0]
    "QuantizeBits": 8
    
    "RuntimeMemory": "8.00KB"
    "ScheduleId": "342"

  }

}
layer {
  name: "StrideSlice: /model/Split_8sts1"
  type: "StrideSlice"
  bottom: "/model/Transpose_5:0"
  top: "/model/Split_8sts1:0"
    scale_param {
    "InputShapes": "4x256x32"
    "OutputShape": "1x256x32"
    "Quantize[mn,mx]": [-4.0, 4.0]
    "QuantizeBits": 8
    
    "RuntimeMemory": "8.00KB"
    "ScheduleId": "341"

  }

}
layer {
  name: "StrideSlice: /model/Split_8sts0"
  type: "StrideSlice"
  bottom: "/model/Transpose_5:0"
  top: "/model/Split_8sts0:0"
    scale_param {
    "InputShapes": "4x256x32"
    "OutputShape": "1x256x32"
    "Quantize[mn,mx]": [-4.0, 4.0]
    "QuantizeBits": 8
    
    "RuntimeMemory": "8.00KB"
    "ScheduleId": "340"

  }

}
layer {
  name: "Squeeze: /model/Squeeze_11"
  type: "Squeeze"
  bottom: "/model/Split_8sts3:0"
  top: "/model/Squeeze_11:0"
    scale_param {
    "InputShapes": "1x256x32"
    "OutputShape": "256x32"
    "Quantize[mn,mx]": [-4.0, 4.0]
    "QuantizeBits": 8
    
    "RuntimeMemory": "8.00KB"
    "ScheduleId": "345"

  }

}
layer {
  name: "Squeeze: /model/Squeeze_10"
  type: "Squeeze"
  bottom: "/model/Split_8sts2:0"
  top: "/model/Squeeze_10:0"
    scale_param {
    "InputShapes": "1x256x32"
    "OutputShape": "256x32"
    "Quantize[mn,mx]": [-4.0, 4.0]
    "QuantizeBits": 8
    
    "RuntimeMemory": "8.00KB"
    "ScheduleId": "344"

  }

}
layer {
  name: "Squeeze: /model/Squeeze_9"
  type: "Squeeze"
  bottom: "/model/Split_8sts1:0"
  top: "/model/Squeeze_9:0"
    scale_param {
    "InputShapes": "1x256x32"
    "OutputShape": "256x32"
    "Quantize[mn,mx]": [-4.0, 4.0]
    "QuantizeBits": 8
    
    "RuntimeMemory": "8.00KB"
    "ScheduleId": "347"

  }

}
layer {
  name: "Squeeze: /model/Squeeze_8"
  type: "Squeeze"
  bottom: "/model/Split_8sts0:0"
  top: "/model/Squeeze_8:0"
    scale_param {
    "InputShapes": "1x256x32"
    "OutputShape": "256x32"
    "Quantize[mn,mx]": [-4.0, 4.0]
    "QuantizeBits": 8
    
    "RuntimeMemory": "8.00KB"
    "ScheduleId": "346"

  }

}
layer {
  name: "Transform: transform-66-/model/Squeeze_11"
  type: "Transform"
  bottom: "/model/Squeeze_11:0"
  top: "transform-66-/model/Squeeze_11:0"
    scale_param {
    "InputShapes": "256x32"
    "OutputShape": "256x32"
    "Quantize[mn,mx]": [-4.0, 4.0]
    "QuantizeBits": 8
    
    "RuntimeMemory": "8.00KB"
    "ScheduleId": "348"

  }

}
layer {
  name: "Transform: transform-68-/model/Squeeze_10"
  type: "Transform"
  bottom: "/model/Squeeze_10:0"
  top: "transform-68-/model/Squeeze_10:0"
    scale_param {
    "InputShapes": "256x32"
    "OutputShape": "256x32"
    "Quantize[mn,mx]": [-4.0, 4.0]
    "QuantizeBits": 8
    
    "RuntimeMemory": "8.00KB"
    "ScheduleId": "352"

  }

}
layer {
  name: "Transform: transform-70-/model/Squeeze_9"
  type: "Transform"
  bottom: "/model/Squeeze_9:0"
  top: "transform-70-/model/Squeeze_9:0"
    scale_param {
    "InputShapes": "256x32"
    "OutputShape": "256x32"
    "Quantize[mn,mx]": [-4.0, 4.0]
    "QuantizeBits": 8
    
    "RuntimeMemory": "8.00KB"
    "ScheduleId": "356"

  }

}
layer {
  name: "Transform: transform-72-/model/Squeeze_8"
  type: "Transform"
  bottom: "/model/Squeeze_8:0"
  top: "transform-72-/model/Squeeze_8:0"
    scale_param {
    "InputShapes": "256x32"
    "OutputShape": "256x32"
    "Quantize[mn,mx]": [-4.0, 4.0]
    "QuantizeBits": 8
    
    "RuntimeMemory": "8.00KB"
    "ScheduleId": "360"

  }

}
layer {
  name: "MatMul: /model/MatMul_3"
  type: "MatMul"
  bottom: "transform-66-/model/Squeeze_11:0"
  bottom: "transform-67-/model/Squeeze_3:0"
  top: "/model/MatMul_3:0"
    scale_param {
    "InputShapes": "256x32, 32x256"
    "OutputShape": "256x256"
    "Quantize[mn,mx]": [-32.0, 32.0]
    "QuantizeBits": 8
    "HasScratch": "true"
    
    "RuntimeMemory": "64.00KB"
    "ScheduleId": "349"

  }

}
layer {
  name: "MatMul: /model/MatMul_2"
  type: "MatMul"
  bottom: "transform-68-/model/Squeeze_10:0"
  bottom: "transform-69-/model/Squeeze_2:0"
  top: "/model/MatMul_2:0"
    scale_param {
    "InputShapes": "256x32, 32x256"
    "OutputShape": "256x256"
    "Quantize[mn,mx]": [-64.0, 64.0]
    "QuantizeBits": 8
    "HasScratch": "true"
    
    "RuntimeMemory": "64.00KB"
    "ScheduleId": "353"

  }

}
layer {
  name: "MatMul: /model/MatMul_1"
  type: "MatMul"
  bottom: "transform-70-/model/Squeeze_9:0"
  bottom: "transform-71-/model/Squeeze_1:0"
  top: "/model/MatMul_1:0"
    scale_param {
    "InputShapes": "256x32, 32x256"
    "OutputShape": "256x256"
    "Quantize[mn,mx]": [-64.0, 64.0]
    "QuantizeBits": 8
    "HasScratch": "true"
    
    "RuntimeMemory": "64.00KB"
    "ScheduleId": "357"

  }

}
layer {
  name: "MatMul: /model/MatMul"
  type: "MatMul"
  bottom: "transform-72-/model/Squeeze_8:0"
  bottom: "transform-73-/model/Squeeze:0"
  top: "/model/MatMul:0"
    scale_param {
    "InputShapes": "256x32, 32x256"
    "OutputShape": "256x256"
    "Quantize[mn,mx]": [-16.0, 16.0]
    "QuantizeBits": 8
    "HasScratch": "true"
    
    "RuntimeMemory": "64.00KB"
    "ScheduleId": "361"

  }

}
layer {
  name: "Reshape: /model/Unsqueeze_3_reshaped"
  type: "Reshape"
  bottom: "/model/MatMul_3:0"
  top: "/model/Unsqueeze_3_reshaped:0"
    scale_param {
    "InputShapes": "256x256"
    "OutputShape": "1x256x256"
    "Quantize[mn,mx]": [-32.0, 32.0]
    "QuantizeBits": 8
    "HasScratch": "true"
    
    "RuntimeMemory": "64.00KB"
    "ScheduleId": "350"

  }

}
layer {
  name: "Reshape: /model/Unsqueeze_2_reshaped"
  type: "Reshape"
  bottom: "/model/MatMul_2:0"
  top: "/model/Unsqueeze_2_reshaped:0"
    scale_param {
    "InputShapes": "256x256"
    "OutputShape": "1x256x256"
    "Quantize[mn,mx]": [-64.0, 64.0]
    "QuantizeBits": 8
    "HasScratch": "true"
    
    "RuntimeMemory": "64.00KB"
    "ScheduleId": "354"

  }

}
layer {
  name: "Reshape: /model/Unsqueeze_1_reshaped"
  type: "Reshape"
  bottom: "/model/MatMul_1:0"
  top: "/model/Unsqueeze_1_reshaped:0"
    scale_param {
    "InputShapes": "256x256"
    "OutputShape": "1x256x256"
    "Quantize[mn,mx]": [-64.0, 64.0]
    "QuantizeBits": 8
    "HasScratch": "true"
    
    "RuntimeMemory": "64.00KB"
    "ScheduleId": "358"

  }

}
layer {
  name: "Reshape: /model/Unsqueeze_reshaped"
  type: "Reshape"
  bottom: "/model/MatMul:0"
  top: "/model/Unsqueeze_reshaped:0"
    scale_param {
    "InputShapes": "256x256"
    "OutputShape": "1x256x256"
    "Quantize[mn,mx]": [-16.0, 16.0]
    "QuantizeBits": 8
    "HasScratch": "true"
    
    "RuntimeMemory": "64.00KB"
    "ScheduleId": "362"

  }

}
layer {
  name: "Transform: transform-65-/model/Unsqueeze_3_reshaped"
  type: "Transform"
  bottom: "/model/Unsqueeze_3_reshaped:0"
  top: "transform-65-/model/Unsqueeze_3_reshaped:0"
    scale_param {
    "InputShapes": "1x256x256"
    "OutputShape": "1x256x256"
    "Quantize[mn,mx]": [-32.0, 32.0]
    "QuantizeBits": 8
    
    "RuntimeMemory": "64.00KB"
    "ScheduleId": "351"

  }

}
layer {
  name: "Transform: transform-64-/model/Unsqueeze_2_reshaped"
  type: "Transform"
  bottom: "/model/Unsqueeze_2_reshaped:0"
  top: "transform-64-/model/Unsqueeze_2_reshaped:0"
    scale_param {
    "InputShapes": "1x256x256"
    "OutputShape": "1x256x256"
    "Quantize[mn,mx]": [-64.0, 64.0]
    "QuantizeBits": 8
    
    "RuntimeMemory": "64.00KB"
    "ScheduleId": "355"

  }

}
layer {
  name: "Transform: transform-63-/model/Unsqueeze_1_reshaped"
  type: "Transform"
  bottom: "/model/Unsqueeze_1_reshaped:0"
  top: "transform-63-/model/Unsqueeze_1_reshaped:0"
    scale_param {
    "InputShapes": "1x256x256"
    "OutputShape": "1x256x256"
    "Quantize[mn,mx]": [-64.0, 64.0]
    "QuantizeBits": 8
    
    "RuntimeMemory": "64.00KB"
    "ScheduleId": "359"

  }

}
layer {
  name: "Transform: transform-62-/model/Unsqueeze_reshaped"
  type: "Transform"
  bottom: "/model/Unsqueeze_reshaped:0"
  top: "transform-62-/model/Unsqueeze_reshaped:0"
    scale_param {
    "InputShapes": "1x256x256"
    "OutputShape": "1x256x256"
    "Quantize[mn,mx]": [-16.0, 16.0]
    "QuantizeBits": 8
    
    "RuntimeMemory": "64.00KB"
    "ScheduleId": "363"

  }

}
layer {
  name: "Concat: /model/Concat_12"
  type: "Concat"
  bottom: "transform-62-/model/Unsqueeze_reshaped:0"
  bottom: "transform-63-/model/Unsqueeze_1_reshaped:0"
  bottom: "transform-64-/model/Unsqueeze_2_reshaped:0"
  bottom: "transform-65-/model/Unsqueeze_3_reshaped:0"
  top: "/model/Concat_12:0"
    scale_param {
    "InputShapes": "1x256x256, 1x256x256, 1x256x256, 1x256x256"
    "OutputShape": "4x256x256"
    "Quantize[mn,mx]": [-64.0, 64.0]
    "QuantizeBits": 8
    
    "RuntimeMemory": "256.00KB"
    "ScheduleId": "364"

  }

}
layer {
  name: "Mul: /model/Mul"
  type: "Mul"
  bottom: "/model/Concat_12:0"
  top: "/model/Mul:0"
    scale_param {
    "InputShapes": "4x256x256, 1x1x1"
    "OutputShape": "4x256x256"
    "Quantize[mn,mx]": [-16.0, 16.0]
    "QuantizeBits": 8
    "ConstInputs": "/model/Constant_76:0"
    "RuntimeMemory": "256.00KB"
    "ScheduleId": "365"

  }
  blobs {
    shape {
      dim: 1
      dim: 1
      dim: 1
    }
  }
}
layer {
  name: "Transform: transform-61-/model/Mul"
  type: "Transform"
  bottom: "/model/Mul:0"
  top: "transform-61-/model/Mul:0"
    scale_param {
    "InputShapes": "4x256x256"
    "OutputShape": "4x256x256"
    "Quantize[mn,mx]": [-16.0, 16.0]
    "QuantizeBits": 8
    
    "RuntimeMemory": "256.00KB"
    "ScheduleId": "366"

  }

}
layer {
  name: "Softmax: /model/Softmax"
  type: "Softmax"
  bottom: "transform-61-/model/Mul:0"
  top: "/model/Softmax:0"
    scale_param {
    "InputShapes": "4x256x256"
    "OutputShape": "4x256x256"
    "Quantize[mn,mx]": [0, 0.5]
    "QuantizeBits": 8
    
    "RuntimeMemory": "256.00KB"
    "ScheduleId": "367"

  }

}
layer {
  name: "Transform: transform-60-/model/Softmax"
  type: "Transform"
  bottom: "/model/Softmax:0"
  top: "transform-60-/model/Softmax:0"
    scale_param {
    "InputShapes": "4x256x256"
    "OutputShape": "4x256x256"
    "Quantize[mn,mx]": [0, 0.5]
    "QuantizeBits": 8
    
    "RuntimeMemory": "256.00KB"
    "ScheduleId": "368"

  }

}
layer {
  name: "Transpose: /model/Transpose_6"
  type: "Transpose"
  bottom: "transform-60-/model/Softmax:0"
  top: "/model/Transpose_6:0"
    scale_param {
    "InputShapes": "4x256x256"
    "OutputShape": "4x256x256"
    "Quantize[mn,mx]": [0, 0.5]
    "QuantizeBits": 8
    
    "RuntimeMemory": "256.00KB"
    "ScheduleId": "369"

  }

}
layer {
  name: "StrideSlice: /model/Split_9sts3"
  type: "StrideSlice"
  bottom: "/model/Transpose_6:0"
  top: "/model/Split_9sts3:0"
    scale_param {
    "InputShapes": "4x256x256"
    "OutputShape": "1x256x256"
    "Quantize[mn,mx]": [0, 0.5]
    "QuantizeBits": 8
    
    "RuntimeMemory": "64.00KB"
    "ScheduleId": "373"

  }

}
layer {
  name: "StrideSlice: /model/Split_9sts2"
  type: "StrideSlice"
  bottom: "/model/Transpose_6:0"
  top: "/model/Split_9sts2:0"
    scale_param {
    "InputShapes": "4x256x256"
    "OutputShape": "1x256x256"
    "Quantize[mn,mx]": [0, 0.5]
    "QuantizeBits": 8
    
    "RuntimeMemory": "64.00KB"
    "ScheduleId": "372"

  }

}
layer {
  name: "StrideSlice: /model/Split_9sts1"
  type: "StrideSlice"
  bottom: "/model/Transpose_6:0"
  top: "/model/Split_9sts1:0"
    scale_param {
    "InputShapes": "4x256x256"
    "OutputShape": "1x256x256"
    "Quantize[mn,mx]": [0, 0.5]
    "QuantizeBits": 8
    
    "RuntimeMemory": "64.00KB"
    "ScheduleId": "371"

  }

}
layer {
  name: "StrideSlice: /model/Split_9sts0"
  type: "StrideSlice"
  bottom: "/model/Transpose_6:0"
  top: "/model/Split_9sts0:0"
    scale_param {
    "InputShapes": "4x256x256"
    "OutputShape": "1x256x256"
    "Quantize[mn,mx]": [0, 0.5]
    "QuantizeBits": 8
    
    "RuntimeMemory": "64.00KB"
    "ScheduleId": "370"

  }

}
layer {
  name: "Squeeze: /model/Squeeze_15"
  type: "Squeeze"
  bottom: "/model/Split_9sts3:0"
  top: "/model/Squeeze_15:0"
    scale_param {
    "InputShapes": "1x256x256"
    "OutputShape": "256x256"
    "Quantize[mn,mx]": [0, 0.5]
    "QuantizeBits": 8
    
    "RuntimeMemory": "64.00KB"
    "ScheduleId": "377"

  }

}
layer {
  name: "Squeeze: /model/Squeeze_14"
  type: "Squeeze"
  bottom: "/model/Split_9sts2:0"
  top: "/model/Squeeze_14:0"
    scale_param {
    "InputShapes": "1x256x256"
    "OutputShape": "256x256"
    "Quantize[mn,mx]": [0, 0.5]
    "QuantizeBits": 8
    
    "RuntimeMemory": "64.00KB"
    "ScheduleId": "376"

  }

}
layer {
  name: "Squeeze: /model/Squeeze_13"
  type: "Squeeze"
  bottom: "/model/Split_9sts1:0"
  top: "/model/Squeeze_13:0"
    scale_param {
    "InputShapes": "1x256x256"
    "OutputShape": "256x256"
    "Quantize[mn,mx]": [0, 0.5]
    "QuantizeBits": 8
    
    "RuntimeMemory": "64.00KB"
    "ScheduleId": "375"

  }

}
layer {
  name: "Squeeze: /model/Squeeze_12"
  type: "Squeeze"
  bottom: "/model/Split_9sts0:0"
  top: "/model/Squeeze_12:0"
    scale_param {
    "InputShapes": "1x256x256"
    "OutputShape": "256x256"
    "Quantize[mn,mx]": [0, 0.5]
    "QuantizeBits": 8
    
    "RuntimeMemory": "64.00KB"
    "ScheduleId": "374"

  }

}
layer {
  name: "Transform: transform-53-/model/Squeeze_15"
  type: "Transform"
  bottom: "/model/Squeeze_15:0"
  top: "transform-53-/model/Squeeze_15:0"
    scale_param {
    "InputShapes": "256x256"
    "OutputShape": "256x256"
    "Quantize[mn,mx]": [0, 0.5]
    "QuantizeBits": 8
    
    "RuntimeMemory": "64.00KB"
    "ScheduleId": "378"

  }

}
layer {
  name: "Transform: transform-55-/model/Squeeze_14"
  type: "Transform"
  bottom: "/model/Squeeze_14:0"
  top: "transform-55-/model/Squeeze_14:0"
    scale_param {
    "InputShapes": "256x256"
    "OutputShape": "256x256"
    "Quantize[mn,mx]": [0, 0.5]
    "QuantizeBits": 8
    
    "RuntimeMemory": "64.00KB"
    "ScheduleId": "382"

  }

}
layer {
  name: "Transform: transform-57-/model/Squeeze_13"
  type: "Transform"
  bottom: "/model/Squeeze_13:0"
  top: "transform-57-/model/Squeeze_13:0"
    scale_param {
    "InputShapes": "256x256"
    "OutputShape": "256x256"
    "Quantize[mn,mx]": [0, 0.5]
    "QuantizeBits": 8
    
    "RuntimeMemory": "64.00KB"
    "ScheduleId": "386"

  }

}
layer {
  name: "Transform: transform-59-/model/Squeeze_12"
  type: "Transform"
  bottom: "/model/Squeeze_12:0"
  top: "transform-59-/model/Squeeze_12:0"
    scale_param {
    "InputShapes": "256x256"
    "OutputShape": "256x256"
    "Quantize[mn,mx]": [0, 0.5]
    "QuantizeBits": 8
    
    "RuntimeMemory": "64.00KB"
    "ScheduleId": "390"

  }

}
layer {
  name: "MatMul: /model/MatMul_7"
  type: "MatMul"
  bottom: "transform-52-/model/Squeeze_7:0"
  bottom: "transform-53-/model/Squeeze_15:0"
  top: "/model/MatMul_7:0"
    scale_param {
    "InputShapes": "64x256, 256x256"
    "OutputShape": "64x256"
    "Quantize[mn,mx]": [-2.0, 2.0]
    "QuantizeBits": 8
    "HasScratch": "true"
    
    "RuntimeMemory": "16.00KB"
    "ScheduleId": "379"

  }

}
layer {
  name: "MatMul: /model/MatMul_6"
  type: "MatMul"
  bottom: "transform-54-/model/Squeeze_6:0"
  bottom: "transform-55-/model/Squeeze_14:0"
  top: "/model/MatMul_6:0"
    scale_param {
    "InputShapes": "64x256, 256x256"
    "OutputShape": "64x256"
    "Quantize[mn,mx]": [-4.0, 4.0]
    "QuantizeBits": 8
    "HasScratch": "true"
    
    "RuntimeMemory": "16.00KB"
    "ScheduleId": "383"

  }

}
layer {
  name: "MatMul: /model/MatMul_5"
  type: "MatMul"
  bottom: "transform-56-/model/Squeeze_5:0"
  bottom: "transform-57-/model/Squeeze_13:0"
  top: "/model/MatMul_5:0"
    scale_param {
    "InputShapes": "64x256, 256x256"
    "OutputShape": "64x256"
    "Quantize[mn,mx]": [-4.0, 4.0]
    "QuantizeBits": 8
    "HasScratch": "true"
    
    "RuntimeMemory": "16.00KB"
    "ScheduleId": "387"

  }

}
layer {
  name: "MatMul: /model/MatMul_4"
  type: "MatMul"
  bottom: "transform-58-/model/Squeeze_4:0"
  bottom: "transform-59-/model/Squeeze_12:0"
  top: "/model/MatMul_4:0"
    scale_param {
    "InputShapes": "64x256, 256x256"
    "OutputShape": "64x256"
    "Quantize[mn,mx]": [-2.0, 2.0]
    "QuantizeBits": 8
    "HasScratch": "true"
    
    "RuntimeMemory": "16.00KB"
    "ScheduleId": "391"

  }

}
layer {
  name: "Reshape: /model/Unsqueeze_7_reshaped"
  type: "Reshape"
  bottom: "/model/MatMul_7:0"
  top: "/model/Unsqueeze_7_reshaped:0"
    scale_param {
    "InputShapes": "64x256"
    "OutputShape": "1x64x256"
    "Quantize[mn,mx]": [-2.0, 2.0]
    "QuantizeBits": 8
    "HasScratch": "true"
    
    "RuntimeMemory": "16.00KB"
    "ScheduleId": "380"

  }

}
layer {
  name: "Reshape: /model/Unsqueeze_6_reshaped"
  type: "Reshape"
  bottom: "/model/MatMul_6:0"
  top: "/model/Unsqueeze_6_reshaped:0"
    scale_param {
    "InputShapes": "64x256"
    "OutputShape": "1x64x256"
    "Quantize[mn,mx]": [-4.0, 4.0]
    "QuantizeBits": 8
    "HasScratch": "true"
    
    "RuntimeMemory": "16.00KB"
    "ScheduleId": "384"

  }

}
layer {
  name: "Reshape: /model/Unsqueeze_5_reshaped"
  type: "Reshape"
  bottom: "/model/MatMul_5:0"
  top: "/model/Unsqueeze_5_reshaped:0"
    scale_param {
    "InputShapes": "64x256"
    "OutputShape": "1x64x256"
    "Quantize[mn,mx]": [-4.0, 4.0]
    "QuantizeBits": 8
    "HasScratch": "true"
    
    "RuntimeMemory": "16.00KB"
    "ScheduleId": "388"

  }

}
layer {
  name: "Reshape: /model/Unsqueeze_4_reshaped"
  type: "Reshape"
  bottom: "/model/MatMul_4:0"
  top: "/model/Unsqueeze_4_reshaped:0"
    scale_param {
    "InputShapes": "64x256"
    "OutputShape": "1x64x256"
    "Quantize[mn,mx]": [-2.0, 2.0]
    "QuantizeBits": 8
    "HasScratch": "true"
    
    "RuntimeMemory": "16.00KB"
    "ScheduleId": "392"

  }

}
layer {
  name: "Transform: transform-51-/model/Unsqueeze_7_reshaped"
  type: "Transform"
  bottom: "/model/Unsqueeze_7_reshaped:0"
  top: "transform-51-/model/Unsqueeze_7_reshaped:0"
    scale_param {
    "InputShapes": "1x64x256"
    "OutputShape": "1x64x256"
    "Quantize[mn,mx]": [-2.0, 2.0]
    "QuantizeBits": 8
    
    "RuntimeMemory": "16.00KB"
    "ScheduleId": "381"

  }

}
layer {
  name: "Transform: transform-50-/model/Unsqueeze_6_reshaped"
  type: "Transform"
  bottom: "/model/Unsqueeze_6_reshaped:0"
  top: "transform-50-/model/Unsqueeze_6_reshaped:0"
    scale_param {
    "InputShapes": "1x64x256"
    "OutputShape": "1x64x256"
    "Quantize[mn,mx]": [-4.0, 4.0]
    "QuantizeBits": 8
    
    "RuntimeMemory": "16.00KB"
    "ScheduleId": "385"

  }

}
layer {
  name: "Transform: transform-49-/model/Unsqueeze_5_reshaped"
  type: "Transform"
  bottom: "/model/Unsqueeze_5_reshaped:0"
  top: "transform-49-/model/Unsqueeze_5_reshaped:0"
    scale_param {
    "InputShapes": "1x64x256"
    "OutputShape": "1x64x256"
    "Quantize[mn,mx]": [-4.0, 4.0]
    "QuantizeBits": 8
    
    "RuntimeMemory": "16.00KB"
    "ScheduleId": "389"

  }

}
layer {
  name: "Transform: transform-48-/model/Unsqueeze_4_reshaped"
  type: "Transform"
  bottom: "/model/Unsqueeze_4_reshaped:0"
  top: "transform-48-/model/Unsqueeze_4_reshaped:0"
    scale_param {
    "InputShapes": "1x64x256"
    "OutputShape": "1x64x256"
    "Quantize[mn,mx]": [-2.0, 2.0]
    "QuantizeBits": 8
    
    "RuntimeMemory": "16.00KB"
    "ScheduleId": "393"

  }

}
layer {
  name: "Concat: /model/Concat_13"
  type: "Concat"
  bottom: "transform-48-/model/Unsqueeze_4_reshaped:0"
  bottom: "transform-49-/model/Unsqueeze_5_reshaped:0"
  bottom: "transform-50-/model/Unsqueeze_6_reshaped:0"
  bottom: "transform-51-/model/Unsqueeze_7_reshaped:0"
  top: "/model/Concat_13:0"
    scale_param {
    "InputShapes": "1x64x256, 1x64x256, 1x64x256, 1x64x256"
    "OutputShape": "4x64x256"
    "Quantize[mn,mx]": [-4.0, 4.0]
    "QuantizeBits": 8
    
    "RuntimeMemory": "64.00KB"
    "ScheduleId": "394"

  }

}
layer {
  name: "Transform: transform-47-/model/Concat_13"
  type: "Transform"
  bottom: "/model/Concat_13:0"
  top: "transform-47-/model/Concat_13:0"
    scale_param {
    "InputShapes": "4x64x256"
    "OutputShape": "4x64x256"
    "Quantize[mn,mx]": [-4.0, 4.0]
    "QuantizeBits": 8
    
    "RuntimeMemory": "64.00KB"
    "ScheduleId": "395"

  }

}
layer {
  name: "Reshape: /model/Reshape_12"
  type: "Reshape"
  bottom: "transform-47-/model/Concat_13:0"
  top: "/model/Reshape_12:0"
    scale_param {
    "InputShapes": "4x64x256"
    "OutputShape": "256x16x16"
    "Quantize[mn,mx]": [-4.0, 4.0]
    "QuantizeBits": 8
    "HasScratch": "true"
    
    "RuntimeMemory": "128.00KB"
    "ScheduleId": "396"

  }

}
layer {
  name: "Transform: transform-46-/model/Reshape_12"
  type: "Transform"
  bottom: "/model/Reshape_12:0"
  top: "transform-46-/model/Reshape_12:0"
    scale_param {
    "InputShapes": "256x16x16"
    "OutputShape": "256x16x16"
    "Quantize[mn,mx]": [-4.0, 4.0]
    "QuantizeBits": 8
    
    "RuntimeMemory": "64.00KB"
    "ScheduleId": "397"

  }

}
layer {
  name: "Conv2D: /model/model_10_m_0_attn_pe_conv/layer/Conv"
  type: "Convolution"
  bottom: "transform-45-/model/Reshape_11:0"
  bottom: "transform-46-/model/Reshape_12:0"
  top: "/model/Add_16:0"
    scale_param {
    "InputShapes": "256x16x16, 256x1x3x3, 256"
    "OutputShape": "256x16x16"
    "Quantize[mn,mx]": [-2.0, 2.0]
    "QuantizeBits": 16
    "ConstInputs": "/model/model_10_m_0_attn_pe_conv/WeightsSymmetricQuantizer:0"
    "ConstInputs": "Variable.model.model_10_m_0_attn_pe_conv.layer.bias.uid37:0"
    "RuntimeMemory": "64.00KB"
    "ScheduleId": "398"

  }
  blobs {
    shape {
      dim: 256
      dim: 1
      dim: 3
      dim: 3
    }
  }
  blobs {
    shape {
      dim: 256
    }
  }
}
layer {
  name: "Add: /model/Add_16"
  type: "Add"
  bottom: "/model/Add_16:0"
  top: "/model/Add_16:0"
    scale_param {
    "InputShapes": "256x16x16, 256x16x16"
    "OutputShape": "256x16x16"
    "Quantize[mn,mx]": [-4.0, 4.0]
    "QuantizeBits": 8
    "ConstInputs": "/model/model_10_m_0_attn_pe_conv/WeightsSymmetricQuantizer:0"
    "ConstInputs": "Variable.model.model_10_m_0_attn_pe_conv.layer.bias.uid37:0"
    "RuntimeMemory": "64.00KB"
    
  }

}
layer {
  name: "Conv2D: /model/model_10_m_0_attn_proj_conv/layer/Conv"
  type: "Convolution"
  bottom: "/model/Add_16:0"
  bottom: "transform-44-/model/Split_4sts1:0"
  top: "/model/Add_17:0"
    scale_param {
    "InputShapes": "256x16x16, 256x256x1x1, 256"
    "OutputShape": "256x16x16"
    "Quantize[mn,mx]": [-2.0, 2.0]
    "QuantizeBits": 16
    "ConstInputs": "/model/model_10_m_0_attn_proj_conv/WeightsSymmetricQuantizer:0"
    "ConstInputs": "Variable.model.model_10_m_0_attn_proj_conv.layer.bias.uid38:0"
    "RuntimeMemory": "64.00KB"
    "ScheduleId": "399"

  }
  blobs {
    shape {
      dim: 256
      dim: 256
      dim: 1
      dim: 1
    }
  }
  blobs {
    shape {
      dim: 256
    }
  }
}
layer {
  name: "Add: /model/Add_17"
  type: "Add"
  bottom: "/model/Add_17:0"
  top: "/model/Add_17:0"
    scale_param {
    "InputShapes": "256x16x16, 256x16x16"
    "OutputShape": "256x16x16"
    "Quantize[mn,mx]": [-4.0, 4.0]
    "QuantizeBits": 8
    "ConstInputs": "/model/model_10_m_0_attn_proj_conv/WeightsSymmetricQuantizer:0"
    "ConstInputs": "Variable.model.model_10_m_0_attn_proj_conv.layer.bias.uid38:0"
    "RuntimeMemory": "64.00KB"
    
  }

}
layer {
  name: "Conv2D: /model/model_10_m_0_ffn_0_conv/layer/Conv"
  type: "Convolution"
  bottom: "/model/Add_17:0"
  top: "/model/model_0_act_33/Mul_smr:0"
    scale_param {
    "InputShapes": "256x16x16, 512x256x1x1, 512"
    "OutputShape": "512x16x16"
    "Quantize[mn,mx]": [-8.0, 8.0]
    "QuantizeBits": 16
    "ConstInputs": "/model/model_10_m_0_ffn_0_conv/WeightsSymmetricQuantizer:0"
    "ConstInputs": "Variable.model.model_10_m_0_ffn_0_conv.layer.bias.uid39:0"
    "RuntimeMemory": "128.00KB"
    "ScheduleId": "400"

  }
  blobs {
    shape {
      dim: 512
      dim: 256
      dim: 1
      dim: 1
    }
  }
  blobs {
    shape {
      dim: 512
    }
  }
}
layer {
  name: "Swish: /model/model_0_act_33/Mul_smr"
  type: "Swish"
  bottom: "/model/model_0_act_33/Mul_smr:0"
  top: "/model/model_0_act_33/Mul_smr:0"
    scale_param {
    "InputShapes": "512x16x16"
    "OutputShape": "512x16x16"
    "Quantize[mn,mx]": [-2.0, 2.0]
    "QuantizeBits": 8
    "ConstInputs": "/model/model_10_m_0_ffn_0_conv/WeightsSymmetricQuantizer:0"
    "ConstInputs": "Variable.model.model_10_m_0_ffn_0_conv.layer.bias.uid39:0"
    "RuntimeMemory": "128.00KB"
    
  }

}
layer {
  name: "Conv2D: /model/model_10_m_0_ffn_1_conv/layer/Conv"
  type: "Convolution"
  bottom: "/model/Add_17:0"
  bottom: "/model/model_0_act_33/Mul_smr:0"
  top: "/model/Add_18:0"
    scale_param {
    "InputShapes": "512x16x16, 256x512x1x1, 256"
    "OutputShape": "256x16x16"
    "Quantize[mn,mx]": [-2.0, 2.0]
    "QuantizeBits": 16
    "ConstInputs": "/model/model_10_m_0_ffn_1_conv/WeightsSymmetricQuantizer:0"
    "ConstInputs": "Variable.model.model_10_m_0_ffn_1_conv.layer.bias.uid40:0"
    "RuntimeMemory": "64.00KB"
    "ScheduleId": "401"

  }
  blobs {
    shape {
      dim: 256
      dim: 512
      dim: 1
      dim: 1
    }
  }
  blobs {
    shape {
      dim: 256
    }
  }
}
layer {
  name: "Add: /model/Add_18"
  type: "Add"
  bottom: "/model/Add_18:0"
  top: "/model/Add_18:0"
    scale_param {
    "InputShapes": "256x16x16, 256x16x16"
    "OutputShape": "256x16x16"
    "Quantize[mn,mx]": [-8.0, 8.0]
    "QuantizeBits": 8
    "ConstInputs": "/model/model_10_m_0_ffn_1_conv/WeightsSymmetricQuantizer:0"
    "ConstInputs": "Variable.model.model_10_m_0_ffn_1_conv.layer.bias.uid40:0"
    "RuntimeMemory": "64.00KB"
    
  }

}
layer {
  name: "Cast: Cast_to_/model/Concat_14_1"
  type: "Cast"
  bottom: "/model/Add_18:0"
  top: "Cast_to_/model/Concat_14_1:0"
    scale_param {
    "InputShapes": "256x16x16"
    "OutputShape": "256x16x16"
    "Quantize[mn,mx]": [-4.0, 4.0]
    "QuantizeBits": 8
    
    "RuntimeMemory": "64.00KB"
    "ScheduleId": "402"

  }

}
layer {
  name: "Concat: /model/Concat_14"
  type: "Concat"
  bottom: "Cast_to_/model/Concat_14_1:0"
  bottom: "transform-43-/model/Split_4sts0:0"
  top: "/model/Concat_14:0"
    scale_param {
    "InputShapes": "256x16x16, 256x16x16"
    "OutputShape": "512x16x16"
    "Quantize[mn,mx]": [-4.0, 4.0]
    "QuantizeBits": 8
    
    "RuntimeMemory": "128.00KB"
    "ScheduleId": "403"

  }

}
layer {
  name: "Conv2D: /model/model_10_cv2_conv/layer/Conv"
  type: "Convolution"
  bottom: "/model/Concat_14:0"
  top: "/model/model_0_act_34/Mul_smr:0"
    scale_param {
    "InputShapes": "512x16x16, 512x512x1x1, 512"
    "OutputShape": "512x16x16"
    "Quantize[mn,mx]": [-8.0, 8.0]
    "QuantizeBits": 16
    "ConstInputs": "/model/model_10_cv2_conv/WeightsSymmetricQuantizer:0"
    "ConstInputs": "Variable.model.model_10_cv2_conv.layer.bias.uid41:0"
    "RuntimeMemory": "128.00KB"
    "ScheduleId": "404"

  }
  blobs {
    shape {
      dim: 512
      dim: 512
      dim: 1
      dim: 1
    }
  }
  blobs {
    shape {
      dim: 512
    }
  }
}
layer {
  name: "Swish: /model/model_0_act_34/Mul_smr"
  type: "Swish"
  bottom: "/model/model_0_act_34/Mul_smr:0"
  top: "/model/model_0_act_34/Mul_smr:0"
    scale_param {
    "InputShapes": "512x16x16"
    "OutputShape": "512x16x16"
    "Quantize[mn,mx]": [-2.0, 2.0]
    "QuantizeBits": 8
    "ConstInputs": "/model/model_10_cv2_conv/WeightsSymmetricQuantizer:0"
    "ConstInputs": "Variable.model.model_10_cv2_conv.layer.bias.uid41:0"
    "RuntimeMemory": "128.00KB"
    
  }

}
layer {
  name: "Resize: /model/model_11/Resize"
  type: "Resize"
  bottom: "/model/model_0_act_34/Mul_smr:0"
  top: "/model/model_11/Resize:0"
    scale_param {
    "InputShapes": "512x16x16"
    "OutputShape": "512x32x32"
    "Quantize[mn,mx]": [-8.0, 8.0]
    "QuantizeBits": 8
    "HasScratch": "true"
    
    "RuntimeMemory": "512.00KB"
    "ScheduleId": "405"

  }

}
layer {
  name: "Concat: /model/Concat_15"
  type: "Concat"
  bottom: "/model/model_0_act_20/Mul_smr:0"
  bottom: "/model/model_11/Resize:0"
  top: "/model/Concat_15:0"
    scale_param {
    "InputShapes": "512x32x32, 256x32x32"
    "OutputShape": "768x32x32"
    "Quantize[mn,mx]": [-8.0, 8.0]
    "QuantizeBits": 8
    
    "RuntimeMemory": "768.00KB"
    "ScheduleId": "406"

  }

}
layer {
  name: "Conv2D: /model/model_13_cv1_conv/layer/Conv"
  type: "Convolution"
  bottom: "/model/Concat_15:0"
  top: "/model/model_0_act_35/Mul_smr:0"
    scale_param {
    "InputShapes": "768x32x32, 256x768x1x1, 256"
    "OutputShape": "256x32x32"
    "Quantize[mn,mx]": [-8.0, 8.0]
    "QuantizeBits": 16
    "ConstInputs": "/model/model_13_cv1_conv/WeightsSymmetricQuantizer:0"
    "ConstInputs": "Variable.model.model_13_cv1_conv.layer.bias.uid42:0"
    "RuntimeMemory": "256.00KB"
    "ScheduleId": "407"

  }
  blobs {
    shape {
      dim: 256
      dim: 768
      dim: 1
      dim: 1
    }
  }
  blobs {
    shape {
      dim: 256
    }
  }
}
layer {
  name: "Swish: /model/model_0_act_35/Mul_smr"
  type: "Swish"
  bottom: "/model/model_0_act_35/Mul_smr:0"
  top: "/model/model_0_act_35/Mul_smr:0"
    scale_param {
    "InputShapes": "256x32x32"
    "OutputShape": "256x32x32"
    "Quantize[mn,mx]": [-4.0, 4.0]
    "QuantizeBits": 8
    "ConstInputs": "/model/model_13_cv1_conv/WeightsSymmetricQuantizer:0"
    "ConstInputs": "Variable.model.model_13_cv1_conv.layer.bias.uid42:0"
    "RuntimeMemory": "256.00KB"
    
  }

}
layer {
  name: "Transform: transform-41-(F)/model/model_13_cv1_conv/layer/Conv"
  type: "Transform"
  bottom: "/model/model_0_act_35/Mul_smr:0"
  top: "transform-41-(F)/model/model_13_cv1_conv/layer/Conv:0"
    scale_param {
    "InputShapes": "256x32x32"
    "OutputShape": "256x32x32"
    "Quantize[mn,mx]": [-4.0, 4.0]
    "QuantizeBits": 8
    
    "RuntimeMemory": "256.00KB"
    "ScheduleId": "408"

  }

}
layer {
  name: "Transform: transform-42-(F)/model/model_13_cv1_conv/layer/Conv"
  type: "Transform"
  bottom: "/model/model_0_act_35/Mul_smr:0"
  top: "transform-42-(F)/model/model_13_cv1_conv/layer/Conv:0"
    scale_param {
    "InputShapes": "256x32x32"
    "OutputShape": "256x32x32"
    "Quantize[mn,mx]": [-4.0, 4.0]
    "QuantizeBits": 8
    
    "RuntimeMemory": "256.00KB"
    "ScheduleId": "411"

  }

}
layer {
  name: "StrideSlice: /model/Split_10sts0"
  type: "StrideSlice"
  bottom: "transform-41-(F)/model/model_13_cv1_conv/layer/Conv:0"
  top: "/model/Split_10sts0:0"
    scale_param {
    "InputShapes": "256x32x32"
    "OutputShape": "128x32x32"
    "Quantize[mn,mx]": [-4.0, 4.0]
    "QuantizeBits": 8
    
    "RuntimeMemory": "128.00KB"
    "ScheduleId": "409"

  }

}
layer {
  name: "StrideSlice: /model/Split_10sts1"
  type: "StrideSlice"
  bottom: "transform-42-(F)/model/model_13_cv1_conv/layer/Conv:0"
  top: "/model/Split_10sts1:0"
    scale_param {
    "InputShapes": "256x32x32"
    "OutputShape": "128x32x32"
    "Quantize[mn,mx]": [-4.0, 4.0]
    "QuantizeBits": 8
    
    "RuntimeMemory": "128.00KB"
    "ScheduleId": "412"

  }

}
layer {
  name: "Transform: transform-36-/model/Split_10sts0"
  type: "Transform"
  bottom: "/model/Split_10sts0:0"
  top: "transform-36-/model/Split_10sts0:0"
    scale_param {
    "InputShapes": "128x32x32"
    "OutputShape": "128x32x32"
    "Quantize[mn,mx]": [-4.0, 4.0]
    "QuantizeBits": 8
    
    "RuntimeMemory": "128.00KB"
    "ScheduleId": "410"

  }

}
layer {
  name: "Transform: transform-37-/model/Split_10sts1"
  type: "Transform"
  bottom: "/model/Split_10sts1:0"
  top: "transform-37-/model/Split_10sts1:0"
    scale_param {
    "InputShapes": "128x32x32"
    "OutputShape": "128x32x32"
    "Quantize[mn,mx]": [-4.0, 4.0]
    "QuantizeBits": 8
    
    "RuntimeMemory": "128.00KB"
    "ScheduleId": "413"

  }

}
layer {
  name: "Transform: transform-40-/model/Split_10sts1"
  type: "Transform"
  bottom: "/model/Split_10sts1:0"
  top: "transform-40-/model/Split_10sts1:0"
    scale_param {
    "InputShapes": "128x32x32"
    "OutputShape": "128x32x32"
    "Quantize[mn,mx]": [-4.0, 4.0]
    "QuantizeBits": 8
    
    "RuntimeMemory": "128.00KB"
    "ScheduleId": "414"

  }

}
layer {
  name: "Conv2D: /model/model_13_m_0_cv1_conv/layer/Conv"
  type: "Convolution"
  bottom: "transform-40-/model/Split_10sts1:0"
  top: "/model/model_0_act_36/Mul_smr:0"
    scale_param {
    "InputShapes": "128x32x32, 64x128x3x3, 64"
    "OutputShape": "64x32x32"
    "Quantize[mn,mx]": [-8.0, 8.0]
    "QuantizeBits": 16
    "ConstInputs": "/model/model_13_m_0_cv1_conv/WeightsSymmetricQuantizer:0"
    "ConstInputs": "Variable.model.model_13_m_0_cv1_conv.layer.bias.uid43:0"
    "RuntimeMemory": "64.00KB"
    "ScheduleId": "415"

  }
  blobs {
    shape {
      dim: 64
      dim: 128
      dim: 3
      dim: 3
    }
  }
  blobs {
    shape {
      dim: 64
    }
  }
}
layer {
  name: "Swish: /model/model_0_act_36/Mul_smr"
  type: "Swish"
  bottom: "/model/model_0_act_36/Mul_smr:0"
  top: "/model/model_0_act_36/Mul_smr:0"
    scale_param {
    "InputShapes": "64x32x32"
    "OutputShape": "64x32x32"
    "Quantize[mn,mx]": [-4.0, 4.0]
    "QuantizeBits": 8
    "ConstInputs": "/model/model_13_m_0_cv1_conv/WeightsSymmetricQuantizer:0"
    "ConstInputs": "Variable.model.model_13_m_0_cv1_conv.layer.bias.uid43:0"
    "RuntimeMemory": "64.00KB"
    
  }

}
layer {
  name: "Conv2D: /model/model_13_m_0_cv2_conv/layer/Conv"
  type: "Convolution"
  bottom: "/model/model_0_act_36/Mul_smr:0"
  top: "/model/model_0_act_37/Mul_smr:0"
    scale_param {
    "InputShapes": "64x32x32, 128x64x3x3, 128"
    "OutputShape": "128x32x32"
    "Quantize[mn,mx]": [-8.0, 8.0]
    "QuantizeBits": 16
    "ConstInputs": "/model/model_13_m_0_cv2_conv/WeightsSymmetricQuantizer:0"
    "ConstInputs": "Variable.model.model_13_m_0_cv2_conv.layer.bias.uid44:0"
    "RuntimeMemory": "128.00KB"
    "ScheduleId": "416"

  }
  blobs {
    shape {
      dim: 128
      dim: 64
      dim: 3
      dim: 3
    }
  }
  blobs {
    shape {
      dim: 128
    }
  }
}
layer {
  name: "Swish: /model/model_0_act_37/Mul_smr"
  type: "Swish"
  bottom: "/model/model_0_act_37/Mul_smr:0"
  top: "/model/model_0_act_37/Mul_smr:0"
    scale_param {
    "InputShapes": "128x32x32"
    "OutputShape": "128x32x32"
    "Quantize[mn,mx]": [-4.0, 4.0]
    "QuantizeBits": 8
    "ConstInputs": "/model/model_13_m_0_cv2_conv/WeightsSymmetricQuantizer:0"
    "ConstInputs": "Variable.model.model_13_m_0_cv2_conv.layer.bias.uid44:0"
    "RuntimeMemory": "128.00KB"
    
  }

}
layer {
  name: "Transform: transform-39-(F)/model/model_13_m_0_cv2_conv/layer/Conv"
  type: "Transform"
  bottom: "/model/model_0_act_37/Mul_smr:0"
  top: "transform-39-(F)/model/model_13_m_0_cv2_conv/layer/Conv:0"
    scale_param {
    "InputShapes": "128x32x32"
    "OutputShape": "128x32x32"
    "Quantize[mn,mx]": [-4.0, 4.0]
    "QuantizeBits": 8
    
    "RuntimeMemory": "128.00KB"
    "ScheduleId": "417"

  }

}
layer {
  name: "Add: /model/Add_19"
  type: "Add"
  bottom: "/model/Split_10sts1:0"
  bottom: "transform-39-(F)/model/model_13_m_0_cv2_conv/layer/Conv:0"
  top: "/model/Add_19:0"
    scale_param {
    "InputShapes": "128x32x32, 128x32x32"
    "OutputShape": "128x32x32"
    "Quantize[mn,mx]": [-4.0, 4.0]
    "QuantizeBits": 8
    
    "RuntimeMemory": "128.00KB"
    "ScheduleId": "418"

  }

}
layer {
  name: "Transform: transform-38-/model/Add_19"
  type: "Transform"
  bottom: "/model/Add_19:0"
  top: "transform-38-/model/Add_19:0"
    scale_param {
    "InputShapes": "128x32x32"
    "OutputShape": "128x32x32"
    "Quantize[mn,mx]": [-4.0, 4.0]
    "QuantizeBits": 8
    
    "RuntimeMemory": "128.00KB"
    "ScheduleId": "419"

  }

}
layer {
  name: "Concat: /model/Concat_16"
  type: "Concat"
  bottom: "transform-36-/model/Split_10sts0:0"
  bottom: "transform-37-/model/Split_10sts1:0"
  bottom: "transform-38-/model/Add_19:0"
  top: "/model/Concat_16:0"
    scale_param {
    "InputShapes": "128x32x32, 128x32x32, 128x32x32"
    "OutputShape": "384x32x32"
    "Quantize[mn,mx]": [-4.0, 4.0]
    "QuantizeBits": 8
    
    "RuntimeMemory": "384.00KB"
    "ScheduleId": "420"

  }

}
layer {
  name: "Conv2D: /model/model_13_cv2_conv/layer/Conv"
  type: "Convolution"
  bottom: "/model/Concat_16:0"
  top: "/model/model_0_act_38/Mul_smr:0"
    scale_param {
    "InputShapes": "384x32x32, 256x384x1x1, 256"
    "OutputShape": "256x32x32"
    "Quantize[mn,mx]": [-8.0, 8.0]
    "QuantizeBits": 16
    "ConstInputs": "/model/model_13_cv2_conv/WeightsSymmetricQuantizer:0"
    "ConstInputs": "Variable.model.model_13_cv2_conv.layer.bias.uid45:0"
    "RuntimeMemory": "256.00KB"
    "ScheduleId": "421"

  }
  blobs {
    shape {
      dim: 256
      dim: 384
      dim: 1
      dim: 1
    }
  }
  blobs {
    shape {
      dim: 256
    }
  }
}
layer {
  name: "Swish: /model/model_0_act_38/Mul_smr"
  type: "Swish"
  bottom: "/model/model_0_act_38/Mul_smr:0"
  top: "/model/model_0_act_38/Mul_smr:0"
    scale_param {
    "InputShapes": "256x32x32"
    "OutputShape": "256x32x32"
    "Quantize[mn,mx]": [-2.0, 2.0]
    "QuantizeBits": 8
    "ConstInputs": "/model/model_13_cv2_conv/WeightsSymmetricQuantizer:0"
    "ConstInputs": "Variable.model.model_13_cv2_conv.layer.bias.uid45:0"
    "RuntimeMemory": "256.00KB"
    
  }

}
layer {
  name: "Resize: /model/model_14/Resize"
  type: "Resize"
  bottom: "/model/model_0_act_38/Mul_smr:0"
  top: "/model/model_14/Resize:0"
    scale_param {
    "InputShapes": "256x32x32"
    "OutputShape": "256x64x64"
    "Quantize[mn,mx]": [-4.0, 4.0]
    "QuantizeBits": 8
    "HasScratch": "true"
    
    "RuntimeMemory": "1.00MB"
    "ScheduleId": "422"

  }

}
layer {
  name: "Concat: /model/Concat_17"
  type: "Concat"
  bottom: "/model/model_0_act_10/Mul_smr:0"
  bottom: "/model/model_14/Resize:0"
  top: "/model/Concat_17:0"
    scale_param {
    "InputShapes": "256x64x64, 256x64x64"
    "OutputShape": "512x64x64"
    "Quantize[mn,mx]": [-4.0, 4.0]
    "QuantizeBits": 8
    
    "RuntimeMemory": "2.00MB"
    "ScheduleId": "423"

  }

}
layer {
  name: "Conv2D: /model/model_16_cv1_conv/layer/Conv"
  type: "Convolution"
  bottom: "/model/Concat_17:0"
  top: "/model/model_0_act_39/Mul_smr:0"
    scale_param {
    "InputShapes": "512x64x64, 128x512x1x1, 128"
    "OutputShape": "128x64x64"
    "Quantize[mn,mx]": [-8.0, 8.0]
    "QuantizeBits": 16
    "ConstInputs": "/model/model_16_cv1_conv/WeightsSymmetricQuantizer:0"
    "ConstInputs": "Variable.model.model_16_cv1_conv.layer.bias.uid46:0"
    "RuntimeMemory": "512.00KB"
    "ScheduleId": "424"

  }
  blobs {
    shape {
      dim: 128
      dim: 512
      dim: 1
      dim: 1
    }
  }
  blobs {
    shape {
      dim: 128
    }
  }
}
layer {
  name: "Swish: /model/model_0_act_39/Mul_smr"
  type: "Swish"
  bottom: "/model/model_0_act_39/Mul_smr:0"
  top: "/model/model_0_act_39/Mul_smr:0"
    scale_param {
    "InputShapes": "128x64x64"
    "OutputShape": "128x64x64"
    "Quantize[mn,mx]": [-4.0, 4.0]
    "QuantizeBits": 8
    "ConstInputs": "/model/model_16_cv1_conv/WeightsSymmetricQuantizer:0"
    "ConstInputs": "Variable.model.model_16_cv1_conv.layer.bias.uid46:0"
    "RuntimeMemory": "512.00KB"
    
  }

}
layer {
  name: "Transform: transform-34-(F)/model/model_16_cv1_conv/layer/Conv"
  type: "Transform"
  bottom: "/model/model_0_act_39/Mul_smr:0"
  top: "transform-34-(F)/model/model_16_cv1_conv/layer/Conv:0"
    scale_param {
    "InputShapes": "128x64x64"
    "OutputShape": "128x64x64"
    "Quantize[mn,mx]": [-4.0, 4.0]
    "QuantizeBits": 8
    
    "RuntimeMemory": "512.00KB"
    "ScheduleId": "425"

  }

}
layer {
  name: "Transform: transform-35-(F)/model/model_16_cv1_conv/layer/Conv"
  type: "Transform"
  bottom: "/model/model_0_act_39/Mul_smr:0"
  top: "transform-35-(F)/model/model_16_cv1_conv/layer/Conv:0"
    scale_param {
    "InputShapes": "128x64x64"
    "OutputShape": "128x64x64"
    "Quantize[mn,mx]": [-4.0, 4.0]
    "QuantizeBits": 8
    
    "RuntimeMemory": "512.00KB"
    "ScheduleId": "428"

  }

}
layer {
  name: "StrideSlice: /model/Split_11sts0"
  type: "StrideSlice"
  bottom: "transform-34-(F)/model/model_16_cv1_conv/layer/Conv:0"
  top: "/model/Split_11sts0:0"
    scale_param {
    "InputShapes": "128x64x64"
    "OutputShape": "64x64x64"
    "Quantize[mn,mx]": [-4.0, 4.0]
    "QuantizeBits": 8
    
    "RuntimeMemory": "256.00KB"
    "ScheduleId": "426"

  }

}
layer {
  name: "StrideSlice: /model/Split_11sts1"
  type: "StrideSlice"
  bottom: "transform-35-(F)/model/model_16_cv1_conv/layer/Conv:0"
  top: "/model/Split_11sts1:0"
    scale_param {
    "InputShapes": "128x64x64"
    "OutputShape": "64x64x64"
    "Quantize[mn,mx]": [-4.0, 4.0]
    "QuantizeBits": 8
    
    "RuntimeMemory": "256.00KB"
    "ScheduleId": "429"

  }

}
layer {
  name: "Transform: transform-29-/model/Split_11sts0"
  type: "Transform"
  bottom: "/model/Split_11sts0:0"
  top: "transform-29-/model/Split_11sts0:0"
    scale_param {
    "InputShapes": "64x64x64"
    "OutputShape": "64x64x64"
    "Quantize[mn,mx]": [-4.0, 4.0]
    "QuantizeBits": 8
    
    "RuntimeMemory": "256.00KB"
    "ScheduleId": "427"

  }

}
layer {
  name: "Transform: transform-30-/model/Split_11sts1"
  type: "Transform"
  bottom: "/model/Split_11sts1:0"
  top: "transform-30-/model/Split_11sts1:0"
    scale_param {
    "InputShapes": "64x64x64"
    "OutputShape": "64x64x64"
    "Quantize[mn,mx]": [-4.0, 4.0]
    "QuantizeBits": 8
    
    "RuntimeMemory": "256.00KB"
    "ScheduleId": "430"

  }

}
layer {
  name: "Transform: transform-33-/model/Split_11sts1"
  type: "Transform"
  bottom: "/model/Split_11sts1:0"
  top: "transform-33-/model/Split_11sts1:0"
    scale_param {
    "InputShapes": "64x64x64"
    "OutputShape": "64x64x64"
    "Quantize[mn,mx]": [-4.0, 4.0]
    "QuantizeBits": 8
    
    "RuntimeMemory": "256.00KB"
    "ScheduleId": "431"

  }

}
layer {
  name: "Conv2D: /model/model_16_m_0_cv1_conv/layer/Conv"
  type: "Convolution"
  bottom: "transform-33-/model/Split_11sts1:0"
  top: "/model/model_0_act_40/Mul_smr:0"
    scale_param {
    "InputShapes": "64x64x64, 32x64x3x3, 32"
    "OutputShape": "32x64x64"
    "Quantize[mn,mx]": [-8.0, 8.0]
    "QuantizeBits": 16
    "ConstInputs": "/model/model_16_m_0_cv1_conv/WeightsSymmetricQuantizer:0"
    "ConstInputs": "Variable.model.model_16_m_0_cv1_conv.layer.bias.uid47:0"
    "RuntimeMemory": "128.00KB"
    "ScheduleId": "432"

  }
  blobs {
    shape {
      dim: 32
      dim: 64
      dim: 3
      dim: 3
    }
  }
  blobs {
    shape {
      dim: 32
    }
  }
}
layer {
  name: "Swish: /model/model_0_act_40/Mul_smr"
  type: "Swish"
  bottom: "/model/model_0_act_40/Mul_smr:0"
  top: "/model/model_0_act_40/Mul_smr:0"
    scale_param {
    "InputShapes": "32x64x64"
    "OutputShape": "32x64x64"
    "Quantize[mn,mx]": [-4.0, 4.0]
    "QuantizeBits": 8
    "ConstInputs": "/model/model_16_m_0_cv1_conv/WeightsSymmetricQuantizer:0"
    "ConstInputs": "Variable.model.model_16_m_0_cv1_conv.layer.bias.uid47:0"
    "RuntimeMemory": "128.00KB"
    
  }

}
layer {
  name: "Conv2D: /model/model_16_m_0_cv2_conv/layer/Conv"
  type: "Convolution"
  bottom: "/model/model_0_act_40/Mul_smr:0"
  top: "/model/model_0_act_41/Mul_smr:0"
    scale_param {
    "InputShapes": "32x64x64, 64x32x3x3, 64"
    "OutputShape": "64x64x64"
    "Quantize[mn,mx]": [-8.0, 8.0]
    "QuantizeBits": 16
    "ConstInputs": "/model/model_16_m_0_cv2_conv/WeightsSymmetricQuantizer:0"
    "ConstInputs": "Variable.model.model_16_m_0_cv2_conv.layer.bias.uid48:0"
    "RuntimeMemory": "256.00KB"
    "ScheduleId": "433"

  }
  blobs {
    shape {
      dim: 64
      dim: 32
      dim: 3
      dim: 3
    }
  }
  blobs {
    shape {
      dim: 64
    }
  }
}
layer {
  name: "Swish: /model/model_0_act_41/Mul_smr"
  type: "Swish"
  bottom: "/model/model_0_act_41/Mul_smr:0"
  top: "/model/model_0_act_41/Mul_smr:0"
    scale_param {
    "InputShapes": "64x64x64"
    "OutputShape": "64x64x64"
    "Quantize[mn,mx]": [-4.0, 4.0]
    "QuantizeBits": 8
    "ConstInputs": "/model/model_16_m_0_cv2_conv/WeightsSymmetricQuantizer:0"
    "ConstInputs": "Variable.model.model_16_m_0_cv2_conv.layer.bias.uid48:0"
    "RuntimeMemory": "256.00KB"
    
  }

}
layer {
  name: "Transform: transform-32-(F)/model/model_16_m_0_cv2_conv/layer/Conv"
  type: "Transform"
  bottom: "/model/model_0_act_41/Mul_smr:0"
  top: "transform-32-(F)/model/model_16_m_0_cv2_conv/layer/Conv:0"
    scale_param {
    "InputShapes": "64x64x64"
    "OutputShape": "64x64x64"
    "Quantize[mn,mx]": [-4.0, 4.0]
    "QuantizeBits": 8
    
    "RuntimeMemory": "256.00KB"
    "ScheduleId": "434"

  }

}
layer {
  name: "Add: /model/Add_20"
  type: "Add"
  bottom: "/model/Split_11sts1:0"
  bottom: "transform-32-(F)/model/model_16_m_0_cv2_conv/layer/Conv:0"
  top: "/model/Add_20:0"
    scale_param {
    "InputShapes": "64x64x64, 64x64x64"
    "OutputShape": "64x64x64"
    "Quantize[mn,mx]": [-4.0, 4.0]
    "QuantizeBits": 8
    
    "RuntimeMemory": "256.00KB"
    "ScheduleId": "435"

  }

}
layer {
  name: "Transform: transform-31-/model/Add_20"
  type: "Transform"
  bottom: "/model/Add_20:0"
  top: "transform-31-/model/Add_20:0"
    scale_param {
    "InputShapes": "64x64x64"
    "OutputShape": "64x64x64"
    "Quantize[mn,mx]": [-4.0, 4.0]
    "QuantizeBits": 8
    
    "RuntimeMemory": "256.00KB"
    "ScheduleId": "436"

  }

}
layer {
  name: "Concat: /model/Concat_18"
  type: "Concat"
  bottom: "transform-29-/model/Split_11sts0:0"
  bottom: "transform-30-/model/Split_11sts1:0"
  bottom: "transform-31-/model/Add_20:0"
  top: "/model/Concat_18:0"
    scale_param {
    "InputShapes": "64x64x64, 64x64x64, 64x64x64"
    "OutputShape": "192x64x64"
    "Quantize[mn,mx]": [-4.0, 4.0]
    "QuantizeBits": 8
    
    "RuntimeMemory": "768.00KB"
    "ScheduleId": "437"

  }

}
layer {
  name: "Conv2D: /model/model_16_cv2_conv/layer/Conv"
  type: "Convolution"
  bottom: "/model/Concat_18:0"
  top: "/model/model_0_act_42/Mul_smr:0"
    scale_param {
    "InputShapes": "192x64x64, 128x192x1x1, 128"
    "OutputShape": "128x64x64"
    "Quantize[mn,mx]": [-8.0, 8.0]
    "QuantizeBits": 16
    "ConstInputs": "/model/model_16_cv2_conv/WeightsSymmetricQuantizer:0"
    "ConstInputs": "Variable.model.model_16_cv2_conv.layer.bias.uid49:0"
    "RuntimeMemory": "512.00KB"
    "ScheduleId": "438"

  }
  blobs {
    shape {
      dim: 128
      dim: 192
      dim: 1
      dim: 1
    }
  }
  blobs {
    shape {
      dim: 128
    }
  }
}
layer {
  name: "Swish: /model/model_0_act_42/Mul_smr"
  type: "Swish"
  bottom: "/model/model_0_act_42/Mul_smr:0"
  top: "/model/model_0_act_42/Mul_smr:0"
    scale_param {
    "InputShapes": "128x64x64"
    "OutputShape": "128x64x64"
    "Quantize[mn,mx]": [-4.0, 4.0]
    "QuantizeBits": 8
    "ConstInputs": "/model/model_16_cv2_conv/WeightsSymmetricQuantizer:0"
    "ConstInputs": "Variable.model.model_16_cv2_conv.layer.bias.uid49:0"
    "RuntimeMemory": "512.00KB"
    
  }

}
layer {
  name: "Conv2D: /model/model_23_cv3_0_0_0_conv/layer/Conv"
  type: "Convolution"
  bottom: "/model/model_0_act_42/Mul_smr:0"
  top: "/model/model_0_act_64/Mul_smr:0"
    scale_param {
    "InputShapes": "128x64x64, 128x1x3x3, 128"
    "OutputShape": "128x64x64"
    "Quantize[mn,mx]": [-8.0, 8.0]
    "QuantizeBits": 16
    "ConstInputs": "/model/model_23_cv3_0_0_0_conv/WeightsSymmetricQuantizer:0"
    "ConstInputs": "Variable.model.model_23_cv3_0_0_0_conv.layer.bias.uid52:0"
    "RuntimeMemory": "512.00KB"
    "ScheduleId": "441"

  }
  blobs {
    shape {
      dim: 128
      dim: 1
      dim: 3
      dim: 3
    }
  }
  blobs {
    shape {
      dim: 128
    }
  }
}
layer {
  name: "Swish: /model/model_0_act_64/Mul_smr"
  type: "Swish"
  bottom: "/model/model_0_act_64/Mul_smr:0"
  top: "/model/model_0_act_64/Mul_smr:0"
    scale_param {
    "InputShapes": "128x64x64"
    "OutputShape": "128x64x64"
    "Quantize[mn,mx]": [0, 8.0]
    "QuantizeBits": 8
    "ConstInputs": "/model/model_23_cv3_0_0_0_conv/WeightsSymmetricQuantizer:0"
    "ConstInputs": "Variable.model.model_23_cv3_0_0_0_conv.layer.bias.uid52:0"
    "RuntimeMemory": "512.00KB"
    
  }

}
layer {
  name: "Conv2D: /model/model_23_cv2_0_0_conv/layer/Conv"
  type: "Convolution"
  bottom: "/model/model_0_act_42/Mul_smr:0"
  top: "/model/model_0_act_58/Mul_smr:0"
    scale_param {
    "InputShapes": "128x64x64, 64x128x3x3, 64"
    "OutputShape": "64x64x64"
    "Quantize[mn,mx]": [-8.0, 8.0]
    "QuantizeBits": 16
    "ConstInputs": "/model/model_23_cv2_0_0_conv/WeightsSymmetricQuantizer:0"
    "ConstInputs": "Variable.model.model_23_cv2_0_0_conv.layer.bias.uid51:0"
    "RuntimeMemory": "256.00KB"
    "ScheduleId": "440"

  }
  blobs {
    shape {
      dim: 64
      dim: 128
      dim: 3
      dim: 3
    }
  }
  blobs {
    shape {
      dim: 64
    }
  }
}
layer {
  name: "Swish: /model/model_0_act_58/Mul_smr"
  type: "Swish"
  bottom: "/model/model_0_act_58/Mul_smr:0"
  top: "/model/model_0_act_58/Mul_smr:0"
    scale_param {
    "InputShapes": "64x64x64"
    "OutputShape": "64x64x64"
    "Quantize[mn,mx]": [0, 8.0]
    "QuantizeBits": 8
    "ConstInputs": "/model/model_23_cv2_0_0_conv/WeightsSymmetricQuantizer:0"
    "ConstInputs": "Variable.model.model_23_cv2_0_0_conv.layer.bias.uid51:0"
    "RuntimeMemory": "256.00KB"
    
  }

}
layer {
  name: "Conv2D: /model/model_17_conv/layer/Conv"
  type: "Convolution"
  bottom: "/model/model_0_act_42/Mul_smr:0"
  top: "/model/model_0_act_43/Mul_smr:0"
    scale_param {
    "InputShapes": "128x64x64, 128x128x3x3, 128"
    "OutputShape": "128x32x32"
    "Quantize[mn,mx]": [-8.0, 8.0]
    "QuantizeBits": 16
    "ConstInputs": "/model/model_17_conv/WeightsSymmetricQuantizer:0"
    "ConstInputs": "Variable.model.model_17_conv.layer.bias.uid50:0"
    "RuntimeMemory": "128.00KB"
    "ScheduleId": "439"

  }
  blobs {
    shape {
      dim: 128
      dim: 128
      dim: 3
      dim: 3
    }
  }
  blobs {
    shape {
      dim: 128
    }
  }
}
layer {
  name: "Swish: /model/model_0_act_43/Mul_smr"
  type: "Swish"
  bottom: "/model/model_0_act_43/Mul_smr:0"
  top: "/model/model_0_act_43/Mul_smr:0"
    scale_param {
    "InputShapes": "128x32x32"
    "OutputShape": "128x32x32"
    "Quantize[mn,mx]": [-4.0, 4.0]
    "QuantizeBits": 8
    "ConstInputs": "/model/model_17_conv/WeightsSymmetricQuantizer:0"
    "ConstInputs": "Variable.model.model_17_conv.layer.bias.uid50:0"
    "RuntimeMemory": "128.00KB"
    
  }

}
layer {
  name: "Conv2D: /model/model_23_cv3_0_0_1_conv/layer/Conv"
  type: "Convolution"
  bottom: "/model/model_0_act_64/Mul_smr:0"
  top: "/model/model_0_act_65/Mul_smr:0"
    scale_param {
    "InputShapes": "128x64x64, 128x128x1x1, 128"
    "OutputShape": "128x64x64"
    "Quantize[mn,mx]": [-8.0, 8.0]
    "QuantizeBits": 16
    "ConstInputs": "/model/model_23_cv3_0_0_1_conv/WeightsSymmetricQuantizer:0"
    "ConstInputs": "Variable.model.model_23_cv3_0_0_1_conv.layer.bias.uid54:0"
    "RuntimeMemory": "512.00KB"
    "ScheduleId": "442"

  }
  blobs {
    shape {
      dim: 128
      dim: 128
      dim: 1
      dim: 1
    }
  }
  blobs {
    shape {
      dim: 128
    }
  }
}
layer {
  name: "Swish: /model/model_0_act_65/Mul_smr"
  type: "Swish"
  bottom: "/model/model_0_act_65/Mul_smr:0"
  top: "/model/model_0_act_65/Mul_smr:0"
    scale_param {
    "InputShapes": "128x64x64"
    "OutputShape": "128x64x64"
    "Quantize[mn,mx]": [0, 8.0]
    "QuantizeBits": 8
    "ConstInputs": "/model/model_23_cv3_0_0_1_conv/WeightsSymmetricQuantizer:0"
    "ConstInputs": "Variable.model.model_23_cv3_0_0_1_conv.layer.bias.uid54:0"
    "RuntimeMemory": "512.00KB"
    
  }

}
layer {
  name: "Pad: /model/Pad_5_to1d_0"
  type: "Pad"
  bottom: "/model/model_0_act_58/Mul_smr:0"
  top: "/model/Pad_5_to1d_0:0"
    scale_param {
    "InputShapes": "64x64x64"
    "OutputShape": "64x66x64"
    "Quantize[mn,mx]": [0, 8.0]
    "QuantizeBits": 8
    "HasScratch": "true"
    
    "RuntimeMemory": "264.00KB"
    "ScheduleId": "445"

  }

}
layer {
  name: "Concat: /model/Concat_19"
  type: "Concat"
  bottom: "/model/model_0_act_38/Mul_smr:0"
  bottom: "/model/model_0_act_43/Mul_smr:0"
  top: "/model/Concat_19:0"
    scale_param {
    "InputShapes": "128x32x32, 256x32x32"
    "OutputShape": "384x32x32"
    "Quantize[mn,mx]": [-4.0, 4.0]
    "QuantizeBits": 8
    
    "RuntimeMemory": "384.00KB"
    "ScheduleId": "443"

  }

}
layer {
  name: "Pad: /model/Pad_6_to1d_0"
  type: "Pad"
  bottom: "/model/model_0_act_65/Mul_smr:0"
  top: "/model/Pad_6_to1d_0:0"
    scale_param {
    "InputShapes": "128x64x64"
    "OutputShape": "128x66x64"
    "Quantize[mn,mx]": [0, 8.0]
    "QuantizeBits": 8
    "HasScratch": "true"
    
    "RuntimeMemory": "528.00KB"
    "ScheduleId": "448"

  }

}
layer {
  name: "Pad: /model/Pad_5_to1d_1"
  type: "Pad"
  bottom: "/model/Pad_5_to1d_0:0"
  top: "/model/Pad_5_to1d_1:0"
    scale_param {
    "InputShapes": "64x66x64"
    "OutputShape": "64x66x66"
    "Quantize[mn,mx]": [0, 8.0]
    "QuantizeBits": 8
    "HasScratch": "true"
    
    "RuntimeMemory": "272.25KB"
    "ScheduleId": "446"

  }

}
layer {
  name: "Conv2D: /model/model_19_cv1_conv/layer/Conv"
  type: "Convolution"
  bottom: "/model/Concat_19:0"
  top: "/model/model_0_act_44/Mul_smr:0"
    scale_param {
    "InputShapes": "384x32x32, 256x384x1x1, 256"
    "OutputShape": "256x32x32"
    "Quantize[mn,mx]": [-8.0, 8.0]
    "QuantizeBits": 16
    "ConstInputs": "/model/model_19_cv1_conv/WeightsSymmetricQuantizer:0"
    "ConstInputs": "Variable.model.model_19_cv1_conv.layer.bias.uid53:0"
    "RuntimeMemory": "256.00KB"
    "ScheduleId": "444"

  }
  blobs {
    shape {
      dim: 256
      dim: 384
      dim: 1
      dim: 1
    }
  }
  blobs {
    shape {
      dim: 256
    }
  }
}
layer {
  name: "Swish: /model/model_0_act_44/Mul_smr"
  type: "Swish"
  bottom: "/model/model_0_act_44/Mul_smr:0"
  top: "/model/model_0_act_44/Mul_smr:0"
    scale_param {
    "InputShapes": "256x32x32"
    "OutputShape": "256x32x32"
    "Quantize[mn,mx]": [-8.0, 8.0]
    "QuantizeBits": 8
    "ConstInputs": "/model/model_19_cv1_conv/WeightsSymmetricQuantizer:0"
    "ConstInputs": "Variable.model.model_19_cv1_conv.layer.bias.uid53:0"
    "RuntimeMemory": "256.00KB"
    
  }

}
layer {
  name: "Pad: /model/Pad_6_to1d_1"
  type: "Pad"
  bottom: "/model/Pad_6_to1d_0:0"
  top: "/model/Pad_6_to1d_1:0"
    scale_param {
    "InputShapes": "128x66x64"
    "OutputShape": "128x66x66"
    "Quantize[mn,mx]": [0, 8.0]
    "QuantizeBits": 8
    "HasScratch": "true"
    
    "RuntimeMemory": "544.50KB"
    "ScheduleId": "449"

  }

}
layer {
  name: "Conv2D: /model/model_23_cv2_0_1_conv/layer/Conv"
  type: "Convolution"
  bottom: "/model/Pad_5_to1d_1:0"
  top: "/model/model_0_act_59/Mul_smr:0"
    scale_param {
    "InputShapes": "64x66x66, 64x64x3x3, 64"
    "OutputShape": "64x64x64"
    "Quantize[mn,mx]": [-16.0, 16.0]
    "QuantizeBits": 16
    "ConstInputs": "/model/model_23_cv2_0_1_conv/WeightsSymmetricQuantizer:0"
    "ConstInputs": "Variable.model.model_23_cv2_0_1_conv.layer.bias.uid55:0"
    "RuntimeMemory": "256.00KB"
    "ScheduleId": "447"

  }
  blobs {
    shape {
      dim: 64
      dim: 64
      dim: 3
      dim: 3
    }
  }
  blobs {
    shape {
      dim: 64
    }
  }
}
layer {
  name: "Swish: /model/model_0_act_59/Mul_smr"
  type: "Swish"
  bottom: "/model/model_0_act_59/Mul_smr:0"
  top: "/model/model_0_act_59/Mul_smr:0"
    scale_param {
    "InputShapes": "64x64x64"
    "OutputShape": "64x64x64"
    "Quantize[mn,mx]": [0, 16.0]
    "QuantizeBits": 8
    "ConstInputs": "/model/model_23_cv2_0_1_conv/WeightsSymmetricQuantizer:0"
    "ConstInputs": "Variable.model.model_23_cv2_0_1_conv.layer.bias.uid55:0"
    "RuntimeMemory": "256.00KB"
    
  }

}
layer {
  name: "Transform: transform-27-(F)/model/model_19_cv1_conv/layer/Conv"
  type: "Transform"
  bottom: "/model/model_0_act_44/Mul_smr:0"
  top: "transform-27-(F)/model/model_19_cv1_conv/layer/Conv:0"
    scale_param {
    "InputShapes": "256x32x32"
    "OutputShape": "256x32x32"
    "Quantize[mn,mx]": [-8.0, 8.0]
    "QuantizeBits": 8
    
    "RuntimeMemory": "256.00KB"
    "ScheduleId": "457"

  }

}
layer {
  name: "Transform: transform-28-(F)/model/model_19_cv1_conv/layer/Conv"
  type: "Transform"
  bottom: "/model/model_0_act_44/Mul_smr:0"
  top: "transform-28-(F)/model/model_19_cv1_conv/layer/Conv:0"
    scale_param {
    "InputShapes": "256x32x32"
    "OutputShape": "256x32x32"
    "Quantize[mn,mx]": [-8.0, 8.0]
    "QuantizeBits": 8
    
    "RuntimeMemory": "256.00KB"
    "ScheduleId": "460"

  }

}
layer {
  name: "Conv2D: /model/model_23_cv3_0_1_0_conv/layer/Conv"
  type: "Convolution"
  bottom: "/model/Pad_6_to1d_1:0"
  top: "/model/model_0_act_66/Mul_smr:0"
    scale_param {
    "InputShapes": "128x66x66, 128x1x3x3, 128"
    "OutputShape": "128x64x64"
    "Quantize[mn,mx]": [-16.0, 16.0]
    "QuantizeBits": 16
    "ConstInputs": "/model/model_23_cv3_0_1_0_conv/WeightsSymmetricQuantizer:0"
    "ConstInputs": "Variable.model.model_23_cv3_0_1_0_conv.layer.bias.uid58:0"
    "RuntimeMemory": "512.00KB"
    "ScheduleId": "450"

  }
  blobs {
    shape {
      dim: 128
      dim: 1
      dim: 3
      dim: 3
    }
  }
  blobs {
    shape {
      dim: 128
    }
  }
}
layer {
  name: "Swish: /model/model_0_act_66/Mul_smr"
  type: "Swish"
  bottom: "/model/model_0_act_66/Mul_smr:0"
  top: "/model/model_0_act_66/Mul_smr:0"
    scale_param {
    "InputShapes": "128x64x64"
    "OutputShape": "128x64x64"
    "Quantize[mn,mx]": [0, 16.0]
    "QuantizeBits": 8
    "ConstInputs": "/model/model_23_cv3_0_1_0_conv/WeightsSymmetricQuantizer:0"
    "ConstInputs": "Variable.model.model_23_cv3_0_1_0_conv.layer.bias.uid58:0"
    "RuntimeMemory": "512.00KB"
    
  }

}
layer {
  name: "Conv2D: /model/model_23_cv2_0_2/layer/Conv"
  type: "Convolution"
  bottom: "/model/model_0_act_59/Mul_smr:0"
  top: "/model/model_23_cv2_0_2/layer/Conv:0"
    scale_param {
    "InputShapes": "64x64x64, 64x64x1x1, 64"
    "OutputShape": "64x64x64"
    "Quantize[mn,mx]": [-16.0, 16.0]
    "QuantizeBits": 8
    "ConstInputs": "/model/model_23_cv2_0_2/WeightsSymmetricQuantizer:0"
    "ConstInputs": "Variable.model.model_23_cv2_0_2.layer.bias.uid57:0"
    "RuntimeMemory": "256.00KB"
    "ScheduleId": "452"

  }
  blobs {
    shape {
      dim: 64
      dim: 64
      dim: 1
      dim: 1
    }
  }
  blobs {
    shape {
      dim: 64
    }
  }
}
layer {
  name: "StrideSlice: /model/Split_12sts0"
  type: "StrideSlice"
  bottom: "transform-27-(F)/model/model_19_cv1_conv/layer/Conv:0"
  top: "/model/Split_12sts0:0"
    scale_param {
    "InputShapes": "256x32x32"
    "OutputShape": "128x32x32"
    "Quantize[mn,mx]": [-8.0, 8.0]
    "QuantizeBits": 8
    
    "RuntimeMemory": "128.00KB"
    "ScheduleId": "458"

  }

}
layer {
  name: "StrideSlice: /model/Split_12sts1"
  type: "StrideSlice"
  bottom: "transform-28-(F)/model/model_19_cv1_conv/layer/Conv:0"
  top: "/model/Split_12sts1:0"
    scale_param {
    "InputShapes": "256x32x32"
    "OutputShape": "128x32x32"
    "Quantize[mn,mx]": [-8.0, 8.0]
    "QuantizeBits": 8
    
    "RuntimeMemory": "128.00KB"
    "ScheduleId": "461"

  }

}
layer {
  name: "Conv2D: /model/model_23_cv3_0_1_1_conv/layer/Conv"
  type: "Convolution"
  bottom: "/model/model_0_act_66/Mul_smr:0"
  top: "/model/model_0_act_67/Mul_smr:0"
    scale_param {
    "InputShapes": "128x64x64, 128x128x1x1, 128"
    "OutputShape": "128x64x64"
    "Quantize[mn,mx]": [-32.0, 32.0]
    "QuantizeBits": 16
    "ConstInputs": "/model/model_23_cv3_0_1_1_conv/WeightsSymmetricQuantizer:0"
    "ConstInputs": "Variable.model.model_23_cv3_0_1_1_conv.layer.bias.uid60:0"
    "RuntimeMemory": "512.00KB"
    "ScheduleId": "451"

  }
  blobs {
    shape {
      dim: 128
      dim: 128
      dim: 1
      dim: 1
    }
  }
  blobs {
    shape {
      dim: 128
    }
  }
}
layer {
  name: "Swish: /model/model_0_act_67/Mul_smr"
  type: "Swish"
  bottom: "/model/model_0_act_67/Mul_smr:0"
  top: "/model/model_0_act_67/Mul_smr:0"
    scale_param {
    "InputShapes": "128x64x64"
    "OutputShape": "128x64x64"
    "Quantize[mn,mx]": [0, 32.0]
    "QuantizeBits": 8
    "ConstInputs": "/model/model_23_cv3_0_1_1_conv/WeightsSymmetricQuantizer:0"
    "ConstInputs": "Variable.model.model_23_cv3_0_1_1_conv.layer.bias.uid60:0"
    "RuntimeMemory": "512.00KB"
    
  }

}
layer {
  name: "Transform: transform-15-/model/model_23_cv2_0_2/layer/Conv"
  type: "Transform"
  bottom: "/model/model_23_cv2_0_2/layer/Conv:0"
  top: "transform-15-/model/model_23_cv2_0_2/layer/Conv:0"
    scale_param {
    "InputShapes": "64x64x64"
    "OutputShape": "64x64x64"
    "Quantize[mn,mx]": [-16.0, 16.0]
    "QuantizeBits": 8
    
    "RuntimeMemory": "256.00KB"
    "ScheduleId": "455"

  }

}
layer {
  name: "Transform: transform-22-/model/Split_12sts0"
  type: "Transform"
  bottom: "/model/Split_12sts0:0"
  top: "transform-22-/model/Split_12sts0:0"
    scale_param {
    "InputShapes": "128x32x32"
    "OutputShape": "128x32x32"
    "Quantize[mn,mx]": [-8.0, 8.0]
    "QuantizeBits": 8
    
    "RuntimeMemory": "128.00KB"
    "ScheduleId": "459"

  }

}
layer {
  name: "Transform: transform-23-/model/Split_12sts1"
  type: "Transform"
  bottom: "/model/Split_12sts1:0"
  top: "transform-23-/model/Split_12sts1:0"
    scale_param {
    "InputShapes": "128x32x32"
    "OutputShape": "128x32x32"
    "Quantize[mn,mx]": [-8.0, 8.0]
    "QuantizeBits": 8
    
    "RuntimeMemory": "128.00KB"
    "ScheduleId": "462"

  }

}
layer {
  name: "Transform: transform-26-/model/Split_12sts1"
  type: "Transform"
  bottom: "/model/Split_12sts1:0"
  top: "transform-26-/model/Split_12sts1:0"
    scale_param {
    "InputShapes": "128x32x32"
…
  top: "/model/model_0_act_48/Mul_smr:0"
    scale_param {
    "InputShapes": "256x32x32, 256x256x3x3, 256"
    "OutputShape": "256x16x16"
    "Quantize[mn,mx]": [-8.0, 8.0]
    "QuantizeBits": 16
    "ConstInputs": "/model/model_20_conv/WeightsSymmetricQuantizer:0"
    "ConstInputs": "Variable.model.model_20_conv.layer.bias.uid63:0"
    "RuntimeMemory": "64.00KB"
    "ScheduleId": "471"

  }
  blobs {
    shape {
      dim: 256
      dim: 256
      dim: 3
      dim: 3
    }
  }
  blobs {
    shape {
      dim: 256
    }
  }
}
layer {
  name: "Swish: /model/model_0_act_48/Mul_smr"
  type: "Swish"
  bottom: "/model/model_0_act_48/Mul_smr:0"
  top: "/model/model_0_act_48/Mul_smr:0"
    scale_param {
    "InputShapes": "256x16x16"
    "OutputShape": "256x16x16"
    "Quantize[mn,mx]": [-4.0, 4.0]
    "QuantizeBits": 8
    "ConstInputs": "/model/model_20_conv/WeightsSymmetricQuantizer:0"
    "ConstInputs": "Variable.model.model_20_conv.layer.bias.uid63:0"
    "RuntimeMemory": "64.00KB"
    
  }

}
layer {
  name: "Conv2D: /model/model_23_cv3_1_0_1_conv/layer/Conv"
  type: "Convolution"
  bottom: "/model/model_0_act_68/Mul_smr:0"
  top: "/model/model_0_act_69/Mul_smr:0"
    scale_param {
    "InputShapes": "256x32x32, 128x256x1x1, 128"
    "OutputShape": "128x32x32"
    "Quantize[mn,mx]": [-8.0, 8.0]
    "QuantizeBits": 16
    "ConstInputs": "/model/model_23_cv3_1_0_1_conv/WeightsSymmetricQuantizer:0"
    "ConstInputs": "Variable.model.model_23_cv3_1_0_1_conv.layer.bias.uid67:0"
    "RuntimeMemory": "128.00KB"
    "ScheduleId": "474"

  }
  blobs {
    shape {
      dim: 128
      dim: 256
      dim: 1
      dim: 1
    }
  }
  blobs {
    shape {
      dim: 128
    }
  }
}
layer {
  name: "Swish: /model/model_0_act_69/Mul_smr"
  type: "Swish"
  bottom: "/model/model_0_act_69/Mul_smr:0"
  top: "/model/model_0_act_69/Mul_smr:0"
    scale_param {
    "InputShapes": "128x32x32"
    "OutputShape": "128x32x32"
    "Quantize[mn,mx]": [0, 8.0]
    "QuantizeBits": 8
    "ConstInputs": "/model/model_23_cv3_1_0_1_conv/WeightsSymmetricQuantizer:0"
    "ConstInputs": "Variable.model.model_23_cv3_1_0_1_conv.layer.bias.uid67:0"
    "RuntimeMemory": "128.00KB"
    
  }

}
layer {
  name: "Pad: /model/Pad_7_to1d_0"
  type: "Pad"
  bottom: "/model/model_0_act_60/Mul_smr:0"
  top: "/model/Pad_7_to1d_0:0"
    scale_param {
    "InputShapes": "64x32x32"
    "OutputShape": "64x34x32"
    "Quantize[mn,mx]": [0, 8.0]
    "QuantizeBits": 8
    "HasScratch": "true"
    
    "RuntimeMemory": "68.00KB"
    "ScheduleId": "477"

  }

}
layer {
  name: "Concat: /model/Concat_23"
  type: "Concat"
  bottom: "/model/model_0_act_34/Mul_smr:0"
  bottom: "/model/model_0_act_48/Mul_smr:0"
  top: "/model/Concat_23:0"
    scale_param {
    "InputShapes": "256x16x16, 512x16x16"
    "OutputShape": "768x16x16"
    "Quantize[mn,mx]": [-4.0, 4.0]
    "QuantizeBits": 8
    
    "RuntimeMemory": "192.00KB"
    "ScheduleId": "475"

  }

}
layer {
  name: "Pad: /model/Pad_8_to1d_0"
  type: "Pad"
  bottom: "/model/model_0_act_69/Mul_smr:0"
  top: "/model/Pad_8_to1d_0:0"
    scale_param {
    "InputShapes": "128x32x32"
    "OutputShape": "128x34x32"
    "Quantize[mn,mx]": [0, 8.0]
    "QuantizeBits": 8
    "HasScratch": "true"
    
    "RuntimeMemory": "136.00KB"
    "ScheduleId": "480"

  }

}
layer {
  name: "Pad: /model/Pad_7_to1d_1"
  type: "Pad"
  bottom: "/model/Pad_7_to1d_0:0"
  top: "/model/Pad_7_to1d_1:0"
    scale_param {
    "InputShapes": "64x34x32"
    "OutputShape": "64x34x34"
    "Quantize[mn,mx]": [0, 8.0]
    "QuantizeBits": 8
    "HasScratch": "true"
    
    "RuntimeMemory": "72.25KB"
    "ScheduleId": "478"

  }

}
layer {
  name: "Conv2D: /model/model_22_cv1_conv/layer/Conv"
  type: "Convolution"
  bottom: "/model/Concat_23:0"
  top: "/model/model_0_act_49/Mul_smr:0"
    scale_param {
    "InputShapes": "768x16x16, 512x768x1x1, 512"
    "OutputShape": "512x16x16"
    "Quantize[mn,mx]": [-8.0, 8.0]
    "QuantizeBits": 16
    "ConstInputs": "/model/model_22_cv1_conv/WeightsSymmetricQuantizer:0"
    "ConstInputs": "Variable.model.model_22_cv1_conv.layer.bias.uid66:0"
    "RuntimeMemory": "128.00KB"
    "ScheduleId": "476"

  }
  blobs {
    shape {
      dim: 512
      dim: 768
      dim: 1
      dim: 1
    }
  }
  blobs {
    shape {
      dim: 512
    }
  }
}
layer {
  name: "Swish: /model/model_0_act_49/Mul_smr"
  type: "Swish"
  bottom: "/model/model_0_act_49/Mul_smr:0"
  top: "/model/model_0_act_49/Mul_smr:0"
    scale_param {
    "InputShapes": "512x16x16"
    "OutputShape": "512x16x16"
    "Quantize[mn,mx]": [-4.0, 4.0]
    "QuantizeBits": 8
    "ConstInputs": "/model/model_22_cv1_conv/WeightsSymmetricQuantizer:0"
    "ConstInputs": "Variable.model.model_22_cv1_conv.layer.bias.uid66:0"
    "RuntimeMemory": "128.00KB"
    
  }

}
layer {
  name: "Pad: /model/Pad_8_to1d_1"
  type: "Pad"
  bottom: "/model/Pad_8_to1d_0:0"
  top: "/model/Pad_8_to1d_1:0"
    scale_param {
    "InputShapes": "128x34x32"
    "OutputShape": "128x34x34"
    "Quantize[mn,mx]": [0, 8.0]
    "QuantizeBits": 8
    "HasScratch": "true"
    
    "RuntimeMemory": "144.50KB"
    "ScheduleId": "481"

  }

}
layer {
  name: "Conv2D: /model/model_23_cv2_1_1_conv/layer/Conv"
  type: "Convolution"
  bottom: "/model/Pad_7_to1d_1:0"
  top: "/model/model_0_act_61/Mul_smr:0"
    scale_param {
    "InputShapes": "64x34x34, 64x64x3x3, 64"
    "OutputShape": "64x32x32"
    "Quantize[mn,mx]": [-16.0, 16.0]
    "QuantizeBits": 16
    "ConstInputs": "/model/model_23_cv2_1_1_conv/WeightsSymmetricQuantizer:0"
    "ConstInputs": "Variable.model.model_23_cv2_1_1_conv.layer.bias.uid68:0"
    "RuntimeMemory": "64.00KB"
    "ScheduleId": "479"

  }
  blobs {
    shape {
      dim: 64
      dim: 64
      dim: 3
      dim: 3
    }
  }
  blobs {
    shape {
      dim: 64
    }
  }
}
layer {
  name: "Swish: /model/model_0_act_61/Mul_smr"
  type: "Swish"
  bottom: "/model/model_0_act_61/Mul_smr:0"
  top: "/model/model_0_act_61/Mul_smr:0"
    scale_param {
    "InputShapes": "64x32x32"
    "OutputShape": "64x32x32"
    "Quantize[mn,mx]": [0, 16.0]
    "QuantizeBits": 8
    "ConstInputs": "/model/model_23_cv2_1_1_conv/WeightsSymmetricQuantizer:0"
    "ConstInputs": "Variable.model.model_23_cv2_1_1_conv.layer.bias.uid68:0"
    "RuntimeMemory": "64.00KB"
    
  }

}
layer {
  name: "Transform: transform-20-(F)/model/model_22_cv1_conv/layer/Conv"
  type: "Transform"
  bottom: "/model/model_0_act_49/Mul_smr:0"
  top: "transform-20-(F)/model/model_22_cv1_conv/layer/Conv:0"
    scale_param {
    "InputShapes": "512x16x16"
    "OutputShape": "512x16x16"
    "Quantize[mn,mx]": [-4.0, 4.0]
    "QuantizeBits": 8
    
    "RuntimeMemory": "256.00KB"
    "ScheduleId": "489"

  }

}
layer {
  name: "Transform: transform-21-(F)/model/model_22_cv1_conv/layer/Conv"
  type: "Transform"
  bottom: "/model/model_0_act_49/Mul_smr:0"
  top: "transform-21-(F)/model/model_22_cv1_conv/layer/Conv:0"
    scale_param {
    "InputShapes": "512x16x16"
    "OutputShape": "512x16x16"
    "Quantize[mn,mx]": [-4.0, 4.0]
    "QuantizeBits": 8
    
    "RuntimeMemory": "256.00KB"
    "ScheduleId": "492"

  }

}
layer {
  name: "Conv2D: /model/model_23_cv3_1_1_0_conv/layer/Conv"
  type: "Convolution"
  bottom: "/model/Pad_8_to1d_1:0"
  top: "/model/model_0_act_70/Mul_smr:0"
    scale_param {
    "InputShapes": "128x34x34, 128x1x3x3, 128"
    "OutputShape": "128x32x32"
    "Quantize[mn,mx]": [-16.0, 16.0]
    "QuantizeBits": 16
    "ConstInputs": "/model/model_23_cv3_1_1_0_conv/WeightsSymmetricQuantizer:0"
    "ConstInputs": "Variable.model.model_23_cv3_1_1_0_conv.layer.bias.uid72:0"
    "RuntimeMemory": "128.00KB"
    "ScheduleId": "482"

  }
  blobs {
    shape {
      dim: 128
      dim: 1
      dim: 3
      dim: 3
    }
  }
  blobs {
    shape {
      dim: 128
    }
  }
}
layer {
  name: "Swish: /model/model_0_act_70/Mul_smr"
  type: "Swish"
  bottom: "/model/model_0_act_70/Mul_smr:0"
  top: "/model/model_0_act_70/Mul_smr:0"
    scale_param {
    "InputShapes": "128x32x32"
    "OutputShape": "128x32x32"
    "Quantize[mn,mx]": [0, 16.0]
    "QuantizeBits": 8
    "ConstInputs": "/model/model_23_cv3_1_1_0_conv/WeightsSymmetricQuantizer:0"
    "ConstInputs": "Variable.model.model_23_cv3_1_1_0_conv.layer.bias.uid72:0"
    "RuntimeMemory": "128.00KB"
    
  }

}
layer {
  name: "Conv2D: /model/model_23_cv2_1_2/layer/Conv"
  type: "Convolution"
  bottom: "/model/model_0_act_61/Mul_smr:0"
  top: "/model/model_23_cv2_1_2/layer/Conv:0"
    scale_param {
    "InputShapes": "64x32x32, 64x64x1x1, 64"
    "OutputShape": "64x32x32"
    "Quantize[mn,mx]": [-8.0, 8.0]
    "QuantizeBits": 8
    "ConstInputs": "/model/model_23_cv2_1_2/WeightsSymmetricQuantizer:0"
    "ConstInputs": "Variable.model.model_23_cv2_1_2.layer.bias.uid71:0"
    "RuntimeMemory": "64.00KB"
    "ScheduleId": "484"

  }
  blobs {
    shape {
      dim: 64
      dim: 64
      dim: 1
      dim: 1
    }
  }
  blobs {
    shape {
      dim: 64
    }
  }
}
layer {
  name: "StrideSlice: /model/Split_13sts0"
  type: "StrideSlice"
  bottom: "transform-20-(F)/model/model_22_cv1_conv/layer/Conv:0"
  top: "/model/Split_13sts0:0"
    scale_param {
    "InputShapes": "512x16x16"
    "OutputShape": "256x16x16"
    "Quantize[mn,mx]": [-4.0, 4.0]
    "QuantizeBits": 8
    
    "RuntimeMemory": "128.00KB"
    "ScheduleId": "490"

  }

}
layer {
  name: "StrideSlice: /model/Split_13sts1"
  type: "StrideSlice"
  bottom: "transform-21-(F)/model/model_22_cv1_conv/layer/Conv:0"
  top: "/model/Split_13sts1:0"
    scale_param {
    "InputShapes": "512x16x16"
    "OutputShape": "256x16x16"
    "Quantize[mn,mx]": [-4.0, 4.0]
    "QuantizeBits": 8
    
    "RuntimeMemory": "128.00KB"
    "ScheduleId": "493"

  }

}
layer {
  name: "Conv2D: /model/model_23_cv3_1_1_1_conv/layer/Conv"
  type: "Convolution"
  bottom: "/model/model_0_act_70/Mul_smr:0"
  top: "/model/model_0_act_71/Mul_smr:0"
    scale_param {
    "InputShapes": "128x32x32, 128x128x1x1, 128"
    "OutputShape": "128x32x32"
    "Quantize[mn,mx]": [-32.0, 32.0]
    "QuantizeBits": 16
    "ConstInputs": "/model/model_23_cv3_1_1_1_conv/WeightsSymmetricQuantizer:0"
    "ConstInputs": "Variable.model.model_23_cv3_1_1_1_conv.layer.bias.uid74:0"
    "RuntimeMemory": "128.00KB"
    "ScheduleId": "483"

  }
  blobs {
    shape {
      dim: 128
      dim: 128
      dim: 1
      dim: 1
    }
  }
  blobs {
    shape {
      dim: 128
    }
  }
}
layer {
  name: "Swish: /model/model_0_act_71/Mul_smr"
  type: "Swish"
  bottom: "/model/model_0_act_71/Mul_smr:0"
  top: "/model/model_0_act_71/Mul_smr:0"
    scale_param {
    "InputShapes": "128x32x32"
    "OutputShape": "128x32x32"
    "Quantize[mn,mx]": [0, 32.0]
    "QuantizeBits": 8
    "ConstInputs": "/model/model_23_cv3_1_1_1_conv/WeightsSymmetricQuantizer:0"
    "ConstInputs": "Variable.model.model_23_cv3_1_1_1_conv.layer.bias.uid74:0"
    "RuntimeMemory": "128.00KB"
    
  }

}
layer {
  name: "Transform: transform-14-/model/model_23_cv2_1_2/layer/Conv"
  type: "Transform"
  bottom: "/model/model_23_cv2_1_2/layer/Conv:0"
  top: "transform-14-/model/model_23_cv2_1_2/layer/Conv:0"
    scale_param {
    "InputShapes": "64x32x32"
    "OutputShape": "64x32x32"
    "Quantize[mn,mx]": [-8.0, 8.0]
    "QuantizeBits": 8
    
    "RuntimeMemory": "64.00KB"
    "ScheduleId": "487"

  }

}
layer {
  name: "Transform: transform-16-/model/Split_13sts0"
  type: "Transform"
  bottom: "/model/Split_13sts0:0"
  top: "transform-16-/model/Split_13sts0:0"
    scale_param {
    "InputShapes": "256x16x16"
    "OutputShape": "256x16x16"
    "Quantize[mn,mx]": [-4.0, 4.0]
    "QuantizeBits": 8
    
    "RuntimeMemory": "64.00KB"
    "ScheduleId": "491"

  }

}
layer {
  name: "Transform: transform-17-/model/Split_13sts1"
  type: "Transform"
  bottom: "/model/Split_13sts1:0"
  top: "transform-17-/model/Split_13sts1:0"
    scale_param {
    "InputShapes": "256x16x16"
    "OutputShape": "256x16x16"
    "Quantize[mn,mx]": [-4.0, 4.0]
    "QuantizeBits": 8
    
    "RuntimeMemory": "64.00KB"
    "ScheduleId": "494"

  }

}
layer {
  name: "Transform: transform-18-/model/Split_13sts1"
  type: "Transform"
  bottom: "/model/Split_13sts1:0"
  top: "transform-18-/model/Split_13sts1:0"
    scale_param {
    "InputShapes": "256x16x16"
    "OutputShape": "256x16x16"
    "Quantize[mn,mx]": [-4.0, 4.0]
    "QuantizeBits": 8
    
    "RuntimeMemory": "64.00KB"
    "ScheduleId": "495"

  }

}
layer {
  name: "Transform: transform-19-/model/Split_13sts1"
  type: "Transform"
  bottom: "/model/Split_13sts1:0"
  top: "transform-19-/model/Split_13sts1:0"
    scale_param {
    "InputShapes": "256x16x16"
    "OutputShape": "256x16x16"
    "Quantize[mn,mx]": [-4.0, 4.0]
    "QuantizeBits": 8
    
    "RuntimeMemory": "64.00KB"
    "ScheduleId": "497"

  }

}
layer {
  name: "Conv2D: /model/model_23_cv3_1_2/layer/Conv"
  type: "Convolution"
  bottom: "/model/model_0_act_71/Mul_smr:0"
  top: "/model/model_23_cv3_1_2/layer/Conv:0"
    scale_param {
    "InputShapes": "128x32x32, 1x128x1x1, 1"
    "OutputShape": "1x32x32"
    "Quantize[mn,mx]": [-32.0, 32.0]
    "QuantizeBits": 8
    "ConstInputs": "/model/model_23_cv3_1_2/WeightsSymmetricQuantizer:0"
    "ConstInputs": "Variable.model.model_23_cv3_1_2.layer.bias.uid76:0"
    "RuntimeMemory": "1.00KB"
    "ScheduleId": "485"

  }
  blobs {
    shape {
      dim: 1
      dim: 128
      dim: 1
      dim: 1
    }
  }
  blobs {
    shape {
      dim: 1
    }
  }
}
layer {
  name: "Reshape: /model/Reshape_23"
  type: "Reshape"
  bottom: "transform-14-/model/model_23_cv2_1_2/layer/Conv:0"
  top: "/model/Reshape_23:0"
    scale_param {
    "InputShapes": "64x32x32"
    "OutputShape": "64x1024"
    "Quantize[mn,mx]": [-8.0, 8.0]
    "QuantizeBits": 8
    "HasScratch": "true"
    
    "RuntimeMemory": "64.00KB"
    "ScheduleId": "488"

  }

}
layer {
  name: "Conv2D: /model/model_22_m_0_cv2_conv/layer/Conv"
  type: "Convolution"
  bottom: "transform-18-/model/Split_13sts1:0"
  top: "/model/model_0_act_55/Mul_smr:0"
    scale_param {
    "InputShapes": "256x16x16, 128x256x1x1, 128"
    "OutputShape": "128x16x16"
    "Quantize[mn,mx]": [-8.0, 8.0]
    "QuantizeBits": 16
    "ConstInputs": "/model/model_22_m_0_cv2_conv/WeightsSymmetricQuantizer:0"
    "ConstInputs": "Variable.model.model_22_m_0_cv2_conv.layer.bias.uid70:0"
    "RuntimeMemory": "32.00KB"
    "ScheduleId": "496"

  }
  blobs {
    shape {
      dim: 128
      dim: 256
      dim: 1
      dim: 1
    }
  }
  blobs {
    shape {
      dim: 128
    }
  }
}
layer {
  name: "Swish: /model/model_0_act_55/Mul_smr"
  type: "Swish"
  bottom: "/model/model_0_act_55/Mul_smr:0"
  top: "/model/model_0_act_55/Mul_smr:0"
    scale_param {
    "InputShapes": "128x16x16"
    "OutputShape": "128x16x16"
    "Quantize[mn,mx]": [-4.0, 4.0]
    "QuantizeBits": 8
    "ConstInputs": "/model/model_22_m_0_cv2_conv/WeightsSymmetricQuantizer:0"
    "ConstInputs": "Variable.model.model_22_m_0_cv2_conv.layer.bias.uid70:0"
    "RuntimeMemory": "32.00KB"
    
  }

}
layer {
  name: "Conv2D: /model/model_22_m_0_cv1_conv/layer/Conv"
  type: "Convolution"
  bottom: "transform-19-/model/Split_13sts1:0"
  top: "/model/model_0_act_50/Mul_smr:0"
    scale_param {
    "InputShapes": "256x16x16, 128x256x1x1, 128"
    "OutputShape": "128x16x16"
    "Quantize[mn,mx]": [-8.0, 8.0]
    "QuantizeBits": 16
    "ConstInputs": "/model/model_22_m_0_cv1_conv/WeightsSymmetricQuantizer:0"
    "ConstInputs": "Variable.model.model_22_m_0_cv1_conv.layer.bias.uid69:0"
    "RuntimeMemory": "32.00KB"
    "ScheduleId": "498"

  }
  blobs {
    shape {
      dim: 128
      dim: 256
      dim: 1
      dim: 1
    }
  }
  blobs {
    shape {
      dim: 128
    }
  }
}
layer {
  name: "Swish: /model/model_0_act_50/Mul_smr"
  type: "Swish"
  bottom: "/model/model_0_act_50/Mul_smr:0"
  top: "/model/model_0_act_50/Mul_smr:0"
    scale_param {
    "InputShapes": "128x16x16"
    "OutputShape": "128x16x16"
    "Quantize[mn,mx]": [-2.0, 2.0]
    "QuantizeBits": 8
    "ConstInputs": "/model/model_22_m_0_cv1_conv/WeightsSymmetricQuantizer:0"
    "ConstInputs": "Variable.model.model_22_m_0_cv1_conv.layer.bias.uid69:0"
    "RuntimeMemory": "32.00KB"
    
  }

}
layer {
  name: "Reshape: /model/Reshape_24"
  type: "Reshape"
  bottom: "/model/model_23_cv3_1_2/layer/Conv:0"
  top: "/model/Reshape_24:0"
    scale_param {
    "InputShapes": "1x32x32"
    "OutputShape": "1x1024"
    "Quantize[mn,mx]": [-32.0, 32.0]
    "QuantizeBits": 8
    "HasScratch": "true"
    
    "RuntimeMemory": "1.00KB"
    "ScheduleId": "486"

  }

}
layer {
  name: "Conv2D: /model/model_22_m_0_m_0_cv1_conv/layer/Conv"
  type: "Convolution"
  bottom: "/model/model_0_act_50/Mul_smr:0"
  top: "/model/model_0_act_51/Mul_smr:0"
    scale_param {
    "InputShapes": "128x16x16, 128x128x3x3, 128"
    "OutputShape": "128x16x16"
    "Quantize[mn,mx]": [-8.0, 8.0]
    "QuantizeBits": 16
    "ConstInputs": "/model/model_22_m_0_m_0_cv1_conv/WeightsSymmetricQuantizer:0"
    "ConstInputs": "Variable.model.model_22_m_0_m_0_cv1_conv.layer.bias.uid73:0"
    "RuntimeMemory": "32.00KB"
    "ScheduleId": "499"

  }
  blobs {
    shape {
      dim: 128
      dim: 128
      dim: 3
      dim: 3
    }
  }
  blobs {
    shape {
      dim: 128
    }
  }
}
layer {
  name: "Swish: /model/model_0_act_51/Mul_smr"
  type: "Swish"
  bottom: "/model/model_0_act_51/Mul_smr:0"
  top: "/model/model_0_act_51/Mul_smr:0"
    scale_param {
    "InputShapes": "128x16x16"
    "OutputShape": "128x16x16"
    "Quantize[mn,mx]": [-4.0, 4.0]
    "QuantizeBits": 8
    "ConstInputs": "/model/model_22_m_0_m_0_cv1_conv/WeightsSymmetricQuantizer:0"
    "ConstInputs": "Variable.model.model_22_m_0_m_0_cv1_conv.layer.bias.uid73:0"
    "RuntimeMemory": "32.00KB"
    
  }

}
layer {
  name: "Conv2D: /model/model_22_m_0_m_0_cv2_conv/layer/Conv"
  type: "Convolution"
  bottom: "/model/model_0_act_51/Mul_smr:0"
  top: "/model/model_0_act_52/Mul_smr:0"
    scale_param {
    "InputShapes": "128x16x16, 128x128x3x3, 128"
    "OutputShape": "128x16x16"
    "Quantize[mn,mx]": [-8.0, 8.0]
    "QuantizeBits": 16
    "ConstInputs": "/model/model_22_m_0_m_0_cv2_conv/WeightsSymmetricQuantizer:0"
    "ConstInputs": "Variable.model.model_22_m_0_m_0_cv2_conv.layer.bias.uid75:0"
    "RuntimeMemory": "32.00KB"
    "ScheduleId": "500"

  }
  blobs {
    shape {
      dim: 128
      dim: 128
      dim: 3
      dim: 3
    }
  }
  blobs {
    shape {
      dim: 128
    }
  }
}
layer {
  name: "Swish: /model/model_0_act_52/Mul_smr"
  type: "Swish"
  bottom: "/model/model_0_act_52/Mul_smr:0"
  top: "/model/model_0_act_52/Mul_smr:0"
    scale_param {
    "InputShapes": "128x16x16"
    "OutputShape": "128x16x16"
    "Quantize[mn,mx]": [-4.0, 4.0]
    "QuantizeBits": 8
    "ConstInputs": "/model/model_22_m_0_m_0_cv2_conv/WeightsSymmetricQuantizer:0"
    "ConstInputs": "Variable.model.model_22_m_0_m_0_cv2_conv.layer.bias.uid75:0"
    "RuntimeMemory": "32.00KB"
    
  }

}
layer {
  name: "Add: /model/Add_34"
  type: "Add"
  bottom: "/model/model_0_act_50/Mul_smr:0"
  bottom: "/model/model_0_act_52/Mul_smr:0"
  top: "/model/Add_34:0"
    scale_param {
    "InputShapes": "128x16x16, 128x16x16"
    "OutputShape": "128x16x16"
    "Quantize[mn,mx]": [-4.0, 4.0]
    "QuantizeBits": 8
    
    "RuntimeMemory": "32.00KB"
    "ScheduleId": "501"

  }

}
layer {
  name: "Conv2D: /model/model_22_m_0_m_1_cv1_conv/layer/Conv"
  type: "Convolution"
  bottom: "/model/Add_34:0"
  top: "/model/model_0_act_53/Mul_smr:0"
    scale_param {
    "InputShapes": "128x16x16, 128x128x3x3, 128"
    "OutputShape": "128x16x16"
    "Quantize[mn,mx]": [-8.0, 8.0]
    "QuantizeBits": 16
    "ConstInputs": "/model/model_22_m_0_m_1_cv1_conv/WeightsSymmetricQuantizer:0"
    "ConstInputs": "Variable.model.model_22_m_0_m_1_cv1_conv.layer.bias.uid77:0"
    "RuntimeMemory": "32.00KB"
    "ScheduleId": "502"

  }
  blobs {
    shape {
      dim: 128
      dim: 128
      dim: 3
      dim: 3
    }
  }
  blobs {
    shape {
      dim: 128
    }
  }
}
layer {
  name: "Swish: /model/model_0_act_53/Mul_smr"
  type: "Swish"
  bottom: "/model/model_0_act_53/Mul_smr:0"
  top: "/model/model_0_act_53/Mul_smr:0"
    scale_param {
    "InputShapes": "128x16x16"
    "OutputShape": "128x16x16"
    "Quantize[mn,mx]": [-4.0, 4.0]
    "QuantizeBits": 8
    "ConstInputs": "/model/model_22_m_0_m_1_cv1_conv/WeightsSymmetricQuantizer:0"
    "ConstInputs": "Variable.model.model_22_m_0_m_1_cv1_conv.layer.bias.uid77:0"
    "RuntimeMemory": "32.00KB"
    
  }

}
layer {
  name: "Conv2D: /model/model_22_m_0_m_1_cv2_conv/layer/Conv"
  type: "Convolution"
  bottom: "/model/model_0_act_53/Mul_smr:0"
  top: "/model/model_0_act_54/Mul_smr:0"
    scale_param {
    "InputShapes": "128x16x16, 128x128x3x3, 128"
    "OutputShape": "128x16x16"
    "Quantize[mn,mx]": [-8.0, 8.0]
    "QuantizeBits": 16
    "ConstInputs": "/model/model_22_m_0_m_1_cv2_conv/WeightsSymmetricQuantizer:0"
    "ConstInputs": "Variable.model.model_22_m_0_m_1_cv2_conv.layer.bias.uid78:0"
    "RuntimeMemory": "32.00KB"
    "ScheduleId": "503"

  }
  blobs {
    shape {
      dim: 128
      dim: 128
      dim: 3
      dim: 3
    }
  }
  blobs {
    shape {
      dim: 128
    }
  }
}
layer {
  name: "Swish: /model/model_0_act_54/Mul_smr"
  type: "Swish"
  bottom: "/model/model_0_act_54/Mul_smr:0"
  top: "/model/model_0_act_54/Mul_smr:0"
    scale_param {
    "InputShapes": "128x16x16"
    "OutputShape": "128x16x16"
    "Quantize[mn,mx]": [-8.0, 8.0]
    "QuantizeBits": 8
    "ConstInputs": "/model/model_22_m_0_m_1_cv2_conv/WeightsSymmetricQuantizer:0"
    "ConstInputs": "Variable.model.model_22_m_0_m_1_cv2_conv.layer.bias.uid78:0"
    "RuntimeMemory": "32.00KB"
    
  }

}
layer {
  name: "Add: /model/Add_35"
  type: "Add"
  bottom: "/model/Add_34:0"
  bottom: "/model/model_0_act_54/Mul_smr:0"
  top: "/model/Add_35:0"
    scale_param {
    "InputShapes": "128x16x16, 128x16x16"
    "OutputShape": "128x16x16"
    "Quantize[mn,mx]": [-8.0, 8.0]
    "QuantizeBits": 8
    
    "RuntimeMemory": "32.00KB"
    "ScheduleId": "504"

  }

}
layer {
  name: "Concat: /model/Concat_26"
  type: "Concat"
  bottom: "/model/Add_35:0"
  bottom: "/model/model_0_act_55/Mul_smr:0"
  top: "/model/Concat_26:0"
    scale_param {
    "InputShapes": "128x16x16, 128x16x16"
    "OutputShape": "256x16x16"
    "Quantize[mn,mx]": [-8.0, 8.0]
    "QuantizeBits": 8
    
    "RuntimeMemory": "64.00KB"
    "ScheduleId": "505"

  }

}
layer {
  name: "Conv2D: /model/model_22_m_0_cv3_conv/layer/Conv"
  type: "Convolution"
  bottom: "/model/Concat_26:0"
  top: "/model/model_0_act_56/Mul_smr:0"
    scale_param {
    "InputShapes": "256x16x16, 256x256x1x1, 256"
    "OutputShape": "256x16x16"
    "Quantize[mn,mx]": [-8.0, 8.0]
    "QuantizeBits": 16
    "ConstInputs": "/model/model_22_m_0_cv3_conv/WeightsSymmetricQuantizer:0"
    "ConstInputs": "Variable.model.model_22_m_0_cv3_conv.layer.bias.uid79:0"
    "RuntimeMemory": "64.00KB"
    "ScheduleId": "506"

  }
  blobs {
    shape {
      dim: 256
      dim: 256
      dim: 1
      dim: 1
    }
  }
  blobs {
    shape {
      dim: 256
    }
  }
}
layer {
  name: "Swish: /model/model_0_act_56/Mul_smr"
  type: "Swish"
  bottom: "/model/model_0_act_56/Mul_smr:0"
  top: "/model/model_0_act_56/Mul_smr:0"
    scale_param {
    "InputShapes": "256x16x16"
    "OutputShape": "256x16x16"
    "Quantize[mn,mx]": [-8.0, 8.0]
    "QuantizeBits": 8
    "ConstInputs": "/model/model_22_m_0_cv3_conv/WeightsSymmetricQuantizer:0"
    "ConstInputs": "Variable.model.model_22_m_0_cv3_conv.layer.bias.uid79:0"
    "RuntimeMemory": "64.00KB"
    
  }

}
layer {
  name: "Concat: /model/Concat_27"
  type: "Concat"
  bottom: "/model/model_0_act_56/Mul_smr:0"
  bottom: "transform-16-/model/Split_13sts0:0"
  bottom: "transform-17-/model/Split_13sts1:0"
  top: "/model/Concat_27:0"
    scale_param {
    "InputShapes": "256x16x16, 256x16x16, 256x16x16"
    "OutputShape": "768x16x16"
    "Quantize[mn,mx]": [-8.0, 8.0]
    "QuantizeBits": 8
    
    "RuntimeMemory": "192.00KB"
    "ScheduleId": "507"

  }

}
layer {
  name: "Conv2D: /model/model_22_cv2_conv/layer/Conv"
  type: "Convolution"
  bottom: "/model/Concat_27:0"
  top: "/model/model_0_act_57/Mul_smr:0"
    scale_param {
    "InputShapes": "768x16x16, 512x768x1x1, 512"
    "OutputShape": "512x16x16"
    "Quantize[mn,mx]": [-8.0, 8.0]
    "QuantizeBits": 16
    "ConstInputs": "/model/model_22_cv2_conv/WeightsSymmetricQuantizer:0"
    "ConstInputs": "Variable.model.model_22_cv2_conv.layer.bias.uid80:0"
    "RuntimeMemory": "128.00KB"
    "ScheduleId": "508"

  }
  blobs {
    shape {
      dim: 512
      dim: 768
      dim: 1
      dim: 1
    }
  }
  blobs {
    shape {
      dim: 512
    }
  }
}
layer {
  name: "Swish: /model/model_0_act_57/Mul_smr"
  type: "Swish"
  bottom: "/model/model_0_act_57/Mul_smr:0"
  top: "/model/model_0_act_57/Mul_smr:0"
    scale_param {
    "InputShapes": "512x16x16"
    "OutputShape": "512x16x16"
    "Quantize[mn,mx]": [-8.0, 8.0]
    "QuantizeBits": 8
    "ConstInputs": "/model/model_22_cv2_conv/WeightsSymmetricQuantizer:0"
    "ConstInputs": "Variable.model.model_22_cv2_conv.layer.bias.uid80:0"
    "RuntimeMemory": "128.00KB"
    
  }

}
layer {
  name: "Conv2D: /model/model_23_cv3_2_0_0_conv/layer/Conv"
  type: "Convolution"
  bottom: "/model/model_0_act_57/Mul_smr:0"
  top: "/model/model_0_act_72/Mul_smr:0"
    scale_param {
    "InputShapes": "512x16x16, 512x1x3x3, 512"
    "OutputShape": "512x16x16"
    "Quantize[mn,mx]": [-8.0, 8.0]
    "QuantizeBits": 16
    "ConstInputs": "/model/model_23_cv3_2_0_0_conv/WeightsSymmetricQuantizer:0"
    "ConstInputs": "Variable.model.model_23_cv3_2_0_0_conv.layer.bias.uid82:0"
    "RuntimeMemory": "128.00KB"
    "ScheduleId": "510"

  }
  blobs {
    shape {
      dim: 512
      dim: 1
      dim: 3
      dim: 3
    }
  }
  blobs {
    shape {
      dim: 512
    }
  }
}
layer {
  name: "Swish: /model/model_0_act_72/Mul_smr"
  type: "Swish"
  bottom: "/model/model_0_act_72/Mul_smr:0"
  top: "/model/model_0_act_72/Mul_smr:0"
    scale_param {
    "InputShapes": "512x16x16"
    "OutputShape": "512x16x16"
    "Quantize[mn,mx]": [-4.0, 4.0]
    "QuantizeBits": 8
    "ConstInputs": "/model/model_23_cv3_2_0_0_conv/WeightsSymmetricQuantizer:0"
    "ConstInputs": "Variable.model.model_23_cv3_2_0_0_conv.layer.bias.uid82:0"
    "RuntimeMemory": "128.00KB"
    
  }

}
layer {
  name: "Conv2D: /model/model_23_cv2_2_0_conv/layer/Conv"
  type: "Convolution"
  bottom: "/model/model_0_act_57/Mul_smr:0"
  top: "/model/model_0_act_62/Mul_smr:0"
    scale_param {
    "InputShapes": "512x16x16, 64x512x3x3, 64"
    "OutputShape": "64x16x16"
    "Quantize[mn,mx]": [-8.0, 8.0]
    "QuantizeBits": 16
    "ConstInputs": "/model/model_23_cv2_2_0_conv/WeightsSymmetricQuantizer:0"
    "ConstInputs": "Variable.model.model_23_cv2_2_0_conv.layer.bias.uid81:0"
    "RuntimeMemory": "16.00KB"
    "ScheduleId": "509"

  }
  blobs {
    shape {
      dim: 64
      dim: 512
      dim: 3
      dim: 3
    }
  }
  blobs {
    shape {
      dim: 64
    }
  }
}
layer {
  name: "Swish: /model/model_0_act_62/Mul_smr"
  type: "Swish"
  bottom: "/model/model_0_act_62/Mul_smr:0"
  top: "/model/model_0_act_62/Mul_smr:0"
    scale_param {
    "InputShapes": "64x16x16"
    "OutputShape": "64x16x16"
    "Quantize[mn,mx]": [0, 8.0]
    "QuantizeBits": 8
    "ConstInputs": "/model/model_23_cv2_2_0_conv/WeightsSymmetricQuantizer:0"
    "ConstInputs": "Variable.model.model_23_cv2_2_0_conv.layer.bias.uid81:0"
    "RuntimeMemory": "16.00KB"
    
  }

}
layer {
  name: "Conv2D: /model/model_23_cv3_2_0_1_conv/layer/Conv"
  type: "Convolution"
  bottom: "/model/model_0_act_72/Mul_smr:0"
  top: "/model/model_0_act_73/Mul_smr:0"
    scale_param {
    "InputShapes": "512x16x16, 128x512x1x1, 128"
    "OutputShape": "128x16x16"
    "Quantize[mn,mx]": [-8.0, 8.0]
    "QuantizeBits": 16
    "ConstInputs": "/model/model_23_cv3_2_0_1_conv/WeightsSymmetricQuantizer:0"
    "ConstInputs": "Variable.model.model_23_cv3_2_0_1_conv.layer.bias.uid83:0"
    "RuntimeMemory": "32.00KB"
    "ScheduleId": "511"

  }
  blobs {
    shape {
      dim: 128
      dim: 512
      dim: 1
      dim: 1
    }
  }
  blobs {
    shape {
      dim: 128
    }
  }
}
layer {
  name: "Swish: /model/model_0_act_73/Mul_smr"
  type: "Swish"
  bottom: "/model/model_0_act_73/Mul_smr:0"
  top: "/model/model_0_act_73/Mul_smr:0"
    scale_param {
    "InputShapes": "128x16x16"
    "OutputShape": "128x16x16"
    "Quantize[mn,mx]": [-4.0, 4.0]
    "QuantizeBits": 8
    "ConstInputs": "/model/model_23_cv3_2_0_1_conv/WeightsSymmetricQuantizer:0"
    "ConstInputs": "Variable.model.model_23_cv3_2_0_1_conv.layer.bias.uid83:0"
    "RuntimeMemory": "32.00KB"
    
  }

}
layer {
  name: "Pad: /model/Pad_9_to1d_0"
  type: "Pad"
  bottom: "/model/model_0_act_62/Mul_smr:0"
  top: "/model/Pad_9_to1d_0:0"
    scale_param {
    "InputShapes": "64x16x16"
    "OutputShape": "64x18x16"
    "Quantize[mn,mx]": [0, 8.0]
    "QuantizeBits": 8
    "HasScratch": "true"
    
    "RuntimeMemory": "18.00KB"
    "ScheduleId": "514"

  }

}
layer {
  name: "Conv2D: /model/model_23_cv3_2_1_0_conv/layer/Conv"
  type: "Convolution"
  bottom: "/model/model_0_act_73/Mul_smr:0"
  top: "/model/model_0_act_74/Mul_smr:0"
    scale_param {
    "InputShapes": "128x16x16, 128x1x3x3, 128"
    "OutputShape": "128x16x16"
    "Quantize[mn,mx]": [-8.0, 8.0]
    "QuantizeBits": 16
    "ConstInputs": "/model/model_23_cv3_2_1_0_conv/WeightsSymmetricQuantizer:0"
    "ConstInputs": "Variable.model.model_23_cv3_2_1_0_conv.layer.bias.uid85:0"
    "RuntimeMemory": "32.00KB"
    "ScheduleId": "512"

  }
  blobs {
    shape {
      dim: 128
      dim: 1
      dim: 3
      dim: 3
    }
  }
  blobs {
    shape {
      dim: 128
    }
  }
}
layer {
  name: "Swish: /model/model_0_act_74/Mul_smr"
  type: "Swish"
  bottom: "/model/model_0_act_74/Mul_smr:0"
  top: "/model/model_0_act_74/Mul_smr:0"
    scale_param {
    "InputShapes": "128x16x16"
    "OutputShape": "128x16x16"
    "Quantize[mn,mx]": [-4.0, 4.0]
    "QuantizeBits": 8
    "ConstInputs": "/model/model_23_cv3_2_1_0_conv/WeightsSymmetricQuantizer:0"
    "ConstInputs": "Variable.model.model_23_cv3_2_1_0_conv.layer.bias.uid85:0"
    "RuntimeMemory": "32.00KB"
    
  }

}
layer {
  name: "Pad: /model/Pad_9_to1d_1"
  type: "Pad"
  bottom: "/model/Pad_9_to1d_0:0"
  top: "/model/Pad_9_to1d_1:0"
    scale_param {
    "InputShapes": "64x18x16"
    "OutputShape": "64x18x18"
    "Quantize[mn,mx]": [0, 8.0]
    "QuantizeBits": 8
    "HasScratch": "true"
    
    "RuntimeMemory": "20.25KB"
    "ScheduleId": "515"

  }

}
layer {
  name: "Conv2D: /model/model_23_cv3_2_1_1_conv/layer/Conv"
  type: "Convolution"
  bottom: "/model/model_0_act_74/Mul_smr:0"
  top: "/model/model_0_act_75/Mul_smr:0"
    scale_param {
    "InputShapes": "128x16x16, 128x128x1x1, 128"
    "OutputShape": "128x16x16"
    "Quantize[mn,mx]": [-16.0, 16.0]
    "QuantizeBits": 16
    "ConstInputs": "/model/model_23_cv3_2_1_1_conv/WeightsSymmetricQuantizer:0"
    "ConstInputs": "Variable.model.model_23_cv3_2_1_1_conv.layer.bias.uid86:0"
    "RuntimeMemory": "32.00KB"
    "ScheduleId": "513"

  }
  blobs {
    shape {
      dim: 128
      dim: 128
      dim: 1
      dim: 1
    }
  }
  blobs {
    shape {
      dim: 128
    }
  }
}
layer {
  name: "Swish: /model/model_0_act_75/Mul_smr"
  type: "Swish"
  bottom: "/model/model_0_act_75/Mul_smr:0"
  top: "/model/model_0_act_75/Mul_smr:0"
    scale_param {
    "InputShapes": "128x16x16"
    "OutputShape": "128x16x16"
    "Quantize[mn,mx]": [0, 16.0]
    "QuantizeBits": 8
    "ConstInputs": "/model/model_23_cv3_2_1_1_conv/WeightsSymmetricQuantizer:0"
    "ConstInputs": "Variable.model.model_23_cv3_2_1_1_conv.layer.bias.uid86:0"
    "RuntimeMemory": "32.00KB"
    
  }

}
layer {
  name: "Conv2D: /model/model_23_cv2_2_1_conv/layer/Conv"
  type: "Convolution"
  bottom: "/model/Pad_9_to1d_1:0"
  top: "/model/model_0_act_63/Mul_smr:0"
    scale_param {
    "InputShapes": "64x18x18, 64x64x3x3, 64"
    "OutputShape": "64x16x16"
    "Quantize[mn,mx]": [-16.0, 16.0]
    "QuantizeBits": 16
    "ConstInputs": "/model/model_23_cv2_2_1_conv/WeightsSymmetricQuantizer:0"
    "ConstInputs": "Variable.model.model_23_cv2_2_1_conv.layer.bias.uid84:0"
    "RuntimeMemory": "16.00KB"
    "ScheduleId": "516"

  }
  blobs {
    shape {
      dim: 64
      dim: 64
      dim: 3
      dim: 3
    }
  }
  blobs {
    shape {
      dim: 64
    }
  }
}
layer {
  name: "Swish: /model/model_0_act_63/Mul_smr"
  type: "Swish"
  bottom: "/model/model_0_act_63/Mul_smr:0"
  top: "/model/model_0_act_63/Mul_smr:0"
    scale_param {
    "InputShapes": "64x16x16"
    "OutputShape": "64x16x16"
    "Quantize[mn,mx]": [0, 16.0]
    "QuantizeBits": 8
    "ConstInputs": "/model/model_23_cv2_2_1_conv/WeightsSymmetricQuantizer:0"
    "ConstInputs": "Variable.model.model_23_cv2_2_1_conv.layer.bias.uid84:0"
    "RuntimeMemory": "16.00KB"
    
  }

}
layer {
  name: "Conv2D: /model/model_23_cv3_2_2/layer/Conv"
  type: "Convolution"
  bottom: "/model/model_0_act_75/Mul_smr:0"
  top: "/model/model_23_cv3_2_2/layer/Conv:0"
    scale_param {
    "InputShapes": "128x16x16, 1x128x1x1, 1"
    "OutputShape": "1x16x16"
    "Quantize[mn,mx]": [-16.0, 16.0]
    "QuantizeBits": 8
    "ConstInputs": "/model/model_23_cv3_2_2/WeightsSymmetricQuantizer:0"
    "ConstInputs": "Variable.model.model_23_cv3_2_2.layer.bias.uid88:0"
    "RuntimeMemory": "512B"
    "ScheduleId": "518"

  }
  blobs {
    shape {
      dim: 1
      dim: 128
      dim: 1
      dim: 1
    }
  }
  blobs {
    shape {
      dim: 1
    }
  }
}
layer {
  name: "Conv2D: /model/model_23_cv2_2_2/layer/Conv"
  type: "Convolution"
  bottom: "/model/model_0_act_63/Mul_smr:0"
  top: "/model/model_23_cv2_2_2/layer/Conv:0"
    scale_param {
    "InputShapes": "64x16x16, 64x64x1x1, 64"
    "OutputShape": "64x16x16"
    "Quantize[mn,mx]": [-8.0, 8.0]
    "QuantizeBits": 8
    "ConstInputs": "/model/model_23_cv2_2_2/WeightsSymmetricQuantizer:0"
    "ConstInputs": "Variable.model.model_23_cv2_2_2.layer.bias.uid87:0"
    "RuntimeMemory": "16.00KB"
    "ScheduleId": "517"

  }
  blobs {
    shape {
      dim: 64
      dim: 64
      dim: 1
      dim: 1
    }
  }
  blobs {
    shape {
      dim: 64
    }
  }
}
layer {
  name: "Reshape: /model/Reshape_29"
  type: "Reshape"
  bottom: "/model/model_23_cv3_2_2/layer/Conv:0"
  top: "/model/Reshape_29:0"
    scale_param {
    "InputShapes": "1x16x16"
    "OutputShape": "1x256"
    "Quantize[mn,mx]": [-16.0, 16.0]
    "QuantizeBits": 8
    "HasScratch": "true"
    
    "RuntimeMemory": "256B"
    "ScheduleId": "519"

  }

}
layer {
  name: "Transform: transform-13-/model/model_23_cv2_2_2/layer/Conv"
  type: "Transform"
  bottom: "/model/model_23_cv2_2_2/layer/Conv:0"
  top: "transform-13-/model/model_23_cv2_2_2/layer/Conv:0"
    scale_param {
    "InputShapes": "64x16x16"
    "OutputShape": "64x16x16"
    "Quantize[mn,mx]": [-8.0, 8.0]
    "QuantizeBits": 8
    
    "RuntimeMemory": "16.00KB"
    "ScheduleId": "523"

  }

}
layer {
  name: "Concat: /model/Concat_30"
  type: "Concat"
  bottom: "/model/Reshape_18:0"
  bottom: "/model/Reshape_24:0"
  bottom: "/model/Reshape_29:0"
  top: "/model/Concat_30:0"
    scale_param {
    "InputShapes": "1x4096, 1x1024, 1x256"
    "OutputShape": "1x5376"
    "Quantize[mn,mx]": [-32.0, 32.0]
    "QuantizeBits": 8
    
    "RuntimeMemory": "5.25KB"
    "ScheduleId": "520"

  }

}
layer {
  name: "Reshape: /model/Reshape_27"
  type: "Reshape"
  bottom: "transform-13-/model/model_23_cv2_2_2/layer/Conv:0"
  top: "/model/Reshape_27:0"
    scale_param {
    "InputShapes": "64x16x16"
    "OutputShape": "64x256"
    "Quantize[mn,mx]": [-8.0, 8.0]
    "QuantizeBits": 8
    "HasScratch": "true"
    
    "RuntimeMemory": "16.00KB"
    "ScheduleId": "524"

  }

}
layer {
  name: "Sigmoid: /model/Sigmoid"
  type: "Sigmoid"
  bottom: "/model/Concat_30:0"
  top: "/model/Sigmoid:0"
    scale_param {
    "InputShapes": "1x5376"
    "OutputShape": "1x5376"
    "Quantize[mn,mx]": [0, 1.0]
    "QuantizeBits": 8
    
    "RuntimeMemory": "5.25KB"
    "ScheduleId": "521"

  }

}
layer {
  name: "Concat: /model/Concat_29"
  type: "Concat"
  bottom: "/model/Reshape_17:0"
  bottom: "/model/Reshape_23:0"
  bottom: "/model/Reshape_27:0"
  top: "/model/Concat_29:0"
    scale_param {
    "InputShapes": "64x4096, 64x1024, 64x256"
    "OutputShape": "64x5376"
    "Quantize[mn,mx]": [-16.0, 16.0]
    "QuantizeBits": 8
    
    "RuntimeMemory": "336.00KB"
    "ScheduleId": "525"

  }

}
layer {
  name: "Transpose: /model/Transpose_13"
  type: "Transpose"
  bottom: "/model/Sigmoid:0"
  top: "/model/Transpose_13:0"
    scale_param {
    "InputShapes": "1x5376"
    "OutputShape": "5376x1"
    "Quantize[mn,mx]": [0, 1.0]
    "QuantizeBits": 8
    
    "RuntimeMemory": "5.25KB"
    "ScheduleId": "522"

  }

}
layer {
  name: "Transform: transform-12-/model/Concat_29"
  type: "Transform"
  bottom: "/model/Concat_29:0"
  top: "transform-12-/model/Concat_29:0"
    scale_param {
    "InputShapes": "64x5376"
    "OutputShape": "64x5376"
    "Quantize[mn,mx]": [-16.0, 16.0]
    "QuantizeBits": 8
    
    "RuntimeMemory": "336.00KB"
    "ScheduleId": "526"

  }

}
layer {
  name: "Reshape: /model/Reshape_28"
  type: "Reshape"
  bottom: "transform-12-/model/Concat_29:0"
  top: "/model/Reshape_28:0"
    scale_param {
    "InputShapes": "64x5376"
    "OutputShape": "4x16x5376"
    "Quantize[mn,mx]": [-16.0, 16.0]
    "QuantizeBits": 8
    "HasScratch": "true"
    
    "RuntimeMemory": "336.00KB"
    "ScheduleId": "527"

  }

}
layer {
  name: "Transform: transform-11-/model/Reshape_28"
  type: "Transform"
  bottom: "/model/Reshape_28:0"
  top: "transform-11-/model/Reshape_28:0"
    scale_param {
    "InputShapes": "4x16x5376"
    "OutputShape": "4x16x5376"
    "Quantize[mn,mx]": [-16.0, 16.0]
    "QuantizeBits": 8
    
    "RuntimeMemory": "336.00KB"
    "ScheduleId": "528"

  }

}
layer {
  name: "Transpose: /model/Transpose_12"
  type: "Transpose"
  bottom: "transform-11-/model/Reshape_28:0"
  top: "/model/Transpose_12:0"
    scale_param {
    "InputShapes": "4x16x5376"
    "OutputShape": "16x4x5376"
    "Quantize[mn,mx]": [-16.0, 16.0]
    "QuantizeBits": 8
    
    "RuntimeMemory": "336.00KB"
    "ScheduleId": "529"

  }

}
layer {
  name: "Transform: transform-10-/model/Transpose_12"
  type: "Transform"
  bottom: "/model/Transpose_12:0"
  top: "transform-10-/model/Transpose_12:0"
    scale_param {
    "InputShapes": "16x4x5376"
    "OutputShape": "16x4x5376"
    "Quantize[mn,mx]": [-16.0, 16.0]
    "QuantizeBits": 8
    
    "RuntimeMemory": "336.00KB"
    "ScheduleId": "530"

  }

}
layer {
  name: "Transpose: /model/Softmax_1_saitr"
  type: "Transpose"
  bottom: "transform-10-/model/Transpose_12:0"
  top: "/model/Softmax_1_saitr:0"
    scale_param {
    "InputShapes": "16x4x5376"
    "OutputShape": "5376x4x16"
    "Quantize[mn,mx]": [-16.0, 16.0]
    "QuantizeBits": 8
    
    "RuntimeMemory": "336.00KB"
    "ScheduleId": "531"

  }

}
layer {
  name: "Softmax: /model/Softmax_1_sa"
  type: "Softmax"
  bottom: "/model/Softmax_1_saitr:0"
  top: "/model/Softmax_1_sa:0"
    scale_param {
    "InputShapes": "5376x4x16"
    "OutputShape": "5376x4x16"
    "Quantize[mn,mx]": [0, 1.0]
    "QuantizeBits": 8
    
    "RuntimeMemory": "336.00KB"
    "ScheduleId": "532"

  }

}
layer {
  name: "Transform: transform-9-/model/Softmax_1_sa"
  type: "Transform"
  bottom: "/model/Softmax_1_sa:0"
  top: "transform-9-/model/Softmax_1_sa:0"
    scale_param {
    "InputShapes": "5376x4x16"
    "OutputShape": "5376x4x16"
    "Quantize[mn,mx]": [0, 1.0]
    "QuantizeBits": 8
    
    "RuntimeMemory": "336.00KB"
    "ScheduleId": "533"

  }

}
layer {
  name: "Transpose: /model/Softmax_1_saotr"
  type: "Transpose"
  bottom: "transform-9-/model/Softmax_1_sa:0"
  top: "/model/Softmax_1_saotr:0"
    scale_param {
    "InputShapes": "5376x4x16"
    "OutputShape": "16x4x5376"
    "Quantize[mn,mx]": [0, 1.0]
    "QuantizeBits": 8
    
    "RuntimeMemory": "336.00KB"
    "ScheduleId": "534"

  }

}
layer {
  name: "Transform: transform-8-/model/Softmax_1_saotr"
  type: "Transform"
  bottom: "/model/Softmax_1_saotr:0"
  top: "transform-8-/model/Softmax_1_saotr:0"
    scale_param {
    "InputShapes": "16x4x5376"
    "OutputShape": "16x4x5376"
    "Quantize[mn,mx]": [0, 1.0]
    "QuantizeBits": 8
    
    "RuntimeMemory": "336.00KB"
    "ScheduleId": "535"

  }

}
layer {
  name: "Conv2D: /model/model_23_dfl_conv/layer/Conv"
  type: "Convolution"
  bottom: "transform-8-/model/Softmax_1_saotr:0"
  top: "/model/model_23_dfl_conv/layer/Conv:0"
    scale_param {
    "InputShapes": "16x4x5376, 1x16x1x1, 1"
    "OutputShape": "1x4x5376"
    "Quantize[mn,mx]": [0, 16.0]
    "QuantizeBits": 8
    "ConstInputs": "/model/model_23_dfl_conv/WeightsSymmetricQuantizer:0"
    "ConstInputs": "Variable.model.model_23_dfl_conv.layer.bias.uid89:0"
    "RuntimeMemory": "21.00KB"
    "ScheduleId": "536"

  }
  blobs {
    shape {
      dim: 1
      dim: 16
      dim: 1
      dim: 1
    }
  }
  blobs {
    shape {
      dim: 1
    }
  }
}
layer {
  name: "Reshape: /model/Reshape_30"
  type: "Reshape"
  bottom: "/model/model_23_dfl_conv/layer/Conv:0"
  top: "/model/Reshape_30:0"
    scale_param {
    "InputShapes": "1x4x5376"
    "OutputShape": "4x5376"
    "Quantize[mn,mx]": [0, 16.0]
    "QuantizeBits": 8
    "HasScratch": "true"
    
    "RuntimeMemory": "21.00KB"
    "ScheduleId": "537"

  }

}
layer {
  name: "StrideSlice: /model/Slice_10"
  type: "StrideSlice"
  bottom: "/model/Reshape_30:0"
  top: "/model/Slice_10:0"
    scale_param {
    "InputShapes": "4x5376"
    "OutputShape": "2x5376"
    "Quantize[mn,mx]": [0, 16.0]
    "QuantizeBits": 8
    
    "RuntimeMemory": "10.50KB"
    "ScheduleId": "538"

  }

}
layer {
  name: "StrideSlice: /model/Slice_11"
  type: "StrideSlice"
  bottom: "/model/Reshape_30:0"
  top: "/model/Slice_11:0"
    scale_param {
    "InputShapes": "4x5376"
    "OutputShape": "2x5376"
    "Quantize[mn,mx]": [0, 16.0]
    "QuantizeBits": 8
    
    "RuntimeMemory": "10.50KB"
    "ScheduleId": "539"

  }

}
layer {
  name: "Cast: Cast_to_/model/sub/Sub_1"
  type: "Cast"
  bottom: "/model/Slice_10:0"
  top: "Cast_to_/model/sub/Sub_1:0"
    scale_param {
    "InputShapes": "2x5376"
    "OutputShape": "2x5376"
    "Quantize[mn,mx]": [-16.0, 16.0]
    "QuantizeBits": 16
    
    "RuntimeMemory": "21.00KB"
    "ScheduleId": "541"

  }

}
layer {
  name: "Cast: Cast_to_/model/add_14/Add_1"
  type: "Cast"
  bottom: "/model/Slice_11:0"
  top: "Cast_to_/model/add_14/Add_1:0"
    scale_param {
    "InputShapes": "2x5376"
    "OutputShape": "2x5376"
    "Quantize[mn,mx]": [-16.0, 16.0]
    "QuantizeBits": 16
    
    "RuntimeMemory": "21.00KB"
    "ScheduleId": "540"

  }

}
layer {
  name: "Transform: transform-6-Cast_to_/model/sub/Sub_1"
  type: "Transform"
  bottom: "Cast_to_/model/sub/Sub_1:0"
  top: "transform-6-Cast_to_/model/sub/Sub_1:0"
    scale_param {
    "InputShapes": "2x5376"
    "OutputShape": "2x5376"
    "Quantize[mn,mx]": [-16.0, 16.0]
    "QuantizeBits": 16
    
    "RuntimeMemory": "21.00KB"
    "ScheduleId": "542"

  }

}
layer {
  name: "Transform: transform-7-Cast_to_/model/add_14/Add_1"
  type: "Transform"
  bottom: "Cast_to_/model/add_14/Add_1:0"
  top: "transform-7-Cast_to_/model/add_14/Add_1:0"
    scale_param {
    "InputShapes": "2x5376"
    "OutputShape": "2x5376"
    "Quantize[mn,mx]": [-16.0, 16.0]
    "QuantizeBits": 16
    
    "RuntimeMemory": "21.00KB"
    "ScheduleId": "545"

  }

}
layer {
  name: "Sub: /model/sub/Sub"
  type: "Sub"
  bottom: "Cast_to_/model/sub/Sub_0:0"
  bottom: "transform-6-Cast_to_/model/sub/Sub_1:0"
  top: "/model/sub/Sub:0"
    scale_param {
    "InputShapes": "2x5376, 2x5376"
    "OutputShape": "2x5376"
    "Quantize[mn,mx]": [-128.0, 128.0]
    "QuantizeBits": 16
    
    "RuntimeMemory": "21.00KB"
    "ScheduleId": "544"

  }

}
layer {
  name: "Add: /model/add_14/Add"
  type: "Add"
  bottom: "Cast_to_/model/add_14/Add_0:0"
  bottom: "transform-7-Cast_to_/model/add_14/Add_1:0"
  top: "/model/add_14/Add:0"
    scale_param {
    "InputShapes": "2x5376, 2x5376"
    "OutputShape": "2x5376"
    "Quantize[mn,mx]": [-128.0, 128.0]
    "QuantizeBits": 16
    
    "RuntimeMemory": "21.00KB"
    "ScheduleId": "547"

  }

}
layer {
  name: "Concat: /model/Concat_31"
  type: "Concat"
  bottom: "/model/add_14/Add:0"
  bottom: "/model/sub/Sub:0"
  top: "/model/Concat_31:0"
    scale_param {
    "InputShapes": "2x5376, 2x5376"
    "OutputShape": "4x5376"
    "Quantize[mn,mx]": [-128.0, 128.0]
    "QuantizeBits": 16
    
    "RuntimeMemory": "42.00KB"
    "ScheduleId": "548"

  }

}
layer {
  name: "Mul: /model/mul_2/Mul"
  type: "Mul"
  bottom: "/model/Concat_31:0"
  bottom: "Cast_to_/model/mul_2/Mul_1:0"
  top: "/model/mul_2/Mul:0"
    scale_param {
    "InputShapes": "4x5376, 1x5376"
    "OutputShape": "4x5376"
    "Quantize[mn,mx]": [-1024.0, 1024.0]
    "QuantizeBits": 16
    
    "RuntimeMemory": "42.00KB"
    "ScheduleId": "550"

  }

}
layer {
  name: "Transform: transform-5-/model/mul_2/Mul"
  type: "Transform"
  bottom: "/model/mul_2/Mul:0"
  top: "transform-5-/model/mul_2/Mul:0"
    scale_param {
    "InputShapes": "4x5376"
    "OutputShape": "4x5376"
    "Quantize[mn,mx]": [-1024.0, 1024.0]
    "QuantizeBits": 16
    
    "RuntimeMemory": "42.00KB"
    "ScheduleId": "551"

  }

}
layer {
  name: "Transpose: /model/Transpose_14"
  type: "Transpose"
  bottom: "transform-5-/model/mul_2/Mul:0"
  top: "/model/Transpose_14:0"
    scale_param {
    "InputShapes": "4x5376"
    "OutputShape": "5376x4"
    "Quantize[mn,mx]": [-1024.0, 1024.0]
    "QuantizeBits": 16
    
    "RuntimeMemory": "42.00KB"
    "ScheduleId": "552"

  }

}
layer {
  name: "Reshape: /MultiClassNMSWithIndices_expand_dims_reshaped"
  type: "Reshape"
  bottom: "/model/Transpose_14:0"
  top: "/MultiClassNMSWithIndices_expand_dims_reshaped:0"
    scale_param {
    "InputShapes": "5376x4"
    "OutputShape": "5376x1x4"
    "Quantize[mn,mx]": [-1024.0, 1024.0]
    "QuantizeBits": 16
    "HasScratch": "true"
    
    "RuntimeMemory": "42.00KB"
    "ScheduleId": "553"

  }

}
layer {
  name: "Transform: transform-4-/MultiClassNMSWithIndices_expand_dims_reshaped"
  type: "Transform"
  bottom: "/MultiClassNMSWithIndices_expand_dims_reshaped:0"
  top: "transform-4-/MultiClassNMSWithIndices_expand_dims_reshaped:0"
    scale_param {
    "InputShapes": "5376x1x4"
    "OutputShape": "5376x1x4"
    "Quantize[mn,mx]": [-1024.0, 1024.0]
    "QuantizeBits": 16
    
    "RuntimeMemory": "42.00KB"
    "ScheduleId": "554"

  }

}
layer {
  name: "MultiClassNms: /MultiClassNMSWithIndices"
  type: "MultiClassNms"
  bottom: "/model/Transpose_13:0"
  bottom: "transform-4-/MultiClassNMSWithIndices_expand_dims_reshaped:0"
  top: "/MultiClassNMSWithIndices:0"
  top: "/MultiClassNMSWithIndices:1:1"
  top: "/MultiClassNMSWithIndices:2:2"
  top: "/MultiClassNMSWithIndices:4:4"
    scale_param {
    "InputShapes": "5376x1x4, 5376x1"
    "OutputShape": "300x4"
    "Quantize[mn,mx]": [-1024.0, 1024.0]
    "QuantizeBits": 16
    "HasScratch": "true"
    
    "RuntimeMemory": "3.31KB"
    "ScheduleId": "555"

  }

}
layer {
  name: "Transform: transform-0-/MultiClassNMSWithIndices"
  type: "Transform"
  bottom: "/MultiClassNMSWithIndices:4:4"
  top: "transform-0-/MultiClassNMSWithIndices:0"
    scale_param {
    "InputShapes": "1"
    "OutputShape": "1"
    "Quantize[mn,mx]": [-32768.0, 32768.0]
    "QuantizeBits": 16
    
    "RuntimeMemory": "32B"
    "ScheduleId": "557"

  }

}
layer {
  name: "Transform: transform-1-/MultiClassNMSWithIndices"
  type: "Transform"
  bottom: "/MultiClassNMSWithIndices:2:2"
  top: "transform-1-/MultiClassNMSWithIndices:0"
    scale_param {
    "InputShapes": "300"
    "OutputShape": "300"
    "Quantize[mn,mx]": [-32768.0, 32768.0]
    "QuantizeBits": 16
    
    "RuntimeMemory": "608B"
    "ScheduleId": "559"

  }

}
layer {
  name: "Transform: transform-2-/MultiClassNMSWithIndices"
  type: "Transform"
  bottom: "/MultiClassNMSWithIndices:1:1"
  top: "transform-2-/MultiClassNMSWithIndices:0"
    scale_param {
    "InputShapes": "300"
    "OutputShape": "300"
    "Quantize[mn,mx]": [0, 1.0]
    "QuantizeBits": 8
    
    "RuntimeMemory": "320B"
    "ScheduleId": "561"

  }

}
layer {
  name: "Transform: transform-3-/MultiClassNMSWithIndices"
  type: "Transform"
  bottom: "/MultiClassNMSWithIndices:0"
  top: "transform-3-/MultiClassNMSWithIndices:0"
    scale_param {
    "InputShapes": "300x4"
    "OutputShape": "300x4"
    "Quantize[mn,mx]": [-1024.0, 1024.0]
    "QuantizeBits": 16
    
    "RuntimeMemory": "18.75KB"
    "ScheduleId": "563"

  }

}
layer {
  name: "Output: Output.output_3.uid93"
  type: "Output"
  bottom: "transform-0-/MultiClassNMSWithIndices:0"
  
    scale_param {
    "InputShapes": "1"
    
    
    
    "RuntimeMemory": "0B"
    "ScheduleId": "558"

  }

}
layer {
  name: "Output: Output.output_2.uid92"
  type: "Output"
  bottom: "transform-1-/MultiClassNMSWithIndices:0"
  
    scale_param {
    "InputShapes": "300"
    
    
    
    "RuntimeMemory": "0B"
    "ScheduleId": "560"

  }

}
layer {
  name: "Output: Output.output_1.uid91"
  type: "Output"
  bottom: "transform-2-/MultiClassNMSWithIndices:0"
  
    scale_param {
    "InputShapes": "300"
    
    
    
    "RuntimeMemory": "0B"
    "ScheduleId": "562"

  }

}
layer {
  name: "Output: Output.output_0.uid90"
  type: "Output"
  bottom: "transform-3-/MultiClassNMSWithIndices:0"
  
    scale_param {
    "InputShapes": "300x4"
    
    
    
    "RuntimeMemory": "0B"
    "ScheduleId": "564"

  }

}
layer{
  name: "v11s_2-16_imx"
  type: "MemoryReport"
  scale_param {
   
    RuntimeMemoryPhysicalSize: "4.38MB"
    ModelMemoryPhysicalSize: "2.63MB"
    ReservedMemory: "1.00KB"
    MemoryUsage: "7.01MB"
    TotalMemoryAvailableOnChip: "8.00MB"
    MemoryUtilization: "88%"
    FitInChip: "true"
    InputPersistent: "false"
    Hash: "v11s_2-16_imx"
    InputPersistenceCost: "0B"
      
   LargestLayer: "/model/Pad_2_to1d_1"
  }
}
